…
      sampler {
        min_scale: 0.3
        max_scale: 1
        min_aspect_ratio: 0.5
        max_aspect_ratio: 2
      }
      sample_constraint {
        min_jaccard_overlap: 0.9
      }
      max_sample: 1
      max_trials: 50
    }
    batch_sampler {
      sampler {
        min_scale: 0.3
        max_scale: 1
        min_aspect_ratio: 0.5
        max_aspect_ratio: 2
      }
      sample_constraint {
        max_jaccard_overlap: 1
      }
      max_sample: 1
      max_trials: 50
    }
    label_map_file: "data/GTSDB/labelmap_voc.prototxt"
  }
}
layer {
  name: "conv1_1"
  type: "Convolution"
  bottom: "data"
  top: "conv1_1"
  param {
    lr_mult: 1
    decay_mult: 1
  }
  param {
    lr_mult: 2
    decay_mult: 0
  }
  convolution_param {
    num_output: 64
    pad: 1
    kernel_size: 3
    weight_filler {
      type: "xavier"
    }
    bias_filler {
      type: "constant"
      value: 0
    }
  }
}
layer {
  name: "relu1_1"
  type: "ReLU"
  bottom: "conv1_1"
  top: "conv1_1"
}
layer {
  name: "conv1_2"
  type: "Convolution"
  bottom: "conv1_1"
  top: "conv1_2"
  param {
    lr_mult: 1
    decay_mult: 1
  }
  param {
    lr_mult: 2
    decay_mult: 0
  }
  convolution_param {
    num_output: 64
    pad: 1
    kernel_size: 3
    weight_filler {
      type: "xavier"
    }
    bias_filler {
      type: "constant"
      value: 0
    }
  }
}
layer {
  name: "relu1_2"
  type: "ReLU"
  bottom: "conv1_2"
  top: "conv1_2"
}
layer {
  name: "pool1"
  type: "Pooling"
  bottom: "conv1_2"
  top: "pool1"
  pooling_param {
    pool: MAX
    kernel_size: 2
    stride: 2
  }
}
layer {
  name: "conv2_1"
  type: "Convolution"
  bottom: "pool1"
  top: "conv2_1"
  param {
    lr_mult: 1
    decay_mult: 1
  }
  param {
    lr_mult: 2
    decay_mult: 0
  }
  convolution_param {
    num_output: 128
    pad: 1
    kernel_size: 3
    weight_filler {
      type: "xavier"
    }
    bias_filler {
      type: "constant"
      value: 0
    }
  }
}
layer {
  name: "relu2_1"
  type: "ReLU"
  bottom: "conv2_1"
  top: "conv2_1"
}
layer {
  name: "conv2_2"
  type: "Convolution"
  bottom: "conv2_1"
  top: "conv2_2"
  param {
    lr_mult: 1
    decay_mult: 1
  }
  param {
    lr_mult: 2
    decay_mult: 0
  }
  convolution_param {
    num_output: 128
    pad: 1
    kernel_size: 3
    weight_filler {
      type: "xavier"
    }
    bias_filler {
      type: "constant"
      value: 0
    }
  }
}
layer {
  name: "relu2_2"
  type: "ReLU"
  bottom: "conv2_2"
  top: "conv2_2"
}
layer {
  name: "pool2"
  type: "Pooling"
  bottom: "conv2_2"
  top: "pool2"
  pooling_param {
    pool: MAX
    kernel_size: 2
    stride: 2
  }
}
layer {
  name: "conv3_1"
  type: "Convolution"
  bottom: "pool2"
  top: "conv3_1"
  param {
    lr_mult: 1
    decay_mult: 1
  }
  param {
    lr_mult: 2
    decay_mult: 0
  }
  convolution_param {
    num_output: 256
    pad: 1
    kernel_size: 3
    weight_filler {
      type: "xavier"
    }
    bias_filler {
      type: "constant"
      value: 0
    }
  }
}
layer {
  name: "relu3_1"
  type: "ReLU"
  bottom: "conv3_1"
  top: "conv3_1"
}
layer {
  name: "conv3_2"
  type: "Convolution"
  bottom: "conv3_1"
  top: "conv3_2"
  param {
    lr_mult: 1
    decay_mult: 1
  }
  param {
    lr_mult: 2
    decay_mult: 0
  }
  convolution_param {
    num_output: 256
    pad: 1
    kernel_size: 3
    weight_filler {
      type: "xavier"
    }
    bias_filler {
      type: "constant"
      value: 0
    }
  }
}
layer {
  name: "relu3_2"
  type: "ReLU"
  bottom: "conv3_2"
  top: "conv3_2"
}
layer {
  name: "conv3_3"
  type: "Convolution"
  bottom: "conv3_2"
  top: "conv3_3"
  param {
    lr_mult: 1
    decay_mult: 1
  }
  param {
    lr_mult: 2
    decay_mult: 0
  }
  convolution_param {
    num_output: 256
    pad: 1
    kernel_size: 3
    weight_filler {
      type: "xavier"
    }
    bias_filler {
      type: "constant"
      value: 0
    }
  }
}
layer {
  name: "relu3_3"
  type: "ReLU"
  bottom: "conv3_3"
  top: "conv3_3"
}
layer {
  name: "pool3"
  type: "Pooling"
  bottom: "conv3_3"
  top: "pool3"
  pooling_param {
    pool: MAX
    kernel_size: 2
    stride: 2
  }
}
layer {
  name: "conv4_1"
  type: "Convolution"
  bottom: "pool3"
  top: "conv4_1"
  param {
    lr_mult: 1
    decay_mult: 1
  }
  param {
    lr_mult: 2
    decay_mult: 0
  }
  convolution_param {
    num_output: 512
    pad: 1
    kernel_size: 3
    weight_filler {
      type: "xavier"
    }
    bias_filler {
      type: "constant"
      value: 0
    }
  }
}
layer {
  name: "relu4_1"
  type: "ReLU"
  bottom: "conv4_1"
  top: "conv4_1"
}
layer {
  name: "conv4_2"
  type: "Convolution"
  bottom: "conv4_1"
  top: "conv4_2"
  param {
    lr_mult: 1
    decay_mult: 1
  }
  param {
    lr_mult: 2
    decay_mult: 0
  }
  convolution_param {
    num_output: 512
    pad: 1
    kernel_size: 3
    weight_filler {
      type: "xavier"
    }
    bias_filler {
      type: "constant"
      value: 0
    }
  }
}
layer {
  name: "relu4_2"
  type: "ReLU"
  bottom: "conv4_2"
  top: "conv4_2"
}
layer {
  name: "conv4_3"
  type: "Convolution"
  bottom: "conv4_2"
  top: "conv4_3"
  param {
    lr_mult: 1
    decay_mult: 1
  }
  param {
    lr_mult: 2
    decay_mult: 0
  }
  convolution_param {
    num_output: 512
    pad: 1
    kernel_size: 3
    weight_filler {
      type: "xavier"
    }
    bias_filler {
      type: "constant"
      value: 0
    }
  }
}
layer {
  name: "relu4_3"
  type: "ReLU"
  bottom: "conv4_3"
  top: "conv4_3"
}
layer {
  name: "pool4"
  type: "Pooling"
  bottom: "conv4_3"
  top: "pool4"
  pooling_param {
    pool: MAX
    kernel_size: 2
    stride: 2
  }
}
layer {
  name: "conv5_1"
  type: "Convolution"
  bottom: "pool4"
  top: "conv5_1"
  param {
    lr_mult: 1
    decay_mult: 1
  }
  param {
    lr_mult: 2
    decay_mult: 0
  }
  convolution_param {
    num_output: 512
    pad: 1
    kernel_size: 3
    weight_filler {
      type: "xavier"
    }
    bias_filler {
      type: "constant"
      value: 0
    }
    dilation: 1
  }
}
layer {
  name: "relu5_1"
  type: "ReLU"
  bottom: "conv5_1"
  top: "conv5_1"
}
layer {
  name: "conv5_2"
  type: "Convolution"
  bottom: "conv5_1"
  top: "conv5_2"
  param {
    lr_mult: 1
    decay_mult: 1
  }
  param {
    lr_mult: 2
    decay_mult: 0
  }
  convolution_param {
    num_output: 512
    pad: 1
    kernel_size: 3
    weight_filler {
      type: "xavier"
    }
    bias_filler {
      type: "constant"
      value: 0
    }
    dilation: 1
  }
}
layer {
  name: "relu5_2"
  type: "ReLU"
  bottom: "conv5_2"
  top: "conv5_2"
}
layer {
  name: "conv5_3"
  type: "Convolution"
  bottom: "conv5_2"
  top: "conv5_3"
  param {
    lr_mult: 1
    decay_mult: 1
  }
  param {
    lr_mult: 2
    decay_mult: 0
  }
  convolution_param {
    num_output: 512
    pad: 1
    kernel_size: 3
    weight_filler {
      type: "xavier"
    }
    bias_filler {
      type: "constant"
      value: 0
    }
    dilation: 1
  }
}
layer {
  name: "relu5_3"
  type: "ReLU"
  bottom: "conv5_3"
  top: "conv5_3"
}
layer {
  name: "pool5"
  type: "Pooling"
  bottom: "conv5_3"
  top: "pool5"
  pooling_param {
    pool: MAX
    kernel_size: 3
    stride: 1
    pad: 1
  }
}
layer {
  name: "fc6"
  type: "Convolution"
  bottom: "pool5"
  top: "fc6"
  param {
    lr_mult: 1
    decay_mult: 1
  }
  param {
    lr_mult: 2
    decay_mult: 0
  }
  convolution_param {
    num_output: 1024
    pad: 6
    kernel_size: 3
    weight_filler {
      type: "xavier"
    }
    bias_filler {
      type: "constant"
      value: 0
    }
    dilation: 6
  }
}
layer {
  name: "relu6"
  type: "ReLU"
  bottom: "fc6"
  top: "fc6"
}
layer {
  name: "fc7"
  type: "Convolution"
  bottom: "fc6"
  top: "fc7"
  param {
    lr_mult: 1
    decay_mult: 1
  }
  param {
    lr_mult: 2
    decay_mult: 0
  }
  convolution_param {
    num_output: 1024
    kernel_size: 1
    weight_filler {
      type: "xavier"
    }
    bias_filler {
      type: "constant"
      value: 0
    }
  }
}
layer {
  name: "relu7"
  type: "ReLU"
  bottom: "fc7"
  top: "fc7"
}
layer {
  name: "conv6_1"
  type: "Convolution"
  bottom: "fc7"
  top: "conv6_1"
  param {
    lr_mult: 1
    decay_mult: 1
  }
  param {
    lr_mult: 2
    decay_mult: 0
  }
  convolution_param {
    num_output: 256
    pad: 0
    kernel_size: 1
    stride: 1
    weight_filler {
      type: "xavier"
    }
    bias_filler {
      type: "constant"
      value: 0
    }
  }
}
layer {
  name: "conv6_1_relu"
  type: "ReLU"
  bottom: "conv6_1"
  top: "conv6_1"
}
layer {
  name: "conv6_2"
  type: "Convolution"
  bottom: "conv6_1"
  top: "conv6_2"
  param {
    lr_mult: 1
    decay_mult: 1
  }
  param {
    lr_mult: 2
    decay_mult: 0
  }
  convolution_param {
    num_output: 512
    pad: 1
    kernel_size: 3
    stride: 2
    weight_filler {
      type: "xavier"
    }
    bias_filler {
      type: "constant"
      value: 0
    }
  }
}
layer {
  name: "conv6_2_relu"
  type: "ReLU"
  bottom: "conv6_2"
  top: "conv6_2"
}
layer {
  name: "conv7_1"
  type: "Convolution"
  bottom: "conv6_2"
  top: "conv7_1"
  param {
    lr_mult: 1
    decay_mult: 1
  }
  param {
    lr_mult: 2
    decay_mult: 0
  }
  convolution_param {
    num_output: 128
    pad: 0
    kernel_size: 1
    stride: 1
    weight_filler {
      type: "xavier"
    }
    bias_filler {
      type: "constant"
      value: 0
    }
  }
}
layer {
  name: "conv7_1_relu"
  type: "ReLU"
  bottom: "conv7_1"
  top: "conv7_1"
}
layer {
  name: "conv7_2"
  type: "Convolution"
  bottom: "conv7_1"
  top: "conv7_2"
  param {
    lr_mult: 1
    decay_mult: 1
  }
  param {
    lr_mult: 2
    decay_mult: 0
  }
  convolution_param {
    num_output: 256
    pad: 1
    kernel_size: 3
    stride: 2
    weight_filler {
      type: "xavier"
    }
    bias_filler {
      type: "constant"
      value: 0
    }
  }
}
layer {
  name: "conv7_2_relu"
  type: "ReLU"
  bottom: "conv7_2"
  top: "conv7_2"
}
layer {
  name: "conv8_1"
  type: "Convolution"
  bottom: "conv7_2"
  top: "conv8_1"
  param {
    lr_mult: 1
    decay_mult: 1
  }
  param {
    lr_mult: 2
    decay_mult: 0
  }
  convolution_param {
    num_output: 128
    pad: 0
    kernel_size: 1
    stride: 1
    weight_filler {
      type: "xavier"
    }
    bias_filler {
      type: "constant"
      value: 0
    }
  }
}
layer {
  name: "conv8_1_relu"
  type: "ReLU"
  bottom: "conv8_1"
  top: "conv8_1"
}
layer {
  name: "conv8_2"
  type: "Convolution"
  bottom: "conv8_1"
  top: "conv8_2"
  param {
    lr_mult: 1
    decay_mult: 1
  }
  param {
    lr_mult: 2
    decay_mult: 0
  }
  convolution_param {
    num_output: 256
    pad: 0
    kernel_size: 3
    stride: 1
    weight_filler {
      type: "xavier"
    }
    bias_filler {
      type: "constant"
      value: 0
    }
  }
}
layer {
  name: "conv8_2_relu"
  type: "ReLU"
  bottom: "conv8_2"
  top: "conv8_2"
}
layer {
  name: "conv9_1"
  type: "Convolution"
  bottom: "conv8_2"
  top: "conv9_1"
  param {
    lr_mult: 1
    decay_mult: 1
  }
  param {
    lr_mult: 2
    decay_mult: 0
  }
  convolution_param {
    num_output: 128
    pad: 0
    kernel_size: 1
    stride: 1
    weight_filler {
      type: "xavier"
    }
    bias_filler {
      type: "constant"
      value: 0
    }
  }
}
layer {
  name: "conv9_1_relu"
  type: "ReLU"
  bottom: "conv9_1"
  top: "conv9_1"
}
layer {
  name: "conv9_2"
  type: "Convolution"
  bottom: "conv9_1"
  top: "conv9_2"
  param {
    lr_mult: 1
    decay_mult: 1
  }
  param {
    lr_mult: 2
    decay_mult: 0
  }
  convolution_param {
    num_output: 256
    pad: 0
    kernel_size: 3
    stride: 1
    weight_filler {
      type: "xavier"
    }
    bias_filler {
      type: "constant"
      value: 0
    }
  }
}
layer {
  name: "conv9_2_relu"
  type: "ReLU"
  bottom: "conv9_2"
  top: "conv9_2"
}
layer {
  name: "conv4_3_norm"
  type: "Normalize"
  bottom: "conv4_3"
  top: "conv4_3_norm"
  norm_param {
    across_spatial: false
    scale_filler {
      type: "constant"
      value: 20
    }
    channel_shared: false
  }
}
layer {
  name: "conv4_3_norm_mbox_loc"
  type: "Convolution"
  bottom: "conv4_3_norm"
  top: "conv4_3_norm_mbox_loc"
  param {
    lr_mult: 1
    decay_mult: 1
  }
  param {
    lr_mult: 2
    decay_mult: 0
  }
  convolution_param {
    num_output: 12
    pad: 1
    kernel_size: 3
    stride: 1
    weight_filler {
      type: "xavier"
    }
    bias_filler {
      type: "constant"
      value: 0
    }
  }
}
layer {
  name: "conv4_3_norm_mbox_loc_perm"
  type: "Permute"
  bottom: "conv4_3_norm_mbox_loc"
  top: "conv4_3_norm_mbox_loc_perm"
  permute_param {
    order: 0
    order: 2
    order: 3
    order: 1
  }
}
layer {
  name: "conv4_3_norm_mbox_loc_flat"
  type: "Flatten"
  bottom: "conv4_3_norm_mbox_loc_perm"
  top: "conv4_3_norm_mbox_loc_flat"
  flatten_param {
    axis: 1
  }
}
layer {
  name: "conv4_3_norm_mbox_conf"
  type: "Convolution"
  bottom: "conv4_3_norm"
  top: "conv4_3_norm_mbox_conf"
  param {
    lr_mult: 1
    decay_mult: 1
  }
  param {
    lr_mult: 2
    decay_mult: 0
  }
  convolution_param {
    num_output: 6
    pad: 1
    kernel_size: 3
    stride: 1
    weight_filler {
      type: "xavier"
    }
    bias_filler {
      type: "constant"
      value: 0
    }
  }
}
layer {
  name: "conv4_3_norm_mbox_conf_perm"
  type: "Permute"
  bottom: "conv4_3_norm_mbox_conf"
  top: "conv4_3_norm_mbox_conf_perm"
  permute_param {
    order: 0
    order: 2
    order: 3
    order: 1
  }
}
layer {
  name: "conv4_3_norm_mbox_conf_flat"
  type: "Flatten"
  bottom: "conv4_3_norm_mbox_conf_perm"
  top: "conv4_3_norm_mbox_conf_flat"
  flatten_param {
    axis: 1
  }
}
layer {
  name: "conv4_3_norm_mbox_priorbox"
  type: "PriorBox"
  bottom: "conv4_3_norm"
  bottom: "data"
  top: "conv4_3_norm_mbox_priorbox"
  prior_box_param {
    min_size: 30
    max_size: 60
    aspect_ratio: 2
    flip: false
    clip: false
    variance: 0.1
    variance: 0.1
    variance: 0.2
    variance: 0.2
    step: 8
    offset: 0.5
  }
}
layer {
  name: "fc7_mbox_loc"
  type: "Convolution"
  bottom: "fc7"
  top: "fc7_mbox_loc"
  param {
    lr_mult: 1
    decay_mult: 1
  }
  param {
    lr_mult: 2
    decay_mult: 0
  }
  convolution_param {
    num_output: 16
    pad: 1
    kernel_size: 3
    stride: 1
    weight_filler {
      type: "xavier"
    }
    bias_filler {
      type: "constant"
      value: 0
    }
  }
}
layer {
  name: "fc7_mbox_loc_perm"
  type: "Permute"
  bottom: "fc7_mbox_loc"
  top: "fc7_mbox_loc_perm"
  permute_param {
    order: 0
    order: 2
    order: 3
    order: 1
  }
}
layer {
  name: "fc7_mbox_loc_flat"
  type: "Flatten"
  bottom: "fc7_mbox_loc_perm"
  top: "fc7_mbox_loc_flat"
  flatten_param {
    axis: 1
  }
}
layer {
  name: "fc7_mbox_conf"
  type: "Convolution"
  bottom: "fc7"
  top: "fc7_mbox_conf"
  param {
    lr_mult: 1
    decay_mult: 1
  }
  param {
    lr_mult: 2
    decay_mult: 0
  }
  convolution_param {
    num_output: 8
    pad: 1
    kernel_size: 3
    stride: 1
    weight_filler {
      type: "xavier"
    }
    bias_filler {
      type: "constant"
      value: 0
    }
  }
}
layer {
  name: "fc7_mbox_conf_perm"
  type: "Permute"
  bottom: "fc7_mbox_conf"
  top: "fc7_mbox_conf_perm"
  permute_param {
    order: 0
    order: 2
    order: 3
    order: 1
  }
}
layer {
  name: "fc7_mbox_conf_flat"
  type: "Flatten"
  bottom: "fc7_mbox_conf_perm"
  top: "fc7_mbox_conf_flat"
  flatten_param {
    axis: 1
  }
}
layer {
  name: "fc7_mbox_priorbox"
  type: "PriorBox"
  bottom: "fc7"
  bottom: "data"
  top: "fc7_mbox_priorbox"
  prior_box_param {
    min_size: 60
    max_size: 111
    aspect_ratio: 2
    aspect_ratio: 3
    flip: false
    clip: false
    variance: 0.1
    variance: 0.1
    variance: 0.2
    variance: 0.2
    step: 16
    offset: 0.5
  }
}
layer {
  name: "conv6_2_mbox_loc"
  type: "Convolution"
  bottom: "conv6_2"
  top: "conv6_2_mbox_loc"
  param {
    lr_mult: 1
    decay_mult: 1
  }
  param {
    lr_mult: 2
    decay_mult: 0
  }
  convolution_param {
    num_output: 16
    pad: 1
    kernel_size: 3
    stride: 1
    weight_filler {
      type: "xavier"
    }
    bias_filler {
      type: "constant"
      value: 0
    }
  }
}
layer {
  name: "conv6_2_mbox_loc_perm"
  type: "Permute"
  bottom: "conv6_2_mbox_loc"
  top: "conv6_2_mbox_loc_perm"
  permute_param {
    order: 0
    order: 2
    order: 3
    order: 1
  }
}
layer {
  name: "conv6_2_mbox_loc_flat"
  type: "Flatten"
  bottom: "conv6_2_mbox_loc_perm"
  top: "conv6_2_mbox_loc_flat"
  flatten_param {
    axis: 1
  }
}
layer {
  name: "conv6_2_mbox_conf"
  type: "Convolution"
  bottom: "conv6_2"
  top: "conv6_2_mbox_conf"
  param {
    lr_mult: 1
    decay_mult: 1
  }
  param {
    lr_mult: 2
    decay_mult: 0
  }
  convolution_param {
    num_output: 8
    pad: 1
    kernel_size: 3
    stride: 1
    weight_filler {
      type: "xavier"
    }
    bias_filler {
      type: "constant"
      value: 0
    }
  }
}
layer {
  name: "conv6_2_mbox_conf_perm"
  type: "Permute"
  bottom: "conv6_2_mbox_conf"
  top: "conv6_2_mbox_conf_perm"
  permute_param {
    order: 0
    order: 2
    order: 3
    order: 1
  }
}
layer {
  name: "conv6_2_mbox_conf_flat"
  type: "Flatten"
  bottom: "conv6_2_mbox_conf_perm"
  top: "conv6_2_mbox_conf_flat"
  flatten_param {
    axis: 1
  }
}
layer {
  name: "conv6_2_mbox_priorbox"
  type: "PriorBox"
  bottom: "conv6_2"
  bottom: "data"
  top: "conv6_2_mbox_priorbox"
  prior_box_param {
    min_size: 111
    max_size: 162
    aspect_ratio: 2
    aspect_ratio: 3
    flip: false
    clip: false
    variance: 0.1
    variance: 0.1
    variance: 0.2
    variance: 0.2
    step: 32
    offset: 0.5
  }
}
layer {
  name: "conv7_2_mbox_loc"
  type: "Convolution"
  bottom: "conv7_2"
  top: "conv7_2_mbox_loc"
  param {
    lr_mult: 1
    decay_mult: 1
  }
  param {
    lr_mult: 2
    decay_mult: 0
  }
  convolution_param {
    num_output: 16
    pad: 1
    kernel_size: 3
    stride: 1
    weight_filler {
      type: "xavier"
    }
    bias_filler {
      type: "constant"
      value: 0
    }
  }
}
layer {
  name: "conv7_2_mbox_loc_perm"
  type: "Permute"
  bottom: "conv7_2_mbox_loc"
  top: "conv7_2_mbox_loc_perm"
  permute_param {
    order: 0
    order: 2
    order: 3
    order: 1
  }
}
layer {
  name: "conv7_2_mbox_loc_flat"
  type: "Flatten"
  bottom: "conv7_2_mbox_loc_perm"
  top: "conv7_2_mbox_loc_flat"
  flatten_param {
    axis: 1
  }
}
layer {
  name: "conv7_2_mbox_conf"
  type: "Convolution"
  bottom: "conv7_2"
  top: "conv7_2_mbox_conf"
  param {
    lr_mult: 1
    decay_mult: 1
  }
  param {
    lr_mult: 2
    decay_mult: 0
  }
  convolution_param {
    num_output: 8
    pad: 1
    kernel_size: 3
    stride: 1
    weight_filler {
      type: "xavier"
    }
    bias_filler {
      type: "constant"
      value: 0
    }
  }
}
layer {
  name: "conv7_2_mbox_conf_perm"
  type: "Permute"
  bottom: "conv7_2_mbox_conf"
  top: "conv7_2_mbox_conf_perm"
  permute_param {
    order: 0
    order: 2
    order: 3
    order: 1
  }
}
layer {
  name: "conv7_2_mbox_conf_flat"
  type: "Flatten"
  bottom: "conv7_2_mbox_conf_perm"
  top: "conv7_2_mbox_conf_flat"
  flatten_param {
    axis: 1
  }
}
layer {
  name: "conv7_2_mbox_priorbox"
  type: "PriorBox"
  bottom: "conv7_2"
  bottom: "data"
  top: "conv7_2_mbox_priorbox"
  prior_box_param {
    min_size: 162
    max_size: 213
    aspect_ratio: 2
    aspect_ratio: 3
    flip: false
    clip: false
    variance: 0.1
    variance: 0.1
    variance: 0.2
    variance: 0.2
    step: 64
    offset: 0.5
  }
}
layer {
  name: "conv8_2_mbox_loc"
  type: "Convolution"
  bottom: "conv8_2"
  top: "conv8_2_mbox_loc"
  param {
    lr_mult: 1
    decay_mult: 1
  }
  param {
    lr_mult: 2
    decay_mult: 0
  }
  convolution_param {
    num_output: 12
    pad: 1
    kernel_size: 3
    stride: 1
    weight_filler {
      type: "xavier"
    }
    bias_filler {
      type: "constant"
      value: 0
    }
  }
}
layer {
  name: "conv8_2_mbox_loc_perm"
  type: "Permute"
  bottom: "conv8_2_mbox_loc"
  top: "conv8_2_mbox_loc_perm"
  permute_param {
    order: 0
    order: 2
    order: 3
    order: 1
  }
}
layer {
  name: "conv8_2_mbox_loc_flat"
  type: "Flatten"
  bottom: "conv8_2_mbox_loc_perm"
  top: "conv8_2_mbox_loc_flat"
  flatten_param {
    axis: 1
  }
}
layer {
  name: "conv8_2_mbox_conf"
  type: "Convolution"
  bottom: "conv8_2"
  top: "conv8_2_mbox_conf"
  param {
    lr_mult: 1
    decay_mult: 1
  }
  param {
    lr_mult: 2
    decay_mult: 0
  }
  convolution_param {
    num_output: 6
    pad: 1
    kernel_size: 3
    stride: 1
    weight_filler {
      type: "xavier"
    }
    bias_filler {
      type: "constant"
      value: 0
    }
  }
}
layer {
  name: "conv8_2_mbox_conf_perm"
  type: "Permute"
  bottom: "conv8_2_mbox_conf"
  top: "conv8_2_mbox_conf_perm"
  permute_param {
    order: 0
    order: 2
    order: 3
    order: 1
  }
}
layer {
  name: "conv8_2_mbox_conf_flat"
  type: "Flatten"
  bottom: "conv8_2_mbox_conf_perm"
  top: "conv8_2_mbox_conf_flat"
  flatten_param {
    axis: 1
  }
}
layer {
  name: "conv8_2_mbox_priorbox"
  type: "PriorBox"
  bottom: "conv8_2"
  bottom: "data"
  top: "conv8_2_mbox_priorbox"
  prior_box_param {
    min_size: 213
    max_size: 264
    aspect_ratio: 2
    flip: false
    clip: false
    variance: 0.1
    variance: 0.1
    variance: 0.2
    variance: 0.2
    step: 100
    offset: 0.5
  }
}
layer {
  name: "conv9_2_mbox_loc"
  type: "Convolution"
  bottom: "conv9_2"
  top: "conv9_2_mbox_loc"
  param {
    lr_mult: 1
    decay_mult: 1
  }
  param {
    lr_mult: 2
    decay_mult: 0
  }
  convolution_param {
    num_output: 12
    pad: 1
    kernel_size: 3
    stride: 1
    weight_filler {
      type: "xavier"
    }
    bias_filler {
      type: "constant"
      value: 0
    }
  }
}
layer {
  name: "conv9_2_mbox_loc_perm"
  type: "Permute"
  bottom: "conv9_2_mbox_loc"
  top: "conv9_2_mbox_loc_perm"
  permute_param {
    order: 0
    order: 2
    order: 3
    order: 1
  }
}
layer {
  name: "conv9_2_mbox_loc_flat"
  type: "Flatten"
  bottom: "conv9_2_mbox_loc_perm"
  top: "conv9_2_mbox_loc_flat"
  flatten_param {
    axis: 1
  }
}
layer {
  name: "conv9_2_mbox_conf"
  type: "Convolution"
  bottom: "conv9_2"
  top: "conv9_2_mbox_conf"
  param {
    lr_mult: 1
    decay_mult: 1
  }
  param {
    lr_mult: 2
    decay_mult: 0
  }
  convolution_param {
    num_output: 6
    pad: 1
    kernel_size: 3
    stride: 1
    weight_filler {
      type: "xavier"
    }
    bias_filler {
      type: "constant"
      value: 0
    }
  }
}
layer {
  name: "conv9_2_mbox_conf_perm"
  type: "Permute"
  bottom: "conv9_2_mbox_conf"
  top: "conv9_2_mbox_conf_perm"
  permute_param {
    order: 0
    order: 2
    order: 3
    order: 1
  }
}
layer {
  name: "conv9_2_mbox_conf_flat"
  type: "Flatten"
  bottom: "conv9_2_mbox_conf_perm"
  top: "conv9_2_mbox_conf_flat"
  flatten_param {
    axis: 1
  }
}
layer {
  name: "conv9_2_mbox_priorbox"
  type: "PriorBox"
  bottom: "conv9_2"
  bottom: "data"
  top: "conv9_2_mbox_priorbox"
  prior_box_param {
    min_size: 264
    max_size: 315
    aspect_ratio: 2
    flip: false
    clip: false
    variance: 0.1
    variance: 0.1
    variance: 0.2
    variance: 0.2
    step: 300
    offset: 0.5
  }
}
layer {
  name: "mbox_loc"
  type: "Concat"
  bottom: "conv4_3_norm_mbox_loc_flat"
  bottom: "fc7_mbox_loc_flat"
  bottom: "conv6_2_mbox_loc_flat"
  bottom: "conv7_2_mbox_loc_flat"
  bottom: "conv8_2_mbox_loc_flat"
  bottom: "conv9_2_mbox_loc_flat"
  top: "mbox_loc"
  concat_param {
    axis: 1
  }
}
layer {
  name: "mbox_conf"
  type: "Concat"
  bottom: "conv4_3_norm_mbox_conf_flat"
  bottom: "fc7_mbox_conf_flat"
  bottom: "conv6_2_mbox_conf_flat"
  bottom: "conv7_2_mbox_conf_flat"
  bottom: "conv8_2_mbox_conf_flat"
  bottom: "conv9_2_mbox_conf_flat"
  top: "mbox_conf"
  concat_param {
    axis: 1
  }
}
layer {
  name: "mbox_priorbox"
  type: "Concat"
  bottom: "conv4_3_norm_mbox_priorbox"
  bottom: "fc7_mbox_priorbox"
  bottom: "conv6_2_mbox_priorbox"
  bottom: "conv7_2_mbox_priorbox"
  bottom: "conv8_2_mbox_priorbox"
  bottom: "conv9_2_mbox_priorbox"
  top: "mbox_priorbox"
  concat_param {
    axis: 2
  }
}
layer {
  name: "mbox_loss"
  type: "MultiBoxLoss"
  bottom: "mbox_loc"
  bottom: "mbox_conf"
  bottom: "mbox_priorbox"
  bottom: "label"
  top: "mbox_loss"
  include {
    phase: TRAIN
  }
  propagate_down: true
  propagate_down: true
  propagate_down: false
  propagate_down: false
  loss_param {
    normalization: VALID
  }
  multibox_loss_param {
    loc_loss_type: SMOOTH_L1
    conf_loss_type: SOFTMAX
    loc_weight: 1
    num_classes: 2
    share_location: true
    match_type: PER_PREDICTION
    overlap_threshold: 0.5
    use_prior_for_matching: true
    background_label_id: 0
    use_difficult_gt: true
    neg_pos_ratio: 3
    neg_overlap: 0.5
    code_type: CENTER_SIZE
    ignore_cross_boundary_bbox: false
    mining_type: MAX_NEGATIVE
  }
}
I1206 23:38:53.371979 14353 layer_factory.hpp:77] Creating layer data
I1206 23:38:53.372390 14353 net.cpp:100] Creating Layer data
I1206 23:38:53.372421 14353 net.cpp:408] data -> data
I1206 23:38:53.372459 14353 net.cpp:408] data -> label
I1206 23:38:53.373160 14359 db_lmdb.cpp:35] Opened lmdb examples/GTSDB/GTSDB_trainval_lmdb
I1206 23:38:53.736449 14353 annotated_data_layer.cpp:62] output data size: 24,3,300,300
I1206 23:38:53.762518 14353 net.cpp:150] Setting up data
I1206 23:38:53.762547 14353 net.cpp:157] Top shape: 24 3 300 300 (6480000)
I1206 23:38:53.762564 14353 net.cpp:157] Top shape: 1 1 3 8 (24)
I1206 23:38:53.762567 14353 net.cpp:165] Memory required for data: 25920096
I1206 23:38:53.762588 14353 layer_factory.hpp:77] Creating layer data_data_0_split
I1206 23:38:53.762639 14353 net.cpp:100] Creating Layer data_data_0_split
I1206 23:38:53.762642 14353 net.cpp:434] data_data_0_split <- data
I1206 23:38:53.762653 14353 net.cpp:408] data_data_0_split -> data_data_0_split_0
I1206 23:38:53.762676 14353 net.cpp:408] data_data_0_split -> data_data_0_split_1
I1206 23:38:53.762681 14353 net.cpp:408] data_data_0_split -> data_data_0_split_2
I1206 23:38:53.762687 14353 net.cpp:408] data_data_0_split -> data_data_0_split_3
I1206 23:38:53.762691 14353 net.cpp:408] data_data_0_split -> data_data_0_split_4
I1206 23:38:53.762696 14353 net.cpp:408] data_data_0_split -> data_data_0_split_5
I1206 23:38:53.762701 14353 net.cpp:408] data_data_0_split -> data_data_0_split_6
I1206 23:38:53.762766 14353 net.cpp:150] Setting up data_data_0_split
I1206 23:38:53.762785 14353 net.cpp:157] Top shape: 24 3 300 300 (6480000)
I1206 23:38:53.762807 14353 net.cpp:157] Top shape: 24 3 300 300 (6480000)
I1206 23:38:53.762810 14353 net.cpp:157] Top shape: 24 3 300 300 (6480000)
I1206 23:38:53.762814 14353 net.cpp:157] Top shape: 24 3 300 300 (6480000)
I1206 23:38:53.762830 14353 net.cpp:157] Top shape: 24 3 300 300 (6480000)
I1206 23:38:53.762833 14353 net.cpp:157] Top shape: 24 3 300 300 (6480000)
I1206 23:38:53.762836 14353 net.cpp:157] Top shape: 24 3 300 300 (6480000)
I1206 23:38:53.762840 14353 net.cpp:165] Memory required for data: 207360096
I1206 23:38:53.762842 14353 layer_factory.hpp:77] Creating layer conv1_1
I1206 23:38:53.762854 14353 net.cpp:100] Creating Layer conv1_1
I1206 23:38:53.762858 14353 net.cpp:434] conv1_1 <- data_data_0_split_0
I1206 23:38:53.762862 14353 net.cpp:408] conv1_1 -> conv1_1
I1206 23:38:54.473332 14353 net.cpp:150] Setting up conv1_1
I1206 23:38:54.473362 14353 net.cpp:157] Top shape: 24 64 300 300 (138240000)
I1206 23:38:54.473384 14353 net.cpp:165] Memory required for data: 760320096
I1206 23:38:54.473397 14353 layer_factory.hpp:77] Creating layer relu1_1
I1206 23:38:54.473407 14353 net.cpp:100] Creating Layer relu1_1
I1206 23:38:54.473412 14353 net.cpp:434] relu1_1 <- conv1_1
I1206 23:38:54.473417 14353 net.cpp:395] relu1_1 -> conv1_1 (in-place)
I1206 23:38:54.473634 14353 net.cpp:150] Setting up relu1_1
I1206 23:38:54.473642 14353 net.cpp:157] Top shape: 24 64 300 300 (138240000)
I1206 23:38:54.473661 14353 net.cpp:165] Memory required for data: 1313280096
I1206 23:38:54.473664 14353 layer_factory.hpp:77] Creating layer conv1_2
I1206 23:38:54.473692 14353 net.cpp:100] Creating Layer conv1_2
I1206 23:38:54.473696 14353 net.cpp:434] conv1_2 <- conv1_1
I1206 23:38:54.473701 14353 net.cpp:408] conv1_2 -> conv1_2
I1206 23:38:54.475019 14353 net.cpp:150] Setting up conv1_2
I1206 23:38:54.475030 14353 net.cpp:157] Top shape: 24 64 300 300 (138240000)
I1206 23:38:54.475033 14353 net.cpp:165] Memory required for data: 1866240096
I1206 23:38:54.475059 14353 layer_factory.hpp:77] Creating layer relu1_2
I1206 23:38:54.475064 14353 net.cpp:100] Creating Layer relu1_2
I1206 23:38:54.475081 14353 net.cpp:434] relu1_2 <- conv1_2
I1206 23:38:54.475085 14353 net.cpp:395] relu1_2 -> conv1_2 (in-place)
I1206 23:38:54.475348 14353 net.cpp:150] Setting up relu1_2
I1206 23:38:54.475356 14353 net.cpp:157] Top shape: 24 64 300 300 (138240000)
I1206 23:38:54.475359 14353 net.cpp:165] Memory required for data: 2419200096
I1206 23:38:54.475363 14353 layer_factory.hpp:77] Creating layer pool1
I1206 23:38:54.475386 14353 net.cpp:100] Creating Layer pool1
I1206 23:38:54.475389 14353 net.cpp:434] pool1 <- conv1_2
I1206 23:38:54.475394 14353 net.cpp:408] pool1 -> pool1
I1206 23:38:54.475450 14353 net.cpp:150] Setting up pool1
I1206 23:38:54.475455 14353 net.cpp:157] Top shape: 24 64 150 150 (34560000)
I1206 23:38:54.475458 14353 net.cpp:165] Memory required for data: 2557440096
I1206 23:38:54.475461 14353 layer_factory.hpp:77] Creating layer conv2_1
I1206 23:38:54.475467 14353 net.cpp:100] Creating Layer conv2_1
I1206 23:38:54.475471 14353 net.cpp:434] conv2_1 <- pool1
I1206 23:38:54.475474 14353 net.cpp:408] conv2_1 -> conv2_1
I1206 23:38:54.476552 14353 net.cpp:150] Setting up conv2_1
I1206 23:38:54.476562 14353 net.cpp:157] Top shape: 24 128 150 150 (69120000)
I1206 23:38:54.476565 14353 net.cpp:165] Memory required for data: 2833920096
I1206 23:38:54.476590 14353 layer_factory.hpp:77] Creating layer relu2_1
I1206 23:38:54.476596 14353 net.cpp:100] Creating Layer relu2_1
I1206 23:38:54.476599 14353 net.cpp:434] relu2_1 <- conv2_1
I1206 23:38:54.476603 14353 net.cpp:395] relu2_1 -> conv2_1 (in-place)
I1206 23:38:54.476881 14353 net.cpp:150] Setting up relu2_1
I1206 23:38:54.476907 14353 net.cpp:157] Top shape: 24 128 150 150 (69120000)
I1206 23:38:54.476909 14353 net.cpp:165] Memory required for data: 3110400096
I1206 23:38:54.476912 14353 layer_factory.hpp:77] Creating layer conv2_2
I1206 23:38:54.476938 14353 net.cpp:100] Creating Layer conv2_2
I1206 23:38:54.476940 14353 net.cpp:434] conv2_2 <- conv2_1
I1206 23:38:54.476945 14353 net.cpp:408] conv2_2 -> conv2_2
I1206 23:38:54.478778 14353 net.cpp:150] Setting up conv2_2
I1206 23:38:54.478790 14353 net.cpp:157] Top shape: 24 128 150 150 (69120000)
I1206 23:38:54.478792 14353 net.cpp:165] Memory required for data: 3386880096
I1206 23:38:54.478798 14353 layer_factory.hpp:77] Creating layer relu2_2
I1206 23:38:54.478821 14353 net.cpp:100] Creating Layer relu2_2
I1206 23:38:54.478826 14353 net.cpp:434] relu2_2 <- conv2_2
I1206 23:38:54.478829 14353 net.cpp:395] relu2_2 -> conv2_2 (in-place)
I1206 23:38:54.479012 14353 net.cpp:150] Setting up relu2_2
I1206 23:38:54.479018 14353 net.cpp:157] Top shape: 24 128 150 150 (69120000)
I1206 23:38:54.479020 14353 net.cpp:165] Memory required for data: 3663360096
I1206 23:38:54.479023 14353 layer_factory.hpp:77] Creating layer pool2
I1206 23:38:54.479048 14353 net.cpp:100] Creating Layer pool2
I1206 23:38:54.479049 14353 net.cpp:434] pool2 <- conv2_2
I1206 23:38:54.479053 14353 net.cpp:408] pool2 -> pool2
I1206 23:38:54.479117 14353 net.cpp:150] Setting up pool2
I1206 23:38:54.479136 14353 net.cpp:157] Top shape: 24 128 75 75 (17280000)
I1206 23:38:54.479138 14353 net.cpp:165] Memory required for data: 3732480096
I1206 23:38:54.479141 14353 layer_factory.hpp:77] Creating layer conv3_1
I1206 23:38:54.479166 14353 net.cpp:100] Creating Layer conv3_1
I1206 23:38:54.479169 14353 net.cpp:434] conv3_1 <- pool2
I1206 23:38:54.479189 14353 net.cpp:408] conv3_1 -> conv3_1
I1206 23:38:54.482190 14353 net.cpp:150] Setting up conv3_1
I1206 23:38:54.482237 14353 net.cpp:157] Top shape: 24 256 75 75 (34560000)
I1206 23:38:54.482255 14353 net.cpp:165] Memory required for data: 3870720096
I1206 23:38:54.482264 14353 layer_factory.hpp:77] Creating layer relu3_1
I1206 23:38:54.482270 14353 net.cpp:100] Creating Layer relu3_1
I1206 23:38:54.482275 14353 net.cpp:434] relu3_1 <- conv3_1
I1206 23:38:54.482280 14353 net.cpp:395] relu3_1 -> conv3_1 (in-place)
I1206 23:38:54.482547 14353 net.cpp:150] Setting up relu3_1
I1206 23:38:54.482555 14353 net.cpp:157] Top shape: 24 256 75 75 (34560000)
I1206 23:38:54.482558 14353 net.cpp:165] Memory required for data: 4008960096
I1206 23:38:54.482580 14353 layer_factory.hpp:77] Creating layer conv3_2
I1206 23:38:54.482589 14353 net.cpp:100] Creating Layer conv3_2
I1206 23:38:54.482591 14353 net.cpp:434] conv3_2 <- conv3_1
I1206 23:38:54.482596 14353 net.cpp:408] conv3_2 -> conv3_2
I1206 23:38:54.487375 14353 net.cpp:150] Setting up conv3_2
I1206 23:38:54.487396 14353 net.cpp:157] Top shape: 24 256 75 75 (34560000)
I1206 23:38:54.487399 14353 net.cpp:165] Memory required for data: 4147200096
I1206 23:38:54.487407 14353 layer_factory.hpp:77] Creating layer relu3_2
I1206 23:38:54.487428 14353 net.cpp:100] Creating Layer relu3_2
I1206 23:38:54.487432 14353 net.cpp:434] relu3_2 <- conv3_2
I1206 23:38:54.487455 14353 net.cpp:395] relu3_2 -> conv3_2 (in-place)
I1206 23:38:54.487680 14353 net.cpp:150] Setting up relu3_2
I1206 23:38:54.487689 14353 net.cpp:157] Top shape: 24 256 75 75 (34560000)
I1206 23:38:54.487691 14353 net.cpp:165] Memory required for data: 4285440096
I1206 23:38:54.487694 14353 layer_factory.hpp:77] Creating layer conv3_3
I1206 23:38:54.487732 14353 net.cpp:100] Creating Layer conv3_3
I1206 23:38:54.487738 14353 net.cpp:434] conv3_3 <- conv3_2
I1206 23:38:54.487743 14353 net.cpp:408] conv3_3 -> conv3_3
I1206 23:38:54.492090 14353 net.cpp:150] Setting up conv3_3
I1206 23:38:54.492103 14353 net.cpp:157] Top shape: 24 256 75 75 (34560000)
I1206 23:38:54.492106 14353 net.cpp:165] Memory required for data: 4423680096
I1206 23:38:54.492130 14353 layer_factory.hpp:77] Creating layer relu3_3
I1206 23:38:54.492136 14353 net.cpp:100] Creating Layer relu3_3
I1206 23:38:54.492138 14353 net.cpp:434] relu3_3 <- conv3_3
I1206 23:38:54.492156 14353 net.cpp:395] relu3_3 -> conv3_3 (in-place)
I1206 23:38:54.492327 14353 net.cpp:150] Setting up relu3_3
I1206 23:38:54.492333 14353 net.cpp:157] Top shape: 24 256 75 75 (34560000)
I1206 23:38:54.492336 14353 net.cpp:165] Memory required for data: 4561920096
I1206 23:38:54.492339 14353 layer_factory.hpp:77] Creating layer pool3
I1206 23:38:54.492344 14353 net.cpp:100] Creating Layer pool3
I1206 23:38:54.492365 14353 net.cpp:434] pool3 <- conv3_3
I1206 23:38:54.492370 14353 net.cpp:408] pool3 -> pool3
I1206 23:38:54.492436 14353 net.cpp:150] Setting up pool3
I1206 23:38:54.492441 14353 net.cpp:157] Top shape: 24 256 38 38 (8871936)
I1206 23:38:54.492444 14353 net.cpp:165] Memory required for data: 4597407840
I1206 23:38:54.492446 14353 layer_factory.hpp:77] Creating layer conv4_1
I1206 23:38:54.492471 14353 net.cpp:100] Creating Layer conv4_1
I1206 23:38:54.492475 14353 net.cpp:434] conv4_1 <- pool3
I1206 23:38:54.492493 14353 net.cpp:408] conv4_1 -> conv4_1
I1206 23:38:54.501886 14353 net.cpp:150] Setting up conv4_1
I1206 23:38:54.501926 14353 net.cpp:157] Top shape: 24 512 38 38 (17743872)
I1206 23:38:54.501930 14353 net.cpp:165] Memory required for data: 4668383328
I1206 23:38:54.501937 14353 layer_factory.hpp:77] Creating layer relu4_1
I1206 23:38:54.501945 14353 net.cpp:100] Creating Layer relu4_1
I1206 23:38:54.501952 14353 net.cpp:434] relu4_1 <- conv4_1
I1206 23:38:54.501956 14353 net.cpp:395] relu4_1 -> conv4_1 (in-place)
I1206 23:38:54.502224 14353 net.cpp:150] Setting up relu4_1
I1206 23:38:54.502251 14353 net.cpp:157] Top shape: 24 512 38 38 (17743872)
I1206 23:38:54.502254 14353 net.cpp:165] Memory required for data: 4739358816
I1206 23:38:54.502257 14353 layer_factory.hpp:77] Creating layer conv4_2
I1206 23:38:54.502266 14353 net.cpp:100] Creating Layer conv4_2
I1206 23:38:54.502270 14353 net.cpp:434] conv4_2 <- conv4_1
I1206 23:38:54.502276 14353 net.cpp:408] conv4_2 -> conv4_2
I1206 23:38:54.517338 14353 net.cpp:150] Setting up conv4_2
I1206 23:38:54.517360 14353 net.cpp:157] Top shape: 24 512 38 38 (17743872)
I1206 23:38:54.517364 14353 net.cpp:165] Memory required for data: 4810334304
I1206 23:38:54.517375 14353 layer_factory.hpp:77] Creating layer relu4_2
I1206 23:38:54.517383 14353 net.cpp:100] Creating Layer relu4_2
I1206 23:38:54.517390 14353 net.cpp:434] relu4_2 <- conv4_2
I1206 23:38:54.517395 14353 net.cpp:395] relu4_2 -> conv4_2 (in-place)
I1206 23:38:54.517645 14353 net.cpp:150] Setting up relu4_2
I1206 23:38:54.517655 14353 net.cpp:157] Top shape: 24 512 38 38 (17743872)
I1206 23:38:54.517659 14353 net.cpp:165] Memory required for data: 4881309792
I1206 23:38:54.517663 14353 layer_factory.hpp:77] Creating layer conv4_3
I1206 23:38:54.517690 14353 net.cpp:100] Creating Layer conv4_3
I1206 23:38:54.517694 14353 net.cpp:434] conv4_3 <- conv4_2
I1206 23:38:54.517699 14353 net.cpp:408] conv4_3 -> conv4_3
I1206 23:38:54.532917 14353 net.cpp:150] Setting up conv4_3
I1206 23:38:54.532941 14353 net.cpp:157] Top shape: 24 512 38 38 (17743872)
I1206 23:38:54.532944 14353 net.cpp:165] Memory required for data: 4952285280
I1206 23:38:54.532953 14353 layer_factory.hpp:77] Creating layer relu4_3
I1206 23:38:54.532960 14353 net.cpp:100] Creating Layer relu4_3
I1206 23:38:54.532966 14353 net.cpp:434] relu4_3 <- conv4_3
I1206 23:38:54.532973 14353 net.cpp:395] relu4_3 -> conv4_3 (in-place)
I1206 23:38:54.533138 14353 net.cpp:150] Setting up relu4_3
I1206 23:38:54.533157 14353 net.cpp:157] Top shape: 24 512 38 38 (17743872)
I1206 23:38:54.533171 14353 net.cpp:165] Memory required for data: 5023260768
I1206 23:38:54.533175 14353 layer_factory.hpp:77] Creating layer conv4_3_relu4_3_0_split
I1206 23:38:54.533179 14353 net.cpp:100] Creating Layer conv4_3_relu4_3_0_split
I1206 23:38:54.533196 14353 net.cpp:434] conv4_3_relu4_3_0_split <- conv4_3
I1206 23:38:54.533202 14353 net.cpp:408] conv4_3_relu4_3_0_split -> conv4_3_relu4_3_0_split_0
I1206 23:38:54.533208 14353 net.cpp:408] conv4_3_relu4_3_0_split -> conv4_3_relu4_3_0_split_1
I1206 23:38:54.533241 14353 net.cpp:150] Setting up conv4_3_relu4_3_0_split
I1206 23:38:54.533260 14353 net.cpp:157] Top shape: 24 512 38 38 (17743872)
I1206 23:38:54.533264 14353 net.cpp:157] Top shape: 24 512 38 38 (17743872)
I1206 23:38:54.533268 14353 net.cpp:165] Memory required for data: 5165211744
I1206 23:38:54.533272 14353 layer_factory.hpp:77] Creating layer pool4
I1206 23:38:54.533277 14353 net.cpp:100] Creating Layer pool4
I1206 23:38:54.533280 14353 net.cpp:434] pool4 <- conv4_3_relu4_3_0_split_0
I1206 23:38:54.533285 14353 net.cpp:408] pool4 -> pool4
I1206 23:38:54.533341 14353 net.cpp:150] Setting up pool4
I1206 23:38:54.533346 14353 net.cpp:157] Top shape: 24 512 19 19 (4435968)
I1206 23:38:54.533350 14353 net.cpp:165] Memory required for data: 5182955616
I1206 23:38:54.533352 14353 layer_factory.hpp:77] Creating layer conv5_1
I1206 23:38:54.533360 14353 net.cpp:100] Creating Layer conv5_1
I1206 23:38:54.533365 14353 net.cpp:434] conv5_1 <- pool4
I1206 23:38:54.533370 14353 net.cpp:408] conv5_1 -> conv5_1
I1206 23:38:54.549566 14353 net.cpp:150] Setting up conv5_1
I1206 23:38:54.549588 14353 net.cpp:157] Top shape: 24 512 19 19 (4435968)
I1206 23:38:54.549592 14353 net.cpp:165] Memory required for data: 5200699488
I1206 23:38:54.549613 14353 layer_factory.hpp:77] Creating layer relu5_1
I1206 23:38:54.549621 14353 net.cpp:100] Creating Layer relu5_1
I1206 23:38:54.549626 14353 net.cpp:434] relu5_1 <- conv5_1
I1206 23:38:54.549650 14353 net.cpp:395] relu5_1 -> conv5_1 (in-place)
I1206 23:38:54.549899 14353 net.cpp:150] Setting up relu5_1
I1206 23:38:54.549908 14353 net.cpp:157] Top shape: 24 512 19 19 (4435968)
I1206 23:38:54.549911 14353 net.cpp:165] Memory required for data: 5218443360
I1206 23:38:54.549913 14353 layer_factory.hpp:77] Creating layer conv5_2
I1206 23:38:54.549939 14353 net.cpp:100] Creating Layer conv5_2
I1206 23:38:54.549942 14353 net.cpp:434] conv5_2 <- conv5_1
I1206 23:38:54.549947 14353 net.cpp:408] conv5_2 -> conv5_2
I1206 23:38:54.565703 14353 net.cpp:150] Setting up conv5_2
I1206 23:38:54.565726 14353 net.cpp:157] Top shape: 24 512 19 19 (4435968)
I1206 23:38:54.565731 14353 net.cpp:165] Memory required for data: 5236187232
I1206 23:38:54.565757 14353 layer_factory.hpp:77] Creating layer relu5_2
I1206 23:38:54.565765 14353 net.cpp:100] Creating Layer relu5_2
I1206 23:38:54.565769 14353 net.cpp:434] relu5_2 <- conv5_2
I1206 23:38:54.565774 14353 net.cpp:395] relu5_2 -> conv5_2 (in-place)
I1206 23:38:54.566042 14353 net.cpp:150] Setting up relu5_2
I1206 23:38:54.566051 14353 net.cpp:157] Top shape: 24 512 19 19 (4435968)
I1206 23:38:54.566054 14353 net.cpp:165] Memory required for data: 5253931104
I1206 23:38:54.566057 14353 layer_factory.hpp:77] Creating layer conv5_3
I1206 23:38:54.566084 14353 net.cpp:100] Creating Layer conv5_3
I1206 23:38:54.566087 14353 net.cpp:434] conv5_3 <- conv5_2
I1206 23:38:54.566107 14353 net.cpp:408] conv5_3 -> conv5_3
I1206 23:38:54.581950 14353 net.cpp:150] Setting up conv5_3
I1206 23:38:54.581972 14353 net.cpp:157] Top shape: 24 512 19 19 (4435968)
I1206 23:38:54.581976 14353 net.cpp:165] Memory required for data: 5271674976
I1206 23:38:54.582001 14353 layer_factory.hpp:77] Creating layer relu5_3
I1206 23:38:54.582013 14353 net.cpp:100] Creating Layer relu5_3
I1206 23:38:54.582017 14353 net.cpp:434] relu5_3 <- conv5_3
I1206 23:38:54.582022 14353 net.cpp:395] relu5_3 -> conv5_3 (in-place)
I1206 23:38:54.582198 14353 net.cpp:150] Setting up relu5_3
I1206 23:38:54.582206 14353 net.cpp:157] Top shape: 24 512 19 19 (4435968)
I1206 23:38:54.582238 14353 net.cpp:165] Memory required for data: 5289418848
I1206 23:38:54.582242 14353 layer_factory.hpp:77] Creating layer pool5
I1206 23:38:54.582260 14353 net.cpp:100] Creating Layer pool5
I1206 23:38:54.582263 14353 net.cpp:434] pool5 <- conv5_3
I1206 23:38:54.582267 14353 net.cpp:408] pool5 -> pool5
I1206 23:38:54.582335 14353 net.cpp:150] Setting up pool5
I1206 23:38:54.582341 14353 net.cpp:157] Top shape: 24 512 19 19 (4435968)
I1206 23:38:54.582343 14353 net.cpp:165] Memory required for data: 5307162720
I1206 23:38:54.582346 14353 layer_factory.hpp:77] Creating layer fc6
I1206 23:38:54.582355 14353 net.cpp:100] Creating Layer fc6
I1206 23:38:54.582357 14353 net.cpp:434] fc6 <- pool5
I1206 23:38:54.582361 14353 net.cpp:408] fc6 -> fc6
I1206 23:38:54.612155 14353 net.cpp:150] Setting up fc6
I1206 23:38:54.612181 14353 net.cpp:157] Top shape: 24 1024 19 19 (8871936)
I1206 23:38:54.612185 14353 net.cpp:165] Memory required for data: 5342650464
I1206 23:38:54.612192 14353 layer_factory.hpp:77] Creating layer relu6
I1206 23:38:54.612200 14353 net.cpp:100] Creating Layer relu6
I1206 23:38:54.612205 14353 net.cpp:434] relu6 <- fc6
I1206 23:38:54.612210 14353 net.cpp:395] relu6 -> fc6 (in-place)
I1206 23:38:54.612634 14353 net.cpp:150] Setting up relu6
I1206 23:38:54.612643 14353 net.cpp:157] Top shape: 24 1024 19 19 (8871936)
I1206 23:38:54.612646 14353 net.cpp:165] Memory required for data: 5378138208
I1206 23:38:54.612668 14353 layer_factory.hpp:77] Creating layer fc7
I1206 23:38:54.612689 14353 net.cpp:100] Creating Layer fc7
I1206 23:38:54.612692 14353 net.cpp:434] fc7 <- fc6
I1206 23:38:54.612697 14353 net.cpp:408] fc7 -> fc7
I1206 23:38:54.620373 14353 net.cpp:150] Setting up fc7
I1206 23:38:54.620394 14353 net.cpp:157] Top shape: 24 1024 19 19 (8871936)
I1206 23:38:54.620398 14353 net.cpp:165] Memory required for data: 5413625952
I1206 23:38:54.620422 14353 layer_factory.hpp:77] Creating layer relu7
I1206 23:38:54.620445 14353 net.cpp:100] Creating Layer relu7
I1206 23:38:54.620450 14353 net.cpp:434] relu7 <- fc7
I1206 23:38:54.620455 14353 net.cpp:395] relu7 -> fc7 (in-place)
I1206 23:38:54.620617 14353 net.cpp:150] Setting up relu7
I1206 23:38:54.620625 14353 net.cpp:157] Top shape: 24 1024 19 19 (8871936)
I1206 23:38:54.620627 14353 net.cpp:165] Memory required for data: 5449113696
I1206 23:38:54.620630 14353 layer_factory.hpp:77] Creating layer fc7_relu7_0_split
I1206 23:38:54.620653 14353 net.cpp:100] Creating Layer fc7_relu7_0_split
I1206 23:38:54.620656 14353 net.cpp:434] fc7_relu7_0_split <- fc7
I1206 23:38:54.620673 14353 net.cpp:408] fc7_relu7_0_split -> fc7_relu7_0_split_0
I1206 23:38:54.620678 14353 net.cpp:408] fc7_relu7_0_split -> fc7_relu7_0_split_1
I1206 23:38:54.620687 14353 net.cpp:408] fc7_relu7_0_split -> fc7_relu7_0_split_2
I1206 23:38:54.620710 14353 net.cpp:408] fc7_relu7_0_split -> fc7_relu7_0_split_3
I1206 23:38:54.620787 14353 net.cpp:150] Setting up fc7_relu7_0_split
I1206 23:38:54.620792 14353 net.cpp:157] Top shape: 24 1024 19 19 (8871936)
I1206 23:38:54.620796 14353 net.cpp:157] Top shape: 24 1024 19 19 (8871936)
I1206 23:38:54.620800 14353 net.cpp:157] Top shape: 24 1024 19 19 (8871936)
I1206 23:38:54.620820 14353 net.cpp:157] Top shape: 24 1024 19 19 (8871936)
I1206 23:38:54.620823 14353 net.cpp:165] Memory required for data: 5591064672
I1206 23:38:54.620826 14353 layer_factory.hpp:77] Creating layer conv6_1
I1206 23:38:54.620869 14353 net.cpp:100] Creating Layer conv6_1
I1206 23:38:54.620873 14353 net.cpp:434] conv6_1 <- fc7_relu7_0_split_0
I1206 23:38:54.620894 14353 net.cpp:408] conv6_1 -> conv6_1
I1206 23:38:54.623345 14353 net.cpp:150] Setting up conv6_1
I1206 23:38:54.623356 14353 net.cpp:157] Top shape: 24 256 19 19 (2217984)
I1206 23:38:54.623359 14353 net.cpp:165] Memory required for data: 5599936608
I1206 23:38:54.623364 14353 layer_factory.hpp:77] Creating layer conv6_1_relu
I1206 23:38:54.623369 14353 net.cpp:100] Creating Layer conv6_1_relu
I1206 23:38:54.623375 14353 net.cpp:434] conv6_1_relu <- conv6_1
I1206 23:38:54.623399 14353 net.cpp:395] conv6_1_relu -> conv6_1 (in-place)
I1206 23:38:54.623589 14353 net.cpp:150] Setting up conv6_1_relu
I1206 23:38:54.623610 14353 net.cpp:157] Top shape: 24 256 19 19 (2217984)
I1206 23:38:54.623612 14353 net.cpp:165] Memory required for data: 5608808544
I1206 23:38:54.623615 14353 layer_factory.hpp:77] Creating layer conv6_2
I1206 23:38:54.623641 14353 net.cpp:100] Creating Layer conv6_2
I1206 23:38:54.623644 14353 net.cpp:434] conv6_2 <- conv6_1
I1206 23:38:54.623662 14353 net.cpp:408] conv6_2 -> conv6_2
I1206 23:38:54.632211 14353 net.cpp:150] Setting up conv6_2
I1206 23:38:54.632233 14353 net.cpp:157] Top shape: 24 512 10 10 (1228800)
I1206 23:38:54.632237 14353 net.cpp:165] Memory required for data: 5613723744
I1206 23:38:54.632248 14353 layer_factory.hpp:77] Creating layer conv6_2_relu
I1206 23:38:54.632259 14353 net.cpp:100] Creating Layer conv6_2_relu
I1206 23:38:54.632282 14353 net.cpp:434] conv6_2_relu <- conv6_2
I1206 23:38:54.632287 14353 net.cpp:395] conv6_2_relu -> conv6_2 (in-place)
I1206 23:38:54.632524 14353 net.cpp:150] Setting up conv6_2_relu
I1206 23:38:54.632532 14353 net.cpp:157] Top shape: 24 512 10 10 (1228800)
I1206 23:38:54.632535 14353 net.cpp:165] Memory required for data: 5618638944
I1206 23:38:54.632556 14353 layer_factory.hpp:77] Creating layer conv6_2_conv6_2_relu_0_split
I1206 23:38:54.632562 14353 net.cpp:100] Creating Layer conv6_2_conv6_2_relu_0_split
I1206 23:38:54.632565 14353 net.cpp:434] conv6_2_conv6_2_relu_0_split <- conv6_2
I1206 23:38:54.632570 14353 net.cpp:408] conv6_2_conv6_2_relu_0_split -> conv6_2_conv6_2_relu_0_split_0
I1206 23:38:54.632576 14353 net.cpp:408] conv6_2_conv6_2_relu_0_split -> conv6_2_conv6_2_relu_0_split_1
I1206 23:38:54.632582 14353 net.cpp:408] conv6_2_conv6_2_relu_0_split -> conv6_2_conv6_2_relu_0_split_2
I1206 23:38:54.632589 14353 net.cpp:408] conv6_2_conv6_2_relu_0_split -> conv6_2_conv6_2_relu_0_split_3
I1206 23:38:54.632657 14353 net.cpp:150] Setting up conv6_2_conv6_2_relu_0_split
I1206 23:38:54.632674 14353 net.cpp:157] Top shape: 24 512 10 10 (1228800)
I1206 23:38:54.632678 14353 net.cpp:157] Top shape: 24 512 10 10 (1228800)
I1206 23:38:54.632680 14353 net.cpp:157] Top shape: 24 512 10 10 (1228800)
I1206 23:38:54.632701 14353 net.cpp:157] Top shape: 24 512 10 10 (1228800)
I1206 23:38:54.632704 14353 net.cpp:165] Memory required for data: 5638299744
I1206 23:38:54.632707 14353 layer_factory.hpp:77] Creating layer conv7_1
I1206 23:38:54.632728 14353 net.cpp:100] Creating Layer conv7_1
I1206 23:38:54.632732 14353 net.cpp:434] conv7_1 <- conv6_2_conv6_2_relu_0_split_0
I1206 23:38:54.632738 14353 net.cpp:408] conv7_1 -> conv7_1
I1206 23:38:54.633855 14353 net.cpp:150] Setting up conv7_1
I1206 23:38:54.633867 14353 net.cpp:157] Top shape: 24 128 10 10 (307200)
I1206 23:38:54.633869 14353 net.cpp:165] Memory required for data: 5639528544
I1206 23:38:54.633893 14353 layer_factory.hpp:77] Creating layer conv7_1_relu
I1206 23:38:54.633898 14353 net.cpp:100] Creating Layer conv7_1_relu
I1206 23:38:54.633901 14353 net.cpp:434] conv7_1_relu <- conv7_1
I1206 23:38:54.633905 14353 net.cpp:395] conv7_1_relu -> conv7_1 (in-place)
I1206 23:38:54.634079 14353 net.cpp:150] Setting up conv7_1_relu
I1206 23:38:54.634085 14353 net.cpp:157] Top shape: 24 128 10 10 (307200)
I1206 23:38:54.634088 14353 net.cpp:165] Memory required for data: 5640757344
I1206 23:38:54.634090 14353 layer_factory.hpp:77] Creating layer conv7_2
I1206 23:38:54.634115 14353 net.cpp:100] Creating Layer conv7_2
I1206 23:38:54.634119 14353 net.cpp:434] conv7_2 <- conv7_1
I1206 23:38:54.634124 14353 net.cpp:408] conv7_2 -> conv7_2
I1206 23:38:54.636696 14353 net.cpp:150] Setting up conv7_2
I1206 23:38:54.636706 14353 net.cpp:157] Top shape: 24 256 5 5 (153600)
I1206 23:38:54.636709 14353 net.cpp:165] Memory required for data: 5641371744
I1206 23:38:54.636714 14353 layer_factory.hpp:77] Creating layer conv7_2_relu
I1206 23:38:54.636737 14353 net.cpp:100] Creating Layer conv7_2_relu
I1206 23:38:54.636740 14353 net.cpp:434] conv7_2_relu <- conv7_2
I1206 23:38:54.636744 14353 net.cpp:395] conv7_2_relu -> conv7_2 (in-place)
I1206 23:38:54.636955 14353 net.cpp:150] Setting up conv7_2_relu
I1206 23:38:54.636961 14353 net.cpp:157] Top shape: 24 256 5 5 (153600)
I1206 23:38:54.636965 14353 net.cpp:165] Memory required for data: 5641986144
I1206 23:38:54.636967 14353 layer_factory.hpp:77] Creating layer conv7_2_conv7_2_relu_0_split
I1206 23:38:54.636989 14353 net.cpp:100] Creating Layer conv7_2_conv7_2_relu_0_split
I1206 23:38:54.636992 14353 net.cpp:434] conv7_2_conv7_2_relu_0_split <- conv7_2
I1206 23:38:54.636997 14353 net.cpp:408] conv7_2_conv7_2_relu_0_split -> conv7_2_conv7_2_relu_0_split_0
I1206 23:38:54.637002 14353 net.cpp:408] conv7_2_conv7_2_relu_0_split -> conv7_2_conv7_2_relu_0_split_1
I1206 23:38:54.637007 14353 net.cpp:408] conv7_2_conv7_2_relu_0_split -> conv7_2_conv7_2_relu_0_split_2
I1206 23:38:54.637013 14353 net.cpp:408] conv7_2_conv7_2_relu_0_split -> conv7_2_conv7_2_relu_0_split_3
I1206 23:38:54.637112 14353 net.cpp:150] Setting up conv7_2_conv7_2_relu_0_split
I1206 23:38:54.637118 14353 net.cpp:157] Top shape: 24 256 5 5 (153600)
I1206 23:38:54.637121 14353 net.cpp:157] Top shape: 24 256 5 5 (153600)
I1206 23:38:54.637125 14353 net.cpp:157] Top shape: 24 256 5 5 (153600)
I1206 23:38:54.637127 14353 net.cpp:157] Top shape: 24 256 5 5 (153600)
I1206 23:38:54.637130 14353 net.cpp:165] Memory required for data: 5644443744
I1206 23:38:54.637151 14353 layer_factory.hpp:77] Creating layer conv8_1
I1206 23:38:54.637157 14353 net.cpp:100] Creating Layer conv8_1
I1206 23:38:54.637161 14353 net.cpp:434] conv8_1 <- conv7_2_conv7_2_relu_0_split_0
I1206 23:38:54.637164 14353 net.cpp:408] conv8_1 -> conv8_1
I1206 23:38:54.638115 14353 net.cpp:150] Setting up conv8_1
I1206 23:38:54.638125 14353 net.cpp:157] Top shape: 24 128 5 5 (76800)
I1206 23:38:54.638128 14353 net.cpp:165] Memory required for data: 5644750944
I1206 23:38:54.638151 14353 layer_factory.hpp:77] Creating layer conv8_1_relu
I1206 23:38:54.638156 14353 net.cpp:100] Creating Layer conv8_1_relu
I1206 23:38:54.638159 14353 net.cpp:434] conv8_1_relu <- conv8_1
I1206 23:38:54.638176 14353 net.cpp:395] conv8_1_relu -> conv8_1 (in-place)
I1206 23:38:54.638396 14353 net.cpp:150] Setting up conv8_1_relu
I1206 23:38:54.638404 14353 net.cpp:157] Top shape: 24 128 5 5 (76800)
I1206 23:38:54.638407 14353 net.cpp:165] Memory required for data: 5645058144
I1206 23:38:54.638428 14353 layer_factory.hpp:77] Creating layer conv8_2
I1206 23:38:54.638435 14353 net.cpp:100] Creating Layer conv8_2
I1206 23:38:54.638438 14353 net.cpp:434] conv8_2 <- conv8_1
I1206 23:38:54.638443 14353 net.cpp:408] conv8_2 -> conv8_2
I1206 23:38:54.641012 14353 net.cpp:150] Setting up conv8_2
I1206 23:38:54.641022 14353 net.cpp:157] Top shape: 24 256 3 3 (55296)
I1206 23:38:54.641026 14353 net.cpp:165] Memory required for data: 5645279328
I1206 23:38:54.641049 14353 layer_factory.hpp:77] Creating layer conv8_2_relu
I1206 23:38:54.641054 14353 net.cpp:100] Creating Layer conv8_2_relu
I1206 23:38:54.641057 14353 net.cpp:434] conv8_2_relu <- conv8_2
I1206 23:38:54.641062 14353 net.cpp:395] conv8_2_relu -> conv8_2 (in-place)
I1206 23:38:54.641240 14353 net.cpp:150] Setting up conv8_2_relu
I1206 23:38:54.641247 14353 net.cpp:157] Top shape: 24 256 3 3 (55296)
I1206 23:38:54.641249 14353 net.cpp:165] Memory required for data: 5645500512
I1206 23:38:54.641252 14353 layer_factory.hpp:77] Creating layer conv8_2_conv8_2_relu_0_split
I1206 23:38:54.641274 14353 net.cpp:100] Creating Layer conv8_2_conv8_2_relu_0_split
I1206 23:38:54.641278 14353 net.cpp:434] conv8_2_conv8_2_relu_0_split <- conv8_2
I1206 23:38:54.641283 14353 net.cpp:408] conv8_2_conv8_2_relu_0_split -> conv8_2_conv8_2_relu_0_split_0
I1206 23:38:54.641288 14353 net.cpp:408] conv8_2_conv8_2_relu_0_split -> conv8_2_conv8_2_relu_0_split_1
I1206 23:38:54.641294 14353 net.cpp:408] conv8_2_conv8_2_relu_0_split -> conv8_2_conv8_2_relu_0_split_2
I1206 23:38:54.641299 14353 net.cpp:408] conv8_2_conv8_2_relu_0_split -> conv8_2_conv8_2_relu_0_split_3
I1206 23:38:54.641400 14353 net.cpp:150] Setting up conv8_2_conv8_2_relu_0_split
I1206 23:38:54.641405 14353 net.cpp:157] Top shape: 24 256 3 3 (55296)
I1206 23:38:54.641433 14353 net.cpp:157] Top shape: 24 256 3 3 (55296)
I1206 23:38:54.641438 14353 net.cpp:157] Top shape: 24 256 3 3 (55296)
I1206 23:38:54.641439 14353 net.cpp:157] Top shape: 24 256 3 3 (55296)
I1206 23:38:54.641443 14353 net.cpp:165] Memory required for data: 5646385248
I1206 23:38:54.641445 14353 layer_factory.hpp:77] Creating layer conv9_1
I1206 23:38:54.641451 14353 net.cpp:100] Creating Layer conv9_1
I1206 23:38:54.641455 14353 net.cpp:434] conv9_1 <- conv8_2_conv8_2_relu_0_split_0
I1206 23:38:54.641461 14353 net.cpp:408] conv9_1 -> conv9_1
I1206 23:38:54.642401 14353 net.cpp:150] Setting up conv9_1
I1206 23:38:54.642410 14353 net.cpp:157] Top shape: 24 128 3 3 (27648)
I1206 23:38:54.642415 14353 net.cpp:165] Memory required for data: 5646495840
I1206 23:38:54.642418 14353 layer_factory.hpp:77] Creating layer conv9_1_relu
I1206 23:38:54.642441 14353 net.cpp:100] Creating Layer conv9_1_relu
I1206 23:38:54.642446 14353 net.cpp:434] conv9_1_relu <- conv9_1
I1206 23:38:54.642462 14353 net.cpp:395] conv9_1_relu -> conv9_1 (in-place)
I1206 23:38:54.642592 14353 net.cpp:150] Setting up conv9_1_relu
I1206 23:38:54.642598 14353 net.cpp:157] Top shape: 24 128 3 3 (27648)
I1206 23:38:54.642601 14353 net.cpp:165] Memory required for data: 5646606432
I1206 23:38:54.642604 14353 layer_factory.hpp:77] Creating layer conv9_2
I1206 23:38:54.642628 14353 net.cpp:100] Creating Layer conv9_2
I1206 23:38:54.642632 14353 net.cpp:434] conv9_2 <- conv9_1
I1206 23:38:54.642637 14353 net.cpp:408] conv9_2 -> conv9_2
I1206 23:38:54.645499 14353 net.cpp:150] Setting up conv9_2
I1206 23:38:54.645532 14353 net.cpp:157] Top shape: 24 256 1 1 (6144)
I1206 23:38:54.645539 14353 net.cpp:165] Memory required for data: 5646631008
I1206 23:38:54.645562 14353 layer_factory.hpp:77] Creating layer conv9_2_relu
I1206 23:38:54.645591 14353 net.cpp:100] Creating Layer conv9_2_relu
I1206 23:38:54.645596 14353 net.cpp:434] conv9_2_relu <- conv9_2
I1206 23:38:54.645619 14353 net.cpp:395] conv9_2_relu -> conv9_2 (in-place)
I1206 23:38:54.645959 14353 net.cpp:150] Setting up conv9_2_relu
I1206 23:38:54.645973 14353 net.cpp:157] Top shape: 24 256 1 1 (6144)
I1206 23:38:54.645978 14353 net.cpp:165] Memory required for data: 5646655584
I1206 23:38:54.646000 14353 layer_factory.hpp:77] Creating layer conv9_2_conv9_2_relu_0_split
I1206 23:38:54.646008 14353 net.cpp:100] Creating Layer conv9_2_conv9_2_relu_0_split
I1206 23:38:54.646013 14353 net.cpp:434] conv9_2_conv9_2_relu_0_split <- conv9_2
I1206 23:38:54.646019 14353 net.cpp:408] conv9_2_conv9_2_relu_0_split -> conv9_2_conv9_2_relu_0_split_0
I1206 23:38:54.646030 14353 net.cpp:408] conv9_2_conv9_2_relu_0_split -> conv9_2_conv9_2_relu_0_split_1
I1206 23:38:54.646039 14353 net.cpp:408] conv9_2_conv9_2_relu_0_split -> conv9_2_conv9_2_relu_0_split_2
I1206 23:38:54.646127 14353 net.cpp:150] Setting up conv9_2_conv9_2_relu_0_split
I1206 23:38:54.646136 14353 net.cpp:157] Top shape: 24 256 1 1 (6144)
I1206 23:38:54.646138 14353 net.cpp:157] Top shape: 24 256 1 1 (6144)
I1206 23:38:54.646142 14353 net.cpp:157] Top shape: 24 256 1 1 (6144)
I1206 23:38:54.646162 14353 net.cpp:165] Memory required for data: 5646729312
I1206 23:38:54.646164 14353 layer_factory.hpp:77] Creating layer conv4_3_norm
I1206 23:38:54.646170 14353 net.cpp:100] Creating Layer conv4_3_norm
I1206 23:38:54.646173 14353 net.cpp:434] conv4_3_norm <- conv4_3_relu4_3_0_split_1
I1206 23:38:54.646178 14353 net.cpp:408] conv4_3_norm -> conv4_3_norm
I1206 23:38:54.646375 14353 net.cpp:150] Setting up conv4_3_norm
I1206 23:38:54.646383 14353 net.cpp:157] Top shape: 24 512 38 38 (17743872)
I1206 23:38:54.646385 14353 net.cpp:165] Memory required for data: 5717704800
I1206 23:38:54.646389 14353 layer_factory.hpp:77] Creating layer conv4_3_norm_conv4_3_norm_0_split
I1206 23:38:54.646411 14353 net.cpp:100] Creating Layer conv4_3_norm_conv4_3_norm_0_split
I1206 23:38:54.646414 14353 net.cpp:434] conv4_3_norm_conv4_3_norm_0_split <- conv4_3_norm
I1206 23:38:54.646432 14353 net.cpp:408] conv4_3_norm_conv4_3_norm_0_split -> conv4_3_norm_conv4_3_norm_0_split_0
I1206 23:38:54.646446 14353 net.cpp:408] conv4_3_norm_conv4_3_norm_0_split -> conv4_3_norm_conv4_3_norm_0_split_1
I1206 23:38:54.646452 14353 net.cpp:408] conv4_3_norm_conv4_3_norm_0_split -> conv4_3_norm_conv4_3_norm_0_split_2
I1206 23:38:54.646503 14353 net.cpp:150] Setting up conv4_3_norm_conv4_3_norm_0_split
I1206 23:38:54.646508 14353 net.cpp:157] Top shape: 24 512 38 38 (17743872)
I1206 23:38:54.646512 14353 net.cpp:157] Top shape: 24 512 38 38 (17743872)
I1206 23:38:54.646514 14353 net.cpp:157] Top shape: 24 512 38 38 (17743872)
I1206 23:38:54.646517 14353 net.cpp:165] Memory required for data: 5930631264
I1206 23:38:54.646538 14353 layer_factory.hpp:77] Creating layer conv4_3_norm_mbox_loc
I1206 23:38:54.646543 14353 net.cpp:100] Creating Layer conv4_3_norm_mbox_loc
I1206 23:38:54.646546 14353 net.cpp:434] conv4_3_norm_mbox_loc <- conv4_3_norm_conv4_3_norm_0_split_0
I1206 23:38:54.646551 14353 net.cpp:408] conv4_3_norm_mbox_loc -> conv4_3_norm_mbox_loc
I1206 23:38:54.648105 14353 net.cpp:150] Setting up conv4_3_norm_mbox_loc
I1206 23:38:54.648116 14353 net.cpp:157] Top shape: 24 12 38 38 (415872)
I1206 23:38:54.648119 14353 net.cpp:165] Memory required for data: 5932294752
I1206 23:38:54.648144 14353 layer_factory.hpp:77] Creating layer conv4_3_norm_mbox_loc_perm
I1206 23:38:54.648149 14353 net.cpp:100] Creating Layer conv4_3_norm_mbox_loc_perm
I1206 23:38:54.648154 14353 net.cpp:434] conv4_3_norm_mbox_loc_perm <- conv4_3_norm_mbox_loc
I1206 23:38:54.648159 14353 net.cpp:408] conv4_3_norm_mbox_loc_perm -> conv4_3_norm_mbox_loc_perm
I1206 23:38:54.648262 14353 net.cpp:150] Setting up conv4_3_norm_mbox_loc_perm
I1206 23:38:54.648267 14353 net.cpp:157] Top shape: 24 38 38 12 (415872)
I1206 23:38:54.648269 14353 net.cpp:165] Memory required for data: 5933958240
I1206 23:38:54.648272 14353 layer_factory.hpp:77] Creating layer conv4_3_norm_mbox_loc_flat
I1206 23:38:54.648295 14353 net.cpp:100] Creating Layer conv4_3_norm_mbox_loc_flat
I1206 23:38:54.648298 14353 net.cpp:434] conv4_3_norm_mbox_loc_flat <- conv4_3_norm_mbox_loc_perm
I1206 23:38:54.648303 14353 net.cpp:408] conv4_3_norm_mbox_loc_flat -> conv4_3_norm_mbox_loc_flat
I1206 23:38:54.648349 14353 net.cpp:150] Setting up conv4_3_norm_mbox_loc_flat
I1206 23:38:54.648353 14353 net.cpp:157] Top shape: 24 17328 (415872)
I1206 23:38:54.648356 14353 net.cpp:165] Memory required for data: 5935621728
I1206 23:38:54.648358 14353 layer_factory.hpp:77] Creating layer conv4_3_norm_mbox_conf
I1206 23:38:54.648402 14353 net.cpp:100] Creating Layer conv4_3_norm_mbox_conf
I1206 23:38:54.648406 14353 net.cpp:434] conv4_3_norm_mbox_conf <- conv4_3_norm_conv4_3_norm_0_split_1
I1206 23:38:54.648409 14353 net.cpp:408] conv4_3_norm_mbox_conf -> conv4_3_norm_mbox_conf
I1206 23:38:54.649355 14353 net.cpp:150] Setting up conv4_3_norm_mbox_conf
I1206 23:38:54.649365 14353 net.cpp:157] Top shape: 24 6 38 38 (207936)
I1206 23:38:54.649369 14353 net.cpp:165] Memory required for data: 5936453472
I1206 23:38:54.649394 14353 layer_factory.hpp:77] Creating layer conv4_3_norm_mbox_conf_perm
I1206 23:38:54.649399 14353 net.cpp:100] Creating Layer conv4_3_norm_mbox_conf_perm
I1206 23:38:54.649415 14353 net.cpp:434] conv4_3_norm_mbox_conf_perm <- conv4_3_norm_mbox_conf
I1206 23:38:54.649420 14353 net.cpp:408] conv4_3_norm_mbox_conf_perm -> conv4_3_norm_mbox_conf_perm
I1206 23:38:54.649536 14353 net.cpp:150] Setting up conv4_3_norm_mbox_conf_perm
I1206 23:38:54.649543 14353 net.cpp:157] Top shape: 24 38 38 6 (207936)
I1206 23:38:54.649545 14353 net.cpp:165] Memory required for data: 5937285216
I1206 23:38:54.649547 14353 layer_factory.hpp:77] Creating layer conv4_3_norm_mbox_conf_flat
I1206 23:38:54.649551 14353 net.cpp:100] Creating Layer conv4_3_norm_mbox_conf_flat
I1206 23:38:54.649572 14353 net.cpp:434] conv4_3_norm_mbox_conf_flat <- conv4_3_norm_mbox_conf_perm
I1206 23:38:54.649576 14353 net.cpp:408] conv4_3_norm_mbox_conf_flat -> conv4_3_norm_mbox_conf_flat
I1206 23:38:54.649595 14353 net.cpp:150] Setting up conv4_3_norm_mbox_conf_flat
I1206 23:38:54.649607 14353 net.cpp:157] Top shape: 24 8664 (207936)
I1206 23:38:54.649610 14353 net.cpp:165] Memory required for data: 5938116960
I1206 23:38:54.649626 14353 layer_factory.hpp:77] Creating layer conv4_3_norm_mbox_priorbox
I1206 23:38:54.649632 14353 net.cpp:100] Creating Layer conv4_3_norm_mbox_priorbox
I1206 23:38:54.649636 14353 net.cpp:434] conv4_3_norm_mbox_priorbox <- conv4_3_norm_conv4_3_norm_0_split_2
I1206 23:38:54.649639 14353 net.cpp:434] conv4_3_norm_mbox_priorbox <- data_data_0_split_1
I1206 23:38:54.649643 14353 net.cpp:408] conv4_3_norm_mbox_priorbox -> conv4_3_norm_mbox_priorbox
I1206 23:38:54.649667 14353 net.cpp:150] Setting up conv4_3_norm_mbox_priorbox
I1206 23:38:54.649672 14353 net.cpp:157] Top shape: 1 2 17328 (34656)
I1206 23:38:54.649674 14353 net.cpp:165] Memory required for data: 5938255584
I1206 23:38:54.649677 14353 layer_factory.hpp:77] Creating layer fc7_mbox_loc
I1206 23:38:54.649696 14353 net.cpp:100] Creating Layer fc7_mbox_loc
I1206 23:38:54.649699 14353 net.cpp:434] fc7_mbox_loc <- fc7_relu7_0_split_1
I1206 23:38:54.649724 14353 net.cpp:408] fc7_mbox_loc -> fc7_mbox_loc
I1206 23:38:54.651635 14353 net.cpp:150] Setting up fc7_mbox_loc
I1206 23:38:54.651645 14353 net.cpp:157] Top shape: 24 16 19 19 (138624)
I1206 23:38:54.651648 14353 net.cpp:165] Memory required for data: 5938810080
I1206 23:38:54.651674 14353 layer_factory.hpp:77] Creating layer fc7_mbox_loc_perm
I1206 23:38:54.651679 14353 net.cpp:100] Creating Layer fc7_mbox_loc_perm
I1206 23:38:54.651695 14353 net.cpp:434] fc7_mbox_loc_perm <- fc7_mbox_loc
I1206 23:38:54.651700 14353 net.cpp:408] fc7_mbox_loc_perm -> fc7_mbox_loc_perm
I1206 23:38:54.651799 14353 net.cpp:150] Setting up fc7_mbox_loc_perm
I1206 23:38:54.651805 14353 net.cpp:157] Top shape: 24 19 19 16 (138624)
I1206 23:38:54.651808 14353 net.cpp:165] Memory required for data: 5939364576
I1206 23:38:54.651811 14353 layer_factory.hpp:77] Creating layer fc7_mbox_loc_flat
I1206 23:38:54.651834 14353 net.cpp:100] Creating Layer fc7_mbox_loc_flat
I1206 23:38:54.651836 14353 net.cpp:434] fc7_mbox_loc_flat <- fc7_mbox_loc_perm
I1206 23:38:54.651839 14353 net.cpp:408] fc7_mbox_loc_flat -> fc7_mbox_loc_flat
I1206 23:38:54.651859 14353 net.cpp:150] Setting up fc7_mbox_loc_flat
I1206 23:38:54.651865 14353 net.cpp:157] Top shape: 24 5776 (138624)
I1206 23:38:54.651867 14353 net.cpp:165] Memory required for data: 5939919072
I1206 23:38:54.651870 14353 layer_factory.hpp:77] Creating layer fc7_mbox_conf
I1206 23:38:54.651876 14353 net.cpp:100] Creating Layer fc7_mbox_conf
I1206 23:38:54.651880 14353 net.cpp:434] fc7_mbox_conf <- fc7_relu7_0_split_2
I1206 23:38:54.651899 14353 net.cpp:408] fc7_mbox_conf -> fc7_mbox_conf
I1206 23:38:54.653154 14353 net.cpp:150] Setting up fc7_mbox_conf
I1206 23:38:54.653164 14353 net.cpp:157] Top shape: 24 8 19 19 (69312)
I1206 23:38:54.653167 14353 net.cpp:165] Memory required for data: 5940196320
I1206 23:38:54.653172 14353 layer_factory.hpp:77] Creating layer fc7_mbox_conf_perm
I1206 23:38:54.653198 14353 net.cpp:100] Creating Layer fc7_mbox_conf_perm
I1206 23:38:54.653201 14353 net.cpp:434] fc7_mbox_conf_perm <- fc7_mbox_conf
I1206 23:38:54.653206 14353 net.cpp:408] fc7_mbox_conf_perm -> fc7_mbox_conf_perm
I1206 23:38:54.653344 14353 net.cpp:150] Setting up fc7_mbox_conf_perm
I1206 23:38:54.653369 14353 net.cpp:157] Top shape: 24 19 19 8 (69312)
I1206 23:38:54.653373 14353 net.cpp:165] Memory required for data: 5940473568
I1206 23:38:54.653375 14353 layer_factory.hpp:77] Creating layer fc7_mbox_conf_flat
I1206 23:38:54.653393 14353 net.cpp:100] Creating Layer fc7_mbox_conf_flat
I1206 23:38:54.653395 14353 net.cpp:434] fc7_mbox_conf_flat <- fc7_mbox_conf_perm
I1206 23:38:54.653399 14353 net.cpp:408] fc7_mbox_conf_flat -> fc7_mbox_conf_flat
I1206 23:38:54.653419 14353 net.cpp:150] Setting up fc7_mbox_conf_flat
I1206 23:38:54.653424 14353 net.cpp:157] Top shape: 24 2888 (69312)
I1206 23:38:54.653427 14353 net.cpp:165] Memory required for data: 5940750816
I1206 23:38:54.653429 14353 layer_factory.hpp:77] Creating layer fc7_mbox_priorbox
I1206 23:38:54.653456 14353 net.cpp:100] Creating Layer fc7_mbox_priorbox
I1206 23:38:54.653460 14353 net.cpp:434] fc7_mbox_priorbox <- fc7_relu7_0_split_3
I1206 23:38:54.653481 14353 net.cpp:434] fc7_mbox_priorbox <- data_data_0_split_2
I1206 23:38:54.653486 14353 net.cpp:408] fc7_mbox_priorbox -> fc7_mbox_priorbox
I1206 23:38:54.653522 14353 net.cpp:150] Setting up fc7_mbox_priorbox
I1206 23:38:54.653527 14353 net.cpp:157] Top shape: 1 2 5776 (11552)
I1206 23:38:54.653529 14353 net.cpp:165] Memory required for data: 5940797024
I1206 23:38:54.653532 14353 layer_factory.hpp:77] Creating layer conv6_2_mbox_loc
I1206 23:38:54.653539 14353 net.cpp:100] Creating Layer conv6_2_mbox_loc
I1206 23:38:54.653543 14353 net.cpp:434] conv6_2_mbox_loc <- conv6_2_conv6_2_relu_0_split_1
I1206 23:38:54.653549 14353 net.cpp:408] conv6_2_mbox_loc -> conv6_2_mbox_loc
I1206 23:38:54.655061 14353 net.cpp:150] Setting up conv6_2_mbox_loc
I1206 23:38:54.655089 14353 net.cpp:157] Top shape: 24 16 10 10 (38400)
I1206 23:38:54.655092 14353 net.cpp:165] Memory required for data: 5940950624
I1206 23:38:54.655112 14353 layer_factory.hpp:77] Creating layer conv6_2_mbox_loc_perm
I1206 23:38:54.655117 14353 net.cpp:100] Creating Layer conv6_2_mbox_loc_perm
I1206 23:38:54.655122 14353 net.cpp:434] conv6_2_mbox_loc_perm <- conv6_2_mbox_loc
I1206 23:38:54.655125 14353 net.cpp:408] conv6_2_mbox_loc_perm -> conv6_2_mbox_loc_perm
I1206 23:38:54.655247 14353 net.cpp:150] Setting up conv6_2_mbox_loc_perm
I1206 23:38:54.655256 14353 net.cpp:157] Top shape: 24 10 10 16 (38400)
I1206 23:38:54.655272 14353 net.cpp:165] Memory required for data: 5941104224
I1206 23:38:54.655275 14353 layer_factory.hpp:77] Creating layer conv6_2_mbox_loc_flat
I1206 23:38:54.655280 14353 net.cpp:100] Creating Layer conv6_2_mbox_loc_flat
I1206 23:38:54.655297 14353 net.cpp:434] conv6_2_mbox_loc_flat <- conv6_2_mbox_loc_perm
I1206 23:38:54.655302 14353 net.cpp:408] conv6_2_mbox_loc_flat -> conv6_2_mbox_loc_flat
I1206 23:38:54.655335 14353 net.cpp:150] Setting up conv6_2_mbox_loc_flat
I1206 23:38:54.655340 14353 net.cpp:157] Top shape: 24 1600 (38400)
I1206 23:38:54.655344 14353 net.cpp:165] Memory required for data: 5941257824
I1206 23:38:54.655345 14353 layer_factory.hpp:77] Creating layer conv6_2_mbox_conf
I1206 23:38:54.655354 14353 net.cpp:100] Creating Layer conv6_2_mbox_conf
I1206 23:38:54.655357 14353 net.cpp:434] conv6_2_mbox_conf <- conv6_2_conv6_2_relu_0_split_2
I1206 23:38:54.655361 14353 net.cpp:408] conv6_2_mbox_conf -> conv6_2_mbox_conf
I1206 23:38:54.656452 14353 net.cpp:150] Setting up conv6_2_mbox_conf
I1206 23:38:54.656463 14353 net.cpp:157] Top shape: 24 8 10 10 (19200)
I1206 23:38:54.656466 14353 net.cpp:165] Memory required for data: 5941334624
I1206 23:38:54.656484 14353 layer_factory.hpp:77] Creating layer conv6_2_mbox_conf_perm
I1206 23:38:54.656491 14353 net.cpp:100] Creating Layer conv6_2_mbox_conf_perm
I1206 23:38:54.656507 14353 net.cpp:434] conv6_2_mbox_conf_perm <- conv6_2_mbox_conf
I1206 23:38:54.656512 14353 net.cpp:408] conv6_2_mbox_conf_perm -> conv6_2_mbox_conf_perm
I1206 23:38:54.656615 14353 net.cpp:150] Setting up conv6_2_mbox_conf_perm
I1206 23:38:54.656620 14353 net.cpp:157] Top shape: 24 10 10 8 (19200)
I1206 23:38:54.656622 14353 net.cpp:165] Memory required for data: 5941411424
I1206 23:38:54.656625 14353 layer_factory.hpp:77] Creating layer conv6_2_mbox_conf_flat
I1206 23:38:54.656647 14353 net.cpp:100] Creating Layer conv6_2_mbox_conf_flat
I1206 23:38:54.656651 14353 net.cpp:434] conv6_2_mbox_conf_flat <- conv6_2_mbox_conf_perm
I1206 23:38:54.656656 14353 net.cpp:408] conv6_2_mbox_conf_flat -> conv6_2_mbox_conf_flat
I1206 23:38:54.656674 14353 net.cpp:150] Setting up conv6_2_mbox_conf_flat
I1206 23:38:54.656679 14353 net.cpp:157] Top shape: 24 800 (19200)
I1206 23:38:54.656682 14353 net.cpp:165] Memory required for data: 5941488224
I1206 23:38:54.656685 14353 layer_factory.hpp:77] Creating layer conv6_2_mbox_priorbox
I1206 23:38:54.656690 14353 net.cpp:100] Creating Layer conv6_2_mbox_priorbox
I1206 23:38:54.656693 14353 net.cpp:434] conv6_2_mbox_priorbox <- conv6_2_conv6_2_relu_0_split_3
I1206 23:38:54.656719 14353 net.cpp:434] conv6_2_mbox_priorbox <- data_data_0_split_3
I1206 23:38:54.656724 14353 net.cpp:408] conv6_2_mbox_priorbox -> conv6_2_mbox_priorbox
I1206 23:38:54.656747 14353 net.cpp:150] Setting up conv6_2_mbox_priorbox
I1206 23:38:54.656752 14353 net.cpp:157] Top shape: 1 2 1600 (3200)
I1206 23:38:54.656754 14353 net.cpp:165] Memory required for data: 5941501024
I1206 23:38:54.656757 14353 layer_factory.hpp:77] Creating layer conv7_2_mbox_loc
I1206 23:38:54.656764 14353 net.cpp:100] Creating Layer conv7_2_mbox_loc
I1206 23:38:54.656767 14353 net.cpp:434] conv7_2_mbox_loc <- conv7_2_conv7_2_relu_0_split_1
I1206 23:38:54.656795 14353 net.cpp:408] conv7_2_mbox_loc -> conv7_2_mbox_loc
I1206 23:38:54.657846 14353 net.cpp:150] Setting up conv7_2_mbox_loc
I1206 23:38:54.657856 14353 net.cpp:157] Top shape: 24 16 5 5 (9600)
I1206 23:38:54.657860 14353 net.cpp:165] Memory required for data: 5941539424
I1206 23:38:54.657866 14353 layer_factory.hpp:77] Creating layer conv7_2_mbox_loc_perm
I1206 23:38:54.657886 14353 net.cpp:100] Creating Layer conv7_2_mbox_loc_perm
I1206 23:38:54.657889 14353 net.cpp:434] conv7_2_mbox_loc_perm <- conv7_2_mbox_loc
I1206 23:38:54.657894 14353 net.cpp:408] conv7_2_mbox_loc_perm -> conv7_2_mbox_loc_perm
I1206 23:38:54.657997 14353 net.cpp:150] Setting up conv7_2_mbox_loc_perm
I1206 23:38:54.658004 14353 net.cpp:157] Top shape: 24 5 5 16 (9600)
I1206 23:38:54.658006 14353 net.cpp:165] Memory required for data: 5941577824
I1206 23:38:54.658010 14353 layer_factory.hpp:77] Creating layer conv7_2_mbox_loc_flat
I1206 23:38:54.658012 14353 net.cpp:100] Creating Layer conv7_2_mbox_loc_flat
I1206 23:38:54.658035 14353 net.cpp:434] conv7_2_mbox_loc_flat <- conv7_2_mbox_loc_perm
I1206 23:38:54.658037 14353 net.cpp:408] conv7_2_mbox_loc_flat -> conv7_2_mbox_loc_flat
I1206 23:38:54.658057 14353 net.cpp:150] Setting up conv7_2_mbox_loc_flat
I1206 23:38:54.658061 14353 net.cpp:157] Top shape: 24 400 (9600)
I1206 23:38:54.658077 14353 net.cpp:165] Memory required for data: 5941616224
I1206 23:38:54.658079 14353 layer_factory.hpp:77] Creating layer conv7_2_mbox_conf
I1206 23:38:54.658085 14353 net.cpp:100] Creating Layer conv7_2_mbox_conf
I1206 23:38:54.658090 14353 net.cpp:434] conv7_2_mbox_conf <- conv7_2_conv7_2_relu_0_split_2
I1206 23:38:54.658095 14353 net.cpp:408] conv7_2_mbox_conf -> conv7_2_mbox_conf
I1206 23:38:54.659080 14353 net.cpp:150] Setting up conv7_2_mbox_conf
I1206 23:38:54.659090 14353 net.cpp:157] Top shape: 24 8 5 5 (4800)
I1206 23:38:54.659092 14353 net.cpp:165] Memory required for data: 5941635424
I1206 23:38:54.659097 14353 layer_factory.hpp:77] Creating layer conv7_2_mbox_conf_perm
I1206 23:38:54.659116 14353 net.cpp:100] Creating Layer conv7_2_mbox_conf_perm
I1206 23:38:54.659121 14353 net.cpp:434] conv7_2_mbox_conf_perm <- conv7_2_mbox_conf
I1206 23:38:54.659137 14353 net.cpp:408] conv7_2_mbox_conf_perm -> conv7_2_mbox_conf_perm
I1206 23:38:54.659242 14353 net.cpp:150] Setting up conv7_2_mbox_conf_perm
I1206 23:38:54.659247 14353 net.cpp:157] Top shape: 24 5 5 8 (4800)
I1206 23:38:54.659250 14353 net.cpp:165] Memory required for data: 5941654624
I1206 23:38:54.659253 14353 layer_factory.hpp:77] Creating layer conv7_2_mbox_conf_flat
I1206 23:38:54.659276 14353 net.cpp:100] Creating Layer conv7_2_mbox_conf_flat
I1206 23:38:54.659278 14353 net.cpp:434] conv7_2_mbox_conf_flat <- conv7_2_mbox_conf_perm
I1206 23:38:54.659297 14353 net.cpp:408] conv7_2_mbox_conf_flat -> conv7_2_mbox_conf_flat
I1206 23:38:54.659315 14353 net.cpp:150] Setting up conv7_2_mbox_conf_flat
I1206 23:38:54.659320 14353 net.cpp:157] Top shape: 24 200 (4800)
I1206 23:38:54.659322 14353 net.cpp:165] Memory required for data: 5941673824
I1206 23:38:54.659325 14353 layer_factory.hpp:77] Creating layer conv7_2_mbox_priorbox
I1206 23:38:54.659330 14353 net.cpp:100] Creating Layer conv7_2_mbox_priorbox
I1206 23:38:54.659333 14353 net.cpp:434] conv7_2_mbox_priorbox <- conv7_2_conv7_2_relu_0_split_3
I1206 23:38:54.659337 14353 net.cpp:434] conv7_2_mbox_priorbox <- data_data_0_split_4
I1206 23:38:54.659351 14353 net.cpp:408] conv7_2_mbox_priorbox -> conv7_2_mbox_priorbox
I1206 23:38:54.659373 14353 net.cpp:150] Setting up conv7_2_mbox_priorbox
I1206 23:38:54.659378 14353 net.cpp:157] Top shape: 1 2 400 (800)
I1206 23:38:54.659380 14353 net.cpp:165] Memory required for data: 5941677024
I1206 23:38:54.659382 14353 layer_factory.hpp:77] Creating layer conv8_2_mbox_loc
I1206 23:38:54.659390 14353 net.cpp:100] Creating Layer conv8_2_mbox_loc
I1206 23:38:54.659394 14353 net.cpp:434] conv8_2_mbox_loc <- conv8_2_conv8_2_relu_0_split_1
I1206 23:38:54.659399 14353 net.cpp:408] conv8_2_mbox_loc -> conv8_2_mbox_loc
I1206 23:38:54.660471 14353 net.cpp:150] Setting up conv8_2_mbox_loc
I1206 23:38:54.660481 14353 net.cpp:157] Top shape: 24 12 3 3 (2592)
I1206 23:38:54.660485 14353 net.cpp:165] Memory required for data: 5941687392
I1206 23:38:54.660511 14353 layer_factory.hpp:77] Creating layer conv8_2_mbox_loc_perm
I1206 23:38:54.660517 14353 net.cpp:100] Creating Layer conv8_2_mbox_loc_perm
I1206 23:38:54.660522 14353 net.cpp:434] conv8_2_mbox_loc_perm <- conv8_2_mbox_loc
I1206 23:38:54.660528 14353 net.cpp:408] conv8_2_mbox_loc_perm -> conv8_2_mbox_loc_perm
I1206 23:38:54.660637 14353 net.cpp:150] Setting up conv8_2_mbox_loc_perm
I1206 23:38:54.660643 14353 net.cpp:157] Top shape: 24 3 3 12 (2592)
I1206 23:38:54.660645 14353 net.cpp:165] Memory required for data: 5941697760
I1206 23:38:54.660648 14353 layer_factory.hpp:77] Creating layer conv8_2_mbox_loc_flat
I1206 23:38:54.660671 14353 net.cpp:100] Creating Layer conv8_2_mbox_loc_flat
I1206 23:38:54.660675 14353 net.cpp:434] conv8_2_mbox_loc_flat <- conv8_2_mbox_loc_perm
I1206 23:38:54.660678 14353 net.cpp:408] conv8_2_mbox_loc_flat -> conv8_2_mbox_loc_flat
I1206 23:38:54.660698 14353 net.cpp:150] Setting up conv8_2_mbox_loc_flat
I1206 23:38:54.660717 14353 net.cpp:157] Top shape: 24 108 (2592)
I1206 23:38:54.660719 14353 net.cpp:165] Memory required for data: 5941708128
I1206 23:38:54.660722 14353 layer_factory.hpp:77] Creating layer conv8_2_mbox_conf
I1206 23:38:54.660728 14353 net.cpp:100] Creating Layer conv8_2_mbox_conf
I1206 23:38:54.660732 14353 net.cpp:434] conv8_2_mbox_conf <- conv8_2_conv8_2_relu_0_split_2
I1206 23:38:54.660737 14353 net.cpp:408] conv8_2_mbox_conf -> conv8_2_mbox_conf
I1206 23:38:54.662057 14353 net.cpp:150] Setting up conv8_2_mbox_conf
I1206 23:38:54.662072 14353 net.cpp:157] Top shape: 24 6 3 3 (1296)
I1206 23:38:54.662094 14353 net.cpp:165] Memory required for data: 5941713312
I1206 23:38:54.662101 14353 layer_factory.hpp:77] Creating layer conv8_2_mbox_conf_perm
I1206 23:38:54.662106 14353 net.cpp:100] Creating Layer conv8_2_mbox_conf_perm
I1206 23:38:54.662111 14353 net.cpp:434] conv8_2_mbox_conf_perm <- conv8_2_mbox_conf
I1206 23:38:54.662117 14353 net.cpp:408] conv8_2_mbox_conf_perm -> conv8_2_mbox_conf_perm
I1206 23:38:54.662259 14353 net.cpp:150] Setting up conv8_2_mbox_conf_perm
I1206 23:38:54.662266 14353 net.cpp:157] Top shape: 24 3 3 6 (1296)
I1206 23:38:54.662269 14353 net.cpp:165] Memory required for data: 5941718496
I1206 23:38:54.662271 14353 layer_factory.hpp:77] Creating layer conv8_2_mbox_conf_flat
I1206 23:38:54.662276 14353 net.cpp:100] Creating Layer conv8_2_mbox_conf_flat
I1206 23:38:54.662279 14353 net.cpp:434] conv8_2_mbox_conf_flat <- conv8_2_mbox_conf_perm
I1206 23:38:54.662284 14353 net.cpp:408] conv8_2_mbox_conf_flat -> conv8_2_mbox_conf_flat
I1206 23:38:54.662304 14353 net.cpp:150] Setting up conv8_2_mbox_conf_flat
I1206 23:38:54.662310 14353 net.cpp:157] Top shape: 24 54 (1296)
I1206 23:38:54.662312 14353 net.cpp:165] Memory required for data: 5941723680
I1206 23:38:54.662315 14353 layer_factory.hpp:77] Creating layer conv8_2_mbox_priorbox
I1206 23:38:54.662320 14353 net.cpp:100] Creating Layer conv8_2_mbox_priorbox
I1206 23:38:54.662324 14353 net.cpp:434] conv8_2_mbox_priorbox <- conv8_2_conv8_2_relu_0_split_3
I1206 23:38:54.662328 14353 net.cpp:434] conv8_2_mbox_priorbox <- data_data_0_split_5
I1206 23:38:54.662333 14353 net.cpp:408] conv8_2_mbox_priorbox -> conv8_2_mbox_priorbox
I1206 23:38:54.662367 14353 net.cpp:150] Setting up conv8_2_mbox_priorbox
I1206 23:38:54.662374 14353 net.cpp:157] Top shape: 1 2 108 (216)
I1206 23:38:54.662375 14353 net.cpp:165] Memory required for data: 5941724544
I1206 23:38:54.662379 14353 layer_factory.hpp:77] Creating layer conv9_2_mbox_loc
I1206 23:38:54.662385 14353 net.cpp:100] Creating Layer conv9_2_mbox_loc
I1206 23:38:54.662389 14353 net.cpp:434] conv9_2_mbox_loc <- conv9_2_conv9_2_relu_0_split_0
I1206 23:38:54.662395 14353 net.cpp:408] conv9_2_mbox_loc -> conv9_2_mbox_loc
I1206 23:38:54.663645 14353 net.cpp:150] Setting up conv9_2_mbox_loc
I1206 23:38:54.663676 14353 net.cpp:157] Top shape: 24 12 1 1 (288)
I1206 23:38:54.663679 14353 net.cpp:165] Memory required for data: 5941725696
I1206 23:38:54.663699 14353 layer_factory.hpp:77] Creating layer conv9_2_mbox_loc_perm
I1206 23:38:54.663707 14353 net.cpp:100] Creating Layer conv9_2_mbox_loc_perm
I1206 23:38:54.663710 14353 net.cpp:434] conv9_2_mbox_loc_perm <- conv9_2_mbox_loc
I1206 23:38:54.663715 14353 net.cpp:408] conv9_2_mbox_loc_perm -> conv9_2_mbox_loc_perm
I1206 23:38:54.663827 14353 net.cpp:150] Setting up conv9_2_mbox_loc_perm
I1206 23:38:54.663852 14353 net.cpp:157] Top shape: 24 1 1 12 (288)
I1206 23:38:54.663856 14353 net.cpp:165] Memory required for data: 5941726848
I1206 23:38:54.663858 14353 layer_factory.hpp:77] Creating layer conv9_2_mbox_loc_flat
I1206 23:38:54.663862 14353 net.cpp:100] Creating Layer conv9_2_mbox_loc_flat
I1206 23:38:54.663866 14353 net.cpp:434] conv9_2_mbox_loc_flat <- conv9_2_mbox_loc_perm
I1206 23:38:54.663869 14353 net.cpp:408] conv9_2_mbox_loc_flat -> conv9_2_mbox_loc_flat
I1206 23:38:54.663904 14353 net.cpp:150] Setting up conv9_2_mbox_loc_flat
I1206 23:38:54.663909 14353 net.cpp:157] Top shape: 24 12 (288)
I1206 23:38:54.663913 14353 net.cpp:165] Memory required for data: 5941728000
I1206 23:38:54.663914 14353 layer_factory.hpp:77] Creating layer conv9_2_mbox_conf
I1206 23:38:54.663923 14353 net.cpp:100] Creating Layer conv9_2_mbox_conf
I1206 23:38:54.663925 14353 net.cpp:434] conv9_2_mbox_conf <- conv9_2_conv9_2_relu_0_split_1
I1206 23:38:54.663930 14353 net.cpp:408] conv9_2_mbox_conf -> conv9_2_mbox_conf
I1206 23:38:54.664921 14353 net.cpp:150] Setting up conv9_2_mbox_conf
I1206 23:38:54.664928 14353 net.cpp:157] Top shape: 24 6 1 1 (144)
I1206 23:38:54.664932 14353 net.cpp:165] Memory required for data: 5941728576
I1206 23:38:54.664937 14353 layer_factory.hpp:77] Creating layer conv9_2_mbox_conf_perm
I1206 23:38:54.664942 14353 net.cpp:100] Creating Layer conv9_2_mbox_conf_perm
I1206 23:38:54.664947 14353 net.cpp:434] conv9_2_mbox_conf_perm <- conv9_2_mbox_conf
I1206 23:38:54.664952 14353 net.cpp:408] conv9_2_mbox_conf_perm -> conv9_2_mbox_conf_perm
I1206 23:38:54.665043 14353 net.cpp:150] Setting up conv9_2_mbox_conf_perm
I1206 23:38:54.665048 14353 net.cpp:157] Top shape: 24 1 1 6 (144)
I1206 23:38:54.665051 14353 net.cpp:165] Memory required for data: 5941729152
I1206 23:38:54.665053 14353 layer_factory.hpp:77] Creating layer conv9_2_mbox_conf_flat
I1206 23:38:54.665057 14353 net.cpp:100] Creating Layer conv9_2_mbox_conf_flat
I1206 23:38:54.665060 14353 net.cpp:434] conv9_2_mbox_conf_flat <- conv9_2_mbox_conf_perm
I1206 23:38:54.665065 14353 net.cpp:408] conv9_2_mbox_conf_flat -> conv9_2_mbox_conf_flat
I1206 23:38:54.665083 14353 net.cpp:150] Setting up conv9_2_mbox_conf_flat
I1206 23:38:54.665087 14353 net.cpp:157] Top shape: 24 6 (144)
I1206 23:38:54.665089 14353 net.cpp:165] Memory required for data: 5941729728
I1206 23:38:54.665092 14353 layer_factory.hpp:77] Creating layer conv9_2_mbox_priorbox
I1206 23:38:54.665097 14353 net.cpp:100] Creating Layer conv9_2_mbox_priorbox
I1206 23:38:54.665101 14353 net.cpp:434] conv9_2_mbox_priorbox <- conv9_2_conv9_2_relu_0_split_2
I1206 23:38:54.665103 14353 net.cpp:434] conv9_2_mbox_priorbox <- data_data_0_split_6
I1206 23:38:54.665107 14353 net.cpp:408] conv9_2_mbox_priorbox -> conv9_2_mbox_priorbox
I1206 23:38:54.665128 14353 net.cpp:150] Setting up conv9_2_mbox_priorbox
I1206 23:38:54.665132 14353 net.cpp:157] Top shape: 1 2 12 (24)
I1206 23:38:54.665143 14353 net.cpp:165] Memory required for data: 5941729824
I1206 23:38:54.665144 14353 layer_factory.hpp:77] Creating layer mbox_loc
I1206 23:38:54.665154 14353 net.cpp:100] Creating Layer mbox_loc
I1206 23:38:54.665158 14353 net.cpp:434] mbox_loc <- conv4_3_norm_mbox_loc_flat
I1206 23:38:54.665163 14353 net.cpp:434] mbox_loc <- fc7_mbox_loc_flat
I1206 23:38:54.665166 14353 net.cpp:434] mbox_loc <- conv6_2_mbox_loc_flat
I1206 23:38:54.665169 14353 net.cpp:434] mbox_loc <- conv7_2_mbox_loc_flat
I1206 23:38:54.665172 14353 net.cpp:434] mbox_loc <- conv8_2_mbox_loc_flat
I1206 23:38:54.665175 14353 net.cpp:434] mbox_loc <- conv9_2_mbox_loc_flat
I1206 23:38:54.665179 14353 net.cpp:408] mbox_loc -> mbox_loc
I1206 23:38:54.665204 14353 net.cpp:150] Setting up mbox_loc
I1206 23:38:54.665207 14353 net.cpp:157] Top shape: 24 25224 (605376)
I1206 23:38:54.665210 14353 net.cpp:165] Memory required for data: 5944151328
I1206 23:38:54.665212 14353 layer_factory.hpp:77] Creating layer mbox_conf
I1206 23:38:54.665216 14353 net.cpp:100] Creating Layer mbox_conf
I1206 23:38:54.665220 14353 net.cpp:434] mbox_conf <- conv4_3_norm_mbox_conf_flat
I1206 23:38:54.665223 14353 net.cpp:434] mbox_conf <- fc7_mbox_conf_flat
I1206 23:38:54.665226 14353 net.cpp:434] mbox_conf <- conv6_2_mbox_conf_flat
I1206 23:38:54.665230 14353 net.cpp:434] mbox_conf <- conv7_2_mbox_conf_flat
I1206 23:38:54.665232 14353 net.cpp:434] mbox_conf <- conv8_2_mbox_conf_flat
I1206 23:38:54.665235 14353 net.cpp:434] mbox_conf <- conv9_2_mbox_conf_flat
I1206 23:38:54.665238 14353 net.cpp:408] mbox_conf -> mbox_conf
I1206 23:38:54.665257 14353 net.cpp:150] Setting up mbox_conf
I1206 23:38:54.665261 14353 net.cpp:157] Top shape: 24 12612 (302688)
I1206 23:38:54.665263 14353 net.cpp:165] Memory required for data: 5945362080
I1206 23:38:54.665266 14353 layer_factory.hpp:77] Creating layer mbox_priorbox
I1206 23:38:54.665271 14353 net.cpp:100] Creating Layer mbox_priorbox
I1206 23:38:54.665273 14353 net.cpp:434] mbox_priorbox <- conv4_3_norm_mbox_priorbox
I1206 23:38:54.665277 14353 net.cpp:434] mbox_priorbox <- fc7_mbox_priorbox
I1206 23:38:54.665280 14353 net.cpp:434] mbox_priorbox <- conv6_2_mbox_priorbox
I1206 23:38:54.665283 14353 net.cpp:434] mbox_priorbox <- conv7_2_mbox_priorbox
I1206 23:38:54.665285 14353 net.cpp:434] mbox_priorbox <- conv8_2_mbox_priorbox
I1206 23:38:54.665288 14353 net.cpp:434] mbox_priorbox <- conv9_2_mbox_priorbox
I1206 23:38:54.665292 14353 net.cpp:408] mbox_priorbox -> mbox_priorbox
I1206 23:38:54.665310 14353 net.cpp:150] Setting up mbox_priorbox
I1206 23:38:54.665314 14353 net.cpp:157] Top shape: 1 2 25224 (50448)
I1206 23:38:54.665316 14353 net.cpp:165] Memory required for data: 5945563872
I1206 23:38:54.665319 14353 layer_factory.hpp:77] Creating layer mbox_loss
I1206 23:38:54.665328 14353 net.cpp:100] Creating Layer mbox_loss
I1206 23:38:54.665329 14353 net.cpp:434] mbox_loss <- mbox_loc
I1206 23:38:54.665333 14353 net.cpp:434] mbox_loss <- mbox_conf
I1206 23:38:54.665335 14353 net.cpp:434] mbox_loss <- mbox_priorbox
…
name: "VGG_GTSDB_SSD_300x300_test"
state {
  phase: TEST
}
layer {
  name: "data"
  type: "AnnotatedData"
  top: "data"
  top: "label"
  include {
    phase: TEST
  }
  transform_param {
    mean_value: 104
    mean_value: 117
    mean_value: 123
    resize_param {
      prob: 1
      resize_mode: WARP
      height: 300
      width: 300
      interp_mode: LINEAR
    }
  }
  data_param {
    source: "examples/GTSDB/GTSDB_test_lmdb"
    batch_size: 5
    backend: LMDB
  }
  annotated_data_param {
    batch_sampler {
    }
    label_map_file: "data/GTSDB/labelmap_voc.prototxt"
  }
}
layer {
  name: "conv1_1"
  type: "Convolution"
  bottom: "data"
  top: "conv1_1"
  param {
    lr_mult: 1
    decay_mult: 1
  }
  param {
    lr_mult: 2
    decay_mult: 0
  }
  convolution_param {
    num_output: 64
    pad: 1
    kernel_size: 3
    weight_filler {
      type: "xavier"
    }
    bias_filler {
      type: "constant"
      value: 0
    }
  }
}
layer {
  name: "relu1_1"
  type: "ReLU"
  bottom: "conv1_1"
  top: "conv1_1"
}
layer {
  name: "conv1_2"
  type: "Convolution"
  bottom: "conv1_1"
  top: "conv1_2"
  param {
    lr_mult: 1
    decay_mult: 1
  }
  param {
    lr_mult: 2
    decay_mult: 0
  }
  convolution_param {
    num_output: 64
    pad: 1
    kernel_size: 3
    weight_filler {
      type: "xavier"
    }
    bias_filler {
      type: "constant"
      value: 0
    }
  }
}
layer {
  name: "relu1_2"
  type: "ReLU"
  bottom: "conv1_2"
  top: "conv1_2"
}
layer {
  name: "pool1"
  type: "Pooling"
  bottom: "conv1_2"
  top: "pool1"
  pooling_param {
    pool: MAX
    kernel_size: 2
    stride: 2
  }
}
layer {
  name: "conv2_1"
  type: "Convolution"
  bottom: "pool1"
  top: "conv2_1"
  param {
    lr_mult: 1
    decay_mult: 1
  }
  param {
    lr_mult: 2
    decay_mult: 0
  }
  convolution_param {
    num_output: 128
    pad: 1
    kernel_size: 3
    weight_filler {
      type: "xavier"
    }
    bias_filler {
      type: "constant"
      value: 0
    }
  }
}
layer {
  name: "relu2_1"
  type: "ReLU"
  bottom: "conv2_1"
  top: "conv2_1"
}
layer {
  name: "conv2_2"
  type: "Convolution"
  bottom: "conv2_1"
  top: "conv2_2"
  param {
    lr_mult: 1
    decay_mult: 1
  }
  param {
    lr_mult: 2
    decay_mult: 0
  }
  convolution_param {
    num_output: 128
    pad: 1
    kernel_size: 3
    weight_filler {
      type: "xavier"
    }
    bias_filler {
      type: "constant"
      value: 0
    }
  }
}
layer {
  name: "relu2_2"
  type: "ReLU"
  bottom: "conv2_2"
  top: "conv2_2"
}
layer {
  name: "pool2"
  type: "Pooling"
  bottom: "conv2_2"
  top: "pool2"
  pooling_param {
    pool: MAX
    kernel_size: 2
    stride: 2
  }
}
layer {
  name: "conv3_1"
  type: "Convolution"
  bottom: "pool2"
  top: "conv3_1"
  param {
    lr_mult: 1
    decay_mult: 1
  }
  param {
    lr_mult: 2
    decay_mult: 0
  }
  convolution_param {
    num_output: 256
    pad: 1
    kernel_size: 3
    weight_filler {
      type: "xavier"
    }
    bias_filler {
      type: "constant"
      value: 0
    }
  }
}
layer {
  name: "relu3_1"
  type: "ReLU"
  bottom: "conv3_1"
  top: "conv3_1"
}
layer {
  name: "conv3_2"
  type: "Convolution"
  bottom: "conv3_1"
  top: "conv3_2"
  param {
    lr_mult: 1
    decay_mult: 1
  }
  param {
    lr_mult: 2
    decay_mult: 0
  }
  convolution_param {
    num_output: 256
    pad: 1
    kernel_size: 3
    weight_filler {
      type: "xavier"
    }
    bias_filler {
      type: "constant"
      value: 0
    }
  }
}
layer {
  name: "relu3_2"
  type: "ReLU"
  bottom: "conv3_2"
  top: "conv3_2"
}
layer {
  name: "conv3_3"
  type: "Convolution"
  bottom: "conv3_2"
  top: "conv3_3"
  param {
    lr_mult: 1
    decay_mult: 1
  }
  param {
    lr_mult: 2
    decay_mult: 0
  }
  convolution_param {
    num_output: 256
    pad: 1
    kernel_size: 3
    weight_filler {
      type: "xavier"
    }
    bias_filler {
      type: "constant"
      value: 0
    }
  }
}
layer {
  name: "relu3_3"
  type: "ReLU"
  bottom: "conv3_3"
  top: "conv3_3"
}
layer {
  name: "pool3"
  type: "Pooling"
  bottom: "conv3_3"
  top: "pool3"
  pooling_param {
    pool: MAX
    kernel_size: 2
    stride: 2
  }
}
layer {
  name: "conv4_1"
  type: "Convolution"
  bottom: "pool3"
  top: "conv4_1"
  param {
    lr_mult: 1
    decay_mult: 1
  }
  param {
    lr_mult: 2
    decay_mult: 0
  }
  convolution_param {
    num_output: 512
    pad: 1
    kernel_size: 3
    weight_filler {
      type: "xavier"
    }
    bias_filler {
      type: "constant"
      value: 0
    }
  }
}
layer {
  name: "relu4_1"
  type: "ReLU"
  bottom: "conv4_1"
  top: "conv4_1"
}
layer {
  name: "conv4_2"
  type: "Convolution"
  bottom: "conv4_1"
  top: "conv4_2"
  param {
    lr_mult: 1
    decay_mult: 1
  }
  param {
    lr_mult: 2
    decay_mult: 0
  }
  convolution_param {
    num_output: 512
    pad: 1
    kernel_size: 3
    weight_filler {
      type: "xavier"
    }
    bias_filler {
      type: "constant"
      value: 0
    }
  }
}
layer {
  name: "relu4_2"
  type: "ReLU"
  bottom: "conv4_2"
  top: "conv4_2"
}
layer {
  name: "conv4_3"
  type: "Convolution"
  bottom: "conv4_2"
  top: "conv4_3"
  param {
    lr_mult: 1
    decay_mult: 1
  }
  param {
    lr_mult: 2
    decay_mult: 0
  }
  convolution_param {
    num_output: 512
    pad: 1
    kernel_size: 3
    weight_filler {
      type: "xavier"
    }
    bias_filler {
      type: "constant"
      value: 0
    }
  }
}
layer {
  name: "relu4_3"
  type: "ReLU"
  bottom: "conv4_3"
  top: "conv4_3"
}
layer {
  name: "pool4"
  type: "Pooling"
  bottom: "conv4_3"
  top: "pool4"
  pooling_param {
    pool: MAX
    kernel_size: 2
    stride: 2
  }
}
layer {
  name: "conv5_1"
  type: "Convolution"
  bottom: "pool4"
  top: "conv5_1"
  param {
    lr_mult: 1
    decay_mult: 1
  }
  param {
    lr_mult: 2
    decay_mult: 0
  }
  convolution_param {
    num_output: 512
    pad: 1
    kernel_size: 3
    weight_filler {
      type: "xavier"
    }
    bias_filler {
      type: "constant"
      value: 0
    }
    dilation: 1
  }
}
layer {
  name: "relu5_1"
  type: "ReLU"
  bottom: "conv5_1"
  top: "conv5_1"
}
layer {
  name: "conv5_2"
  type: "Convolution"
  bottom: "conv5_1"
  top: "conv5_2"
  param {
    lr_mult: 1
    decay_mult: 1
  }
  param {
    lr_mult: 2
    decay_mult: 0
  }
  convolution_param {
    num_output: 512
    pad: 1
    kernel_size: 3
    weight_filler {
      type: "xavier"
    }
    bias_filler {
      type: "constant"
      value: 0
    }
    dilation: 1
  }
}
layer {
  name: "relu5_2"
  type: "ReLU"
  bottom: "conv5_2"
  top: "conv5_2"
}
layer {
  name: "conv5_3"
  type: "Convolution"
  bottom: "conv5_2"
  top: "conv5_3"
  param {
    lr_mult: 1
    decay_mult: 1
  }
  param {
    lr_mult: 2
    decay_mult: 0
  }
  convolution_param {
    num_output: 512
    pad: 1
    kernel_size: 3
    weight_filler {
      type: "xavier"
    }
    bias_filler {
      type: "constant"
      value: 0
    }
    dilation: 1
  }
}
layer {
  name: "relu5_3"
  type: "ReLU"
  bottom: "conv5_3"
  top: "conv5_3"
}
layer {
  name: "pool5"
  type: "Pooling"
  bottom: "conv5_3"
  top: "pool5"
  pooling_param {
    pool: MAX
    kernel_size: 3
    stride: 1
    pad: 1
  }
}
layer {
  name: "fc6"
  type: "Convolution"
  bottom: "pool5"
  top: "fc6"
  param {
    lr_mult: 1
    decay_mult: 1
  }
  param {
    lr_mult: 2
    decay_mult: 0
  }
  convolution_param {
    num_output: 1024
    pad: 6
    kernel_size: 3
    weight_filler {
      type: "xavier"
    }
    bias_filler {
      type: "constant"
      value: 0
    }
    dilation: 6
  }
}
layer {
  name: "relu6"
  type: "ReLU"
  bottom: "fc6"
  top: "fc6"
}
layer {
  name: "fc7"
  type: "Convolution"
  bottom: "fc6"
  top: "fc7"
  param {
    lr_mult: 1
    decay_mult: 1
  }
  param {
    lr_mult: 2
    decay_mult: 0
  }
  convolution_param {
    num_output: 1024
    kernel_size: 1
    weight_filler {
      type: "xavier"
    }
    bias_filler {
      type: "constant"
      value: 0
    }
  }
}
layer {
  name: "relu7"
  type: "ReLU"
  bottom: "fc7"
  top: "fc7"
}
layer {
  name: "conv6_1"
  type: "Convolution"
  bottom: "fc7"
  top: "conv6_1"
  param {
    lr_mult: 1
    decay_mult: 1
  }
  param {
    lr_mult: 2
    decay_mult: 0
  }
  convolution_param {
    num_output: 256
    pad: 0
    kernel_size: 1
    stride: 1
    weight_filler {
      type: "xavier"
    }
    bias_filler {
      type: "constant"
      value: 0
    }
  }
}
layer {
  name: "conv6_1_relu"
  type: "ReLU"
  bottom: "conv6_1"
  top: "conv6_1"
}
layer {
  name: "conv6_2"
  type: "Convolution"
  bottom: "conv6_1"
  top: "conv6_2"
  param {
    lr_mult: 1
    decay_mult: 1
  }
  param {
    lr_mult: 2
    decay_mult: 0
  }
  convolution_param {
    num_output: 512
    pad: 1
    kernel_size: 3
    stride: 2
    weight_filler {
      type: "xavier"
    }
    bias_filler {
      type: "constant"
      value: 0
    }
  }
}
layer {
  name: "conv6_2_relu"
  type: "ReLU"
  bottom: "conv6_2"
  top: "conv6_2"
}
layer {
  name: "conv7_1"
  type: "Convolution"
  bottom: "conv6_2"
  top: "conv7_1"
  param {
    lr_mult: 1
    decay_mult: 1
  }
  param {
    lr_mult: 2
    decay_mult: 0
  }
  convolution_param {
    num_output: 128
    pad: 0
    kernel_size: 1
    stride: 1
    weight_filler {
      type: "xavier"
    }
    bias_filler {
      type: "constant"
      value: 0
    }
  }
}
layer {
  name: "conv7_1_relu"
  type: "ReLU"
  bottom: "conv7_1"
  top: "conv7_1"
}
layer {
  name: "conv7_2"
  type: "Convolution"
  bottom: "conv7_1"
  top: "conv7_2"
  param {
    lr_mult: 1
    decay_mult: 1
  }
  param {
    lr_mult: 2
    decay_mult: 0
  }
  convolution_param {
    num_output: 256
    pad: 1
    kernel_size: 3
    stride: 2
    weight_filler {
      type: "xavier"
    }
    bias_filler {
      type: "constant"
      value: 0
    }
  }
}
layer {
  name: "conv7_2_relu"
  type: "ReLU"
  bottom: "conv7_2"
  top: "conv7_2"
}
layer {
  name: "conv8_1"
  type: "Convolution"
  bottom: "conv7_2"
  top: "conv8_1"
  param {
    lr_mult: 1
    decay_mult: 1
  }
  param {
    lr_mult: 2
    decay_mult: 0
  }
  convolution_param {
    num_output: 128
    pad: 0
    kernel_size: 1
    stride: 1
    weight_filler {
      type: "xavier"
    }
    bias_filler {
      type: "constant"
      value: 0
    }
  }
}
layer {
  name: "conv8_1_relu"
  type: "ReLU"
  bottom: "conv8_1"
  top: "conv8_1"
}
layer {
  name: "conv8_2"
  type: "Convolution"
  bottom: "conv8_1"
  top: "conv8_2"
  param {
    lr_mult: 1
    decay_mult: 1
  }
  param {
    lr_mult: 2
    decay_mult: 0
  }
  convolution_param {
    num_output: 256
    pad: 0
    kernel_size: 3
    stride: 1
    weight_filler {
      type: "xavier"
    }
    bias_filler {
      type: "constant"
      value: 0
    }
  }
}
layer {
  name: "conv8_2_relu"
  type: "ReLU"
  bottom: "conv8_2"
  top: "conv8_2"
}
layer {
  name: "conv9_1"
  type: "Convolution"
  bottom: "conv8_2"
  top: "conv9_1"
  param {
    lr_mult: 1
    decay_mult: 1
  }
  param {
    lr_mult: 2
    decay_mult: 0
  }
  convolution_param {
    num_output: 128
    pad: 0
    kernel_size: 1
    stride: 1
    weight_filler {
      type: "xavier"
    }
    bias_filler {
      type: "constant"
      value: 0
    }
  }
}
layer {
  name: "conv9_1_relu"
  type: "ReLU"
  bottom: "conv9_1"
  top: "conv9_1"
}
layer {
  name: "conv9_2"
  type: "Convolution"
  bottom: "conv9_1"
  top: "conv9_2"
  param {
    lr_mult: 1
    decay_mult: 1
  }
  param {
    lr_mult: 2
    decay_mult: 0
  }
  convolution_param {
    num_output: 256
    pad: 0
    kernel_size: 3
    stride: 1
    weight_filler {
      type: "xavier"
    }
    bias_filler {
      type: "constant"
      value: 0
    }
  }
}
layer {
  name: "conv9_2_relu"
  type: "ReLU"
  bottom: "conv9_2"
  top: "conv9_2"
}
layer {
  name: "conv4_3_norm"
  type: "Normalize"
  bottom: "conv4_3"
  top: "conv4_3_norm"
  norm_param {
    across_spatial: false
    scale_filler {
      type: "constant"
      value: 20
    }
    channel_shared: false
  }
}
layer {
  name: "conv4_3_norm_mbox_loc"
  type: "Convolution"
  bottom: "conv4_3_norm"
  top: "conv4_3_norm_mbox_loc"
  param {
    lr_mult: 1
    decay_mult: 1
  }
  param {
    lr_mult: 2
    decay_mult: 0
  }
  convolution_param {
    num_output: 12
    pad: 1
    kernel_size: 3
    stride: 1
    weight_filler {
      type: "xavier"
    }
    bias_filler {
      type: "constant"
      value: 0
    }
  }
}
layer {
  name: "conv4_3_norm_mbox_loc_perm"
  type: "Permute"
  bottom: "conv4_3_norm_mbox_loc"
  top: "conv4_3_norm_mbox_loc_perm"
  permute_param {
    order: 0
    order: 2
    order: 3
    order: 1
  }
}
layer {
  name: "conv4_3_norm_mbox_loc_flat"
  type: "Flatten"
  bottom: "conv4_3_norm_mbox_loc_perm"
  top: "conv4_3_norm_mbox_loc_flat"
  flatten_param {
    axis: 1
  }
}
layer {
  name: "conv4_3_norm_mbox_conf"
  type: "Convolution"
  bottom: "conv4_3_norm"
  top: "conv4_3_norm_mbox_conf"
  param {
    lr_mult: 1
    decay_mult: 1
  }
  param {
    lr_mult: 2
    decay_mult: 0
  }
  convolution_param {
    num_output: 6
    pad: 1
    kernel_size: 3
    stride: 1
    weight_filler {
      type: "xavier"
    }
    bias_filler {
      type: "constant"
      value: 0
    }
  }
}
layer {
  name: "conv4_3_norm_mbox_conf_perm"
  type: "Permute"
  bottom: "conv4_3_norm_mbox_conf"
  top: "conv4_3_norm_mbox_conf_perm"
  permute_param {
    order: 0
    order: 2
    order: 3
    order: 1
  }
}
layer {
  name: "conv4_3_norm_mbox_conf_flat"
  type: "Flatten"
  bottom: "conv4_3_norm_mbox_conf_perm"
  top: "conv4_3_norm_mbox_conf_flat"
  flatten_param {
    axis: 1
  }
}
layer {
  name: "conv4_3_norm_mbox_priorbox"
  type: "PriorBox"
  bottom: "conv4_3_norm"
  bottom: "data"
  top: "conv4_3_norm_mbox_priorbox"
  prior_box_param {
    min_size: 30
    max_size: 60
    aspect_ratio: 2
    flip: false
    clip: false
    variance: 0.1
    variance: 0.1
    variance: 0.2
    variance: 0.2
    step: 8
    offset: 0.5
  }
}
layer {
  name: "fc7_mbox_loc"
  type: "Convolution"
  bottom: "fc7"
  top: "fc7_mbox_loc"
  param {
    lr_mult: 1
    decay_mult: 1
  }
  param {
    lr_mult: 2
    decay_mult: 0
  }
  convolution_param {
    num_output: 16
    pad: 1
    kernel_size: 3
    stride: 1
    weight_filler {
      type: "xavier"
    }
    bias_filler {
      type: "constant"
      value: 0
    }
  }
}
layer {
  name: "fc7_mbox_loc_perm"
  type: "Permute"
  bottom: "fc7_mbox_loc"
  top: "fc7_mbox_loc_perm"
  permute_param {
    order: 0
    order: 2
    order: 3
    order: 1
  }
}
layer {
  name: "fc7_mbox_loc_flat"
  type: "Flatten"
  bottom: "fc7_mbox_loc_perm"
  top: "fc7_mbox_loc_flat"
  flatten_param {
    axis: 1
  }
}
layer {
  name: "fc7_mbox_conf"
  type: "Convolution"
  bottom: "fc7"
  top: "fc7_mbox_conf"
  param {
    lr_mult: 1
    decay_mult: 1
  }
  param {
    lr_mult: 2
    decay_mult: 0
  }
  convolution_param {
    num_output: 8
    pad: 1
    kernel_size: 3
    stride: 1
    weight_filler {
      type: "xavier"
    }
    bias_filler {
      type: "constant"
      value: 0
    }
  }
}
layer {
  name: "fc7_mbox_conf_perm"
  type: "Permute"
  bottom: "fc7_mbox_conf"
  top: "fc7_mbox_conf_perm"
  permute_param {
    order: 0
    order: 2
    order: 3
    order: 1
  }
}
layer {
  name: "fc7_mbox_conf_flat"
  type: "Flatten"
  bottom: "fc7_mbox_conf_perm"
  top: "fc7_mbox_conf_flat"
  flatten_param {
    axis: 1
  }
}
layer {
  name: "fc7_mbox_priorbox"
  type: "PriorBox"
  bottom: "fc7"
  bottom: "data"
  top: "fc7_mbox_priorbox"
  prior_box_param {
    min_size: 60
    max_size: 111
    aspect_ratio: 2
    aspect_ratio: 3
    flip: false
    clip: false
    variance: 0.1
    variance: 0.1
    variance: 0.2
    variance: 0.2
    step: 16
    offset: 0.5
  }
}
layer {
  name: "conv6_2_mbox_loc"
  type: "Convolution"
  bottom: "conv6_2"
  top: "conv6_2_mbox_loc"
  param {
    lr_mult: 1
    decay_mult: 1
  }
  param {
    lr_mult: 2
    decay_mult: 0
  }
  convolution_param {
    num_output: 16
    pad: 1
    kernel_size: 3
    stride: 1
    weight_filler {
      type: "xavier"
    }
    bias_filler {
      type: "constant"
      value: 0
    }
  }
}
layer {
  name: "conv6_2_mbox_loc_perm"
  type: "Permute"
  bottom: "conv6_2_mbox_loc"
  top: "conv6_2_mbox_loc_perm"
  permute_param {
    order: 0
    order: 2
    order: 3
    order: 1
  }
}
layer {
  name: "conv6_2_mbox_loc_flat"
  type: "Flatten"
  bottom: "conv6_2_mbox_loc_perm"
  top: "conv6_2_mbox_loc_flat"
  flatten_param {
    axis: 1
  }
}
layer {
  name: "conv6_2_mbox_conf"
  type: "Convolution"
  bottom: "conv6_2"
  top: "conv6_2_mbox_conf"
  param {
    lr_mult: 1
    decay_mult: 1
  }
  param {
    lr_mult: 2
    decay_mult: 0
  }
  convolution_param {
    num_output: 8
    pad: 1
    kernel_size: 3
    stride: 1
    weight_filler {
      type: "xavier"
    }
    bias_filler {
      type: "constant"
      value: 0
    }
  }
}
layer {
  name: "conv6_2_mbox_conf_perm"
  type: "Permute"
  bottom: "conv6_2_mbox_conf"
  top: "conv6_2_mbox_conf_perm"
  permute_param {
    order: 0
    order: 2
    order: 3
    order: 1
  }
}
layer {
  name: "conv6_2_mbox_conf_flat"
  type: "Flatten"
  bottom: "conv6_2_mbox_conf_perm"
  top: "conv6_2_mbox_conf_flat"
  flatten_param {
    axis: 1
  }
}
layer {
  name: "conv6_2_mbox_priorbox"
  type: "PriorBox"
  bottom: "conv6_2"
  bottom: "data"
  top: "conv6_2_mbox_priorbox"
  prior_box_param {
    min_size: 111
    max_size: 162
    aspect_ratio: 2
    aspect_ratio: 3
    flip: false
    clip: false
    variance: 0.1
    variance: 0.1
    variance: 0.2
    variance: 0.2
    step: 32
    offset: 0.5
  }
}
layer {
  name: "conv7_2_mbox_loc"
  type: "Convolution"
  bottom: "conv7_2"
  top: "conv7_2_mbox_loc"
  param {
    lr_mult: 1
    decay_mult: 1
  }
  param {
    lr_mult: 2
    decay_mult: 0
  }
  convolution_param {
    num_output: 16
    pad: 1
    kernel_size: 3
    stride: 1
    weight_filler {
      type: "xavier"
    }
    bias_filler {
      type: "constant"
      value: 0
    }
  }
}
layer {
  name: "conv7_2_mbox_loc_perm"
  type: "Permute"
  bottom: "conv7_2_mbox_loc"
  top: "conv7_2_mbox_loc_perm"
  permute_param {
    order: 0
    order: 2
    order: 3
    order: 1
  }
}
layer {
  name: "conv7_2_mbox_loc_flat"
  type: "Flatten"
  bottom: "conv7_2_mbox_loc_perm"
  top: "conv7_2_mbox_loc_flat"
  flatten_param {
    axis: 1
  }
}
layer {
  name: "conv7_2_mbox_conf"
  type: "Convolution"
  bottom: "conv7_2"
  top: "conv7_2_mbox_conf"
  param {
    lr_mult: 1
    decay_mult: 1
  }
  param {
    lr_mult: 2
    decay_mult: 0
  }
  convolution_param {
    num_output: 8
    pad: 1
    kernel_size: 3
    stride: 1
    weight_filler {
      type: "xavier"
    }
    bias_filler {
      type: "constant"
      value: 0
    }
  }
}
layer {
  name: "conv7_2_mbox_conf_perm"
  type: "Permute"
  bottom: "conv7_2_mbox_conf"
  top: "conv7_2_mbox_conf_perm"
  permute_param {
    order: 0
    order: 2
    order: 3
    order: 1
  }
}
layer {
  name: "conv7_2_mbox_conf_flat"
  type: "Flatten"
  bottom: "conv7_2_mbox_conf_perm"
  top: "conv7_2_mbox_conf_flat"
  flatten_param {
    axis: 1
  }
}
layer {
  name: "conv7_2_mbox_priorbox"
  type: "PriorBox"
  bottom: "conv7_2"
  bottom: "data"
  top: "conv7_2_mbox_priorbox"
  prior_box_param {
    min_size: 162
    max_size: 213
    aspect_ratio: 2
    aspect_ratio: 3
    flip: false
    clip: false
    variance: 0.1
    variance: 0.1
    variance: 0.2
    variance: 0.2
    step: 64
    offset: 0.5
  }
}
layer {
  name: "conv8_2_mbox_loc"
  type: "Convolution"
  bottom: "conv8_2"
  top: "conv8_2_mbox_loc"
  param {
    lr_mult: 1
    decay_mult: 1
  }
  param {
    lr_mult: 2
    decay_mult: 0
  }
  convolution_param {
    num_output: 12
    pad: 1
    kernel_size: 3
    stride: 1
    weight_filler {
      type: "xavier"
    }
    bias_filler {
      type: "constant"
      value: 0
    }
  }
}
layer {
  name: "conv8_2_mbox_loc_perm"
  type: "Permute"
  bottom: "conv8_2_mbox_loc"
  top: "conv8_2_mbox_loc_perm"
  permute_param {
    order: 0
    order: 2
    order: 3
    order: 1
  }
}
layer {
  name: "conv8_2_mbox_loc_flat"
  type: "Flatten"
  bottom: "conv8_2_mbox_loc_perm"
  top: "conv8_2_mbox_loc_flat"
  flatten_param {
    axis: 1
  }
}
layer {
  name: "conv8_2_mbox_conf"
  type: "Convolution"
  bottom: "conv8_2"
  top: "conv8_2_mbox_conf"
  param {
    lr_mult: 1
    decay_mult: 1
  }
  param {
    lr_mult: 2
    decay_mult: 0
  }
  convolution_param {
    num_output: 6
    pad: 1
    kernel_size: 3
    stride: 1
    weight_filler {
      type: "xavier"
    }
    bias_filler {
      type: "constant"
      value: 0
    }
  }
}
layer {
  name: "conv8_2_mbox_conf_perm"
  type: "Permute"
  bottom: "conv8_2_mbox_conf"
  top: "conv8_2_mbox_conf_perm"
  permute_param {
    order: 0
    order: 2
    order: 3
    order: 1
  }
}
layer {
  name: "conv8_2_mbox_conf_flat"
  type: "Flatten"
  bottom: "conv8_2_mbox_conf_perm"
  top: "conv8_2_mbox_conf_flat"
  flatten_param {
    axis: 1
  }
}
layer {
  name: "conv8_2_mbox_priorbox"
  type: "PriorBox"
  bottom: "conv8_2"
  bottom: "data"
  top: "conv8_2_mbox_priorbox"
  prior_box_param {
    min_size: 213
    max_size: 264
    aspect_ratio: 2
    flip: false
    clip: false
    variance: 0.1
    variance: 0.1
    variance: 0.2
    variance: 0.2
    step: 100
    offset: 0.5
  }
}
layer {
  name: "conv9_2_mbox_loc"
  type: "Convolution"
  bottom: "conv9_2"
  top: "conv9_2_mbox_loc"
  param {
    lr_mult: 1
    decay_mult: 1
  }
  param {
    lr_mult: 2
    decay_mult: 0
  }
  convolution_param {
    num_output: 12
    pad: 1
    kernel_size: 3
    stride: 1
    weight_filler {
      type: "xavier"
    }
    bias_filler {
      type: "constant"
      value: 0
    }
  }
}
layer {
  name: "conv9_2_mbox_loc_perm"
  type: "Permute"
  bottom: "conv9_2_mbox_loc"
  top: "conv9_2_mbox_loc_perm"
  permute_param {
    order: 0
    order: 2
    order: 3
    order: 1
  }
}
layer {
  name: "conv9_2_mbox_loc_flat"
  type: "Flatten"
  bottom: "conv9_2_mbox_loc_perm"
  top: "conv9_2_mbox_loc_flat"
  flatten_param {
    axis: 1
  }
}
layer {
  name: "conv9_2_mbox_conf"
  type: "Convolution"
  bottom: "conv9_2"
  top: "conv9_2_mbox_conf"
  param {
    lr_mult: 1
    decay_mult: 1
  }
  param {
    lr_mult: 2
    decay_mult: 0
  }
  convolution_param {
    num_output: 6
    pad: 1
    kernel_size: 3
    stride: 1
    weight_filler {
      type: "xavier"
    }
    bias_filler {
      type: "constant"
      value: 0
    }
  }
}
layer {
  name: "conv9_2_mbox_conf_perm"
  type: "Permute"
  bottom: "conv9_2_mbox_conf"
  top: "conv9_2_mbox_conf_perm"
  permute_param {
    order: 0
    order: 2
    order: 3
    order: 1
  }
}
layer {
  name: "conv9_2_mbox_conf_flat"
  type: "Flatten"
  bottom: "conv9_2_mbox_conf_perm"
  top: "conv9_2_mbox_conf_flat"
  flatten_param {
    axis: 1
  }
}
layer {
  name: "conv9_2_mbox_priorbox"
  type: "PriorBox"
  bottom: "conv9_2"
  bottom: "data"
  top: "conv9_2_mbox_priorbox"
  prior_box_param {
    min_size: 264
    max_size: 315
    aspect_ratio: 2
    flip: false
    clip: false
    variance: 0.1
    variance: 0.1
    variance: 0.2
    variance: 0.2
    step: 300
    offset: 0.5
  }
}
layer {
  name: "mbox_loc"
  type: "Concat"
  bottom: "conv4_3_norm_mbox_loc_flat"
  bottom: "fc7_mbox_loc_flat"
  bottom: "conv6_2_mbox_loc_flat"
  bottom: "conv7_2_mbox_loc_flat"
  bottom: "conv8_2_mbox_loc_flat"
  bottom: "conv9_2_mbox_loc_flat"
  top: "mbox_loc"
  concat_param {
    axis: 1
  }
}
layer {
  name: "mbox_conf"
  type: "Concat"
  bottom: "conv4_3_norm_mbox_conf_flat"
  bottom: "fc7_mbox_conf_flat"
  bottom: "conv6_2_mbox_conf_flat"
  bottom: "conv7_2_mbox_conf_flat"
  bottom: "conv8_2_mbox_conf_flat"
  bottom: "conv9_2_mbox_conf_flat"
  top: "mbox_conf"
  concat_param {
    axis: 1
  }
}
layer {
  name: "mbox_priorbox"
  type: "Concat"
  bottom: "conv4_3_norm_mbox_priorbox"
  bottom: "fc7_mbox_priorbox"
  bottom: "conv6_2_mbox_priorbox"
  bottom: "conv7_2_mbox_priorbox"
  bottom: "conv8_2_mbox_priorbox"
  bottom: "conv9_2_mbox_priorbox"
  top: "mbox_priorbox"
  concat_param {
    axis: 2
  }
}
layer {
  name: "mbox_conf_reshape"
  type: "Reshape"
  bottom: "mbox_conf"
  top: "mbox_conf_reshape"
  reshape_param {
    shape {
      dim: 0
      dim: -1
      dim: 2
    }
  }
}
layer {
  name: "mbox_conf_softmax"
  type: "Softmax"
  bottom: "mbox_conf_reshape"
  top: "mbox_conf_softmax"
  softmax_param {
    axis: 2
  }
}
layer {
  name: "mbox_conf_flatten"
  type: "Flatten"
  bottom: "mbox_conf_softmax"
  top: "mbox_conf_flatten"
  flatten_param {
    axis: 1
  }
}
layer {
  name: "detection_out"
  type: "DetectionOutput"
  bottom: "mbox_loc"
  bottom: "mbox_conf_flatten"
  bottom: "mbox_priorbox"
  top: "detection_out"
  include {
    phase: TEST
  }
  detection_output_param {
    num_classes: 2
    share_location: true
    background_label_id: 0
    nms_param {
      nms_threshold: 0.45
      top_k: 400
    }
    save_output_param {
      output_directory: "results/GTSDB/SSD_300x300/Main"
      output_name_prefix: "comp4_det_test_"
      output_format: "VOC"
      label_map_file: "data/GTSDB/labelmap_voc.prototxt"
      name_size_file: "data/GTSDB/test_name_size.txt"
      num_test_image: 235
    }
    code_type: CENTER_SIZE
    keep_top_k: 200
    confidence_threshold: 0.01
  }
}
layer {
  name: "detection_eval"
  type: "DetectionEvaluate"
  bottom: "detection_out"
  bottom: "label"
  top: "detection_eval"
  include {
    phase: TEST
  }
  detection_evaluate_param {
    num_classes: 2
    background_label_id: 0
    overlap_threshold: 0.5
    evaluate_difficult_gt: false
    name_size_file: "data/GTSDB/test_name_size.txt"
  }
}
I1206 23:38:54.668822 14353 layer_factory.hpp:77] Creating layer data
I1206 23:38:54.668891 14353 net.cpp:100] Creating Layer data
I1206 23:38:54.668920 14353 net.cpp:408] data -> data
I1206 23:38:54.668928 14353 net.cpp:408] data -> label
I1206 23:38:54.669576 14361 db_lmdb.cpp:35] Opened lmdb examples/GTSDB/GTSDB_test_lmdb
I1206 23:38:54.673928 14353 annotated_data_layer.cpp:62] output data size: 5,3,300,300
I1206 23:38:54.680757 14353 net.cpp:150] Setting up data
I1206 23:38:54.680793 14353 net.cpp:157] Top shape: 5 3 300 300 (1350000)
I1206 23:38:54.680797 14353 net.cpp:157] Top shape: 1 1 1 8 (8)
I1206 23:38:54.680800 14353 net.cpp:165] Memory required for data: 5400032
I1206 23:38:54.680807 14353 layer_factory.hpp:77] Creating layer data_data_0_split
I1206 23:38:54.680821 14353 net.cpp:100] Creating Layer data_data_0_split
I1206 23:38:54.680825 14353 net.cpp:434] data_data_0_split <- data
I1206 23:38:54.680831 14353 net.cpp:408] data_data_0_split -> data_data_0_split_0
I1206 23:38:54.680850 14353 net.cpp:408] data_data_0_split -> data_data_0_split_1
I1206 23:38:54.680855 14353 net.cpp:408] data_data_0_split -> data_data_0_split_2
I1206 23:38:54.680860 14353 net.cpp:408] data_data_0_split -> data_data_0_split_3
I1206 23:38:54.680863 14353 net.cpp:408] data_data_0_split -> data_data_0_split_4
I1206 23:38:54.680867 14353 net.cpp:408] data_data_0_split -> data_data_0_split_5
I1206 23:38:54.680871 14353 net.cpp:408] data_data_0_split -> data_data_0_split_6
I1206 23:38:54.681011 14353 net.cpp:150] Setting up data_data_0_split
I1206 23:38:54.681017 14353 net.cpp:157] Top shape: 5 3 300 300 (1350000)
I1206 23:38:54.681020 14353 net.cpp:157] Top shape: 5 3 300 300 (1350000)
I1206 23:38:54.681025 14353 net.cpp:157] Top shape: 5 3 300 300 (1350000)
I1206 23:38:54.681027 14353 net.cpp:157] Top shape: 5 3 300 300 (1350000)
I1206 23:38:54.681030 14353 net.cpp:157] Top shape: 5 3 300 300 (1350000)
I1206 23:38:54.681033 14353 net.cpp:157] Top shape: 5 3 300 300 (1350000)
I1206 23:38:54.681036 14353 net.cpp:157] Top shape: 5 3 300 300 (1350000)
I1206 23:38:54.681040 14353 net.cpp:165] Memory required for data: 43200032
I1206 23:38:54.681042 14353 layer_factory.hpp:77] Creating layer conv1_1
I1206 23:38:54.681077 14353 net.cpp:100] Creating Layer conv1_1
I1206 23:38:54.681080 14353 net.cpp:434] conv1_1 <- data_data_0_split_0
I1206 23:38:54.681087 14353 net.cpp:408] conv1_1 -> conv1_1
I1206 23:38:54.682844 14353 net.cpp:150] Setting up conv1_1
I1206 23:38:54.682878 14353 net.cpp:157] Top shape: 5 64 300 300 (28800000)
I1206 23:38:54.682883 14353 net.cpp:165] Memory required for data: 158400032
I1206 23:38:54.682900 14353 layer_factory.hpp:77] Creating layer relu1_1
I1206 23:38:54.682914 14353 net.cpp:100] Creating Layer relu1_1
I1206 23:38:54.682920 14353 net.cpp:434] relu1_1 <- conv1_1
I1206 23:38:54.682927 14353 net.cpp:395] relu1_1 -> conv1_1 (in-place)
I1206 23:38:54.683154 14353 net.cpp:150] Setting up relu1_1
I1206 23:38:54.683166 14353 net.cpp:157] Top shape: 5 64 300 300 (28800000)
I1206 23:38:54.683171 14353 net.cpp:165] Memory required for data: 273600032
I1206 23:38:54.683173 14353 layer_factory.hpp:77] Creating layer conv1_2
I1206 23:38:54.683187 14353 net.cpp:100] Creating Layer conv1_2
I1206 23:38:54.683192 14353 net.cpp:434] conv1_2 <- conv1_1
I1206 23:38:54.683199 14353 net.cpp:408] conv1_2 -> conv1_2
I1206 23:38:54.684861 14353 net.cpp:150] Setting up conv1_2
I1206 23:38:54.684885 14353 net.cpp:157] Top shape: 5 64 300 300 (28800000)
I1206 23:38:54.684888 14353 net.cpp:165] Memory required for data: 388800032
I1206 23:38:54.684898 14353 layer_factory.hpp:77] Creating layer relu1_2
I1206 23:38:54.684907 14353 net.cpp:100] Creating Layer relu1_2
I1206 23:38:54.684911 14353 net.cpp:434] relu1_2 <- conv1_2
I1206 23:38:54.684916 14353 net.cpp:395] relu1_2 -> conv1_2 (in-place)
I1206 23:38:54.685168 14353 net.cpp:150] Setting up relu1_2
I1206 23:38:54.685176 14353 net.cpp:157] Top shape: 5 64 300 300 (28800000)
I1206 23:38:54.685179 14353 net.cpp:165] Memory required for data: 504000032
I1206 23:38:54.685184 14353 layer_factory.hpp:77] Creating layer pool1
I1206 23:38:54.685191 14353 net.cpp:100] Creating Layer pool1
I1206 23:38:54.685194 14353 net.cpp:434] pool1 <- conv1_2
I1206 23:38:54.685199 14353 net.cpp:408] pool1 -> pool1
I1206 23:38:54.685250 14353 net.cpp:150] Setting up pool1
I1206 23:38:54.685256 14353 net.cpp:157] Top shape: 5 64 150 150 (7200000)
I1206 23:38:54.685257 14353 net.cpp:165] Memory required for data: 532800032
I1206 23:38:54.685261 14353 layer_factory.hpp:77] Creating layer conv2_1
I1206 23:38:54.685271 14353 net.cpp:100] Creating Layer conv2_1
I1206 23:38:54.685273 14353 net.cpp:434] conv2_1 <- pool1
I1206 23:38:54.685278 14353 net.cpp:408] conv2_1 -> conv2_1
I1206 23:38:54.687515 14353 net.cpp:150] Setting up conv2_1
I1206 23:38:54.687536 14353 net.cpp:157] Top shape: 5 128 150 150 (14400000)
I1206 23:38:54.687541 14353 net.cpp:165] Memory required for data: 590400032
I1206 23:38:54.687552 14353 layer_factory.hpp:77] Creating layer relu2_1
I1206 23:38:54.687566 14353 net.cpp:100] Creating Layer relu2_1
I1206 23:38:54.687569 14353 net.cpp:434] relu2_1 <- conv2_1
I1206 23:38:54.687574 14353 net.cpp:395] relu2_1 -> conv2_1 (in-place)
I1206 23:38:54.687835 14353 net.cpp:150] Setting up relu2_1
I1206 23:38:54.687844 14353 net.cpp:157] Top shape: 5 128 150 150 (14400000)
I1206 23:38:54.687846 14353 net.cpp:165] Memory required for data: 648000032
I1206 23:38:54.687849 14353 layer_factory.hpp:77] Creating layer conv2_2
I1206 23:38:54.687858 14353 net.cpp:100] Creating Layer conv2_2
I1206 23:38:54.687861 14353 net.cpp:434] conv2_2 <- conv2_1
I1206 23:38:54.687866 14353 net.cpp:408] conv2_2 -> conv2_2
I1206 23:38:54.690677 14353 net.cpp:150] Setting up conv2_2
I1206 23:38:54.690716 14353 net.cpp:157] Top shape: 5 128 150 150 (14400000)
I1206 23:38:54.690718 14353 net.cpp:165] Memory required for data: 705600032
I1206 23:38:54.690728 14353 layer_factory.hpp:77] Creating layer relu2_2
I1206 23:38:54.690740 14353 net.cpp:100] Creating Layer relu2_2
I1206 23:38:54.690747 14353 net.cpp:434] relu2_2 <- conv2_2
I1206 23:38:54.690753 14353 net.cpp:395] relu2_2 -> conv2_2 (in-place)
I1206 23:38:54.690938 14353 net.cpp:150] Setting up relu2_2
I1206 23:38:54.690945 14353 net.cpp:157] Top shape: 5 128 150 150 (14400000)
I1206 23:38:54.690966 14353 net.cpp:165] Memory required for data: 763200032
I1206 23:38:54.690969 14353 layer_factory.hpp:77] Creating layer pool2
I1206 23:38:54.690975 14353 net.cpp:100] Creating Layer pool2
I1206 23:38:54.690979 14353 net.cpp:434] pool2 <- conv2_2
I1206 23:38:54.690982 14353 net.cpp:408] pool2 -> pool2
I1206 23:38:54.691038 14353 net.cpp:150] Setting up pool2
I1206 23:38:54.691043 14353 net.cpp:157] Top shape: 5 128 75 75 (3600000)
I1206 23:38:54.691045 14353 net.cpp:165] Memory required for data: 777600032
I1206 23:38:54.691048 14353 layer_factory.hpp:77] Creating layer conv3_1
I1206 23:38:54.691056 14353 net.cpp:100] Creating Layer conv3_1
I1206 23:38:54.691059 14353 net.cpp:434] conv3_1 <- pool2
I1206 23:38:54.691064 14353 net.cpp:408] conv3_1 -> conv3_1
I1206 23:38:54.694252 14353 net.cpp:150] Setting up conv3_1
I1206 23:38:54.694279 14353 net.cpp:157] Top shape: 5 256 75 75 (7200000)
I1206 23:38:54.694283 14353 net.cpp:165] Memory required for data: 806400032
I1206 23:38:54.694296 14353 layer_factory.hpp:77] Creating layer relu3_1
I1206 23:38:54.694304 14353 net.cpp:100] Creating Layer relu3_1
I1206 23:38:54.694308 14353 net.cpp:434] relu3_1 <- conv3_1
I1206 23:38:54.694313 14353 net.cpp:395] relu3_1 -> conv3_1 (in-place)
I1206 23:38:54.694566 14353 net.cpp:150] Setting up relu3_1
I1206 23:38:54.694576 14353 net.cpp:157] Top shape: 5 256 75 75 (7200000)
I1206 23:38:54.694577 14353 net.cpp:165] Memory required for data: 835200032
I1206 23:38:54.694581 14353 layer_factory.hpp:77] Creating layer conv3_2
I1206 23:38:54.694591 14353 net.cpp:100] Creating Layer conv3_2
I1206 23:38:54.694594 14353 net.cpp:434] conv3_2 <- conv3_1
I1206 23:38:54.694600 14353 net.cpp:408] conv3_2 -> conv3_2
I1206 23:38:54.699786 14353 net.cpp:150] Setting up conv3_2
I1206 23:38:54.699820 14353 net.cpp:157] Top shape: 5 256 75 75 (7200000)
I1206 23:38:54.699827 14353 net.cpp:165] Memory required for data: 864000032
I1206 23:38:54.699839 14353 layer_factory.hpp:77] Creating layer relu3_2
I1206 23:38:54.699852 14353 net.cpp:100] Creating Layer relu3_2
I1206 23:38:54.699862 14353 net.cpp:434] relu3_2 <- conv3_2
I1206 23:38:54.699870 14353 net.cpp:395] relu3_2 -> conv3_2 (in-place)
I1206 23:38:54.700222 14353 net.cpp:150] Setting up relu3_2
I1206 23:38:54.700234 14353 net.cpp:157] Top shape: 5 256 75 75 (7200000)
I1206 23:38:54.700240 14353 net.cpp:165] Memory required for data: 892800032
I1206 23:38:54.700245 14353 layer_factory.hpp:77] Creating layer conv3_3
I1206 23:38:54.700259 14353 net.cpp:100] Creating Layer conv3_3
I1206 23:38:54.700265 14353 net.cpp:434] conv3_3 <- conv3_2
I1206 23:38:54.700273 14353 net.cpp:408] conv3_3 -> conv3_3
I1206 23:38:54.705027 14353 net.cpp:150] Setting up conv3_3
I1206 23:38:54.705045 14353 net.cpp:157] Top shape: 5 256 75 75 (7200000)
I1206 23:38:54.705049 14353 net.cpp:165] Memory required for data: 921600032
I1206 23:38:54.705054 14353 layer_factory.hpp:77] Creating layer relu3_3
I1206 23:38:54.705061 14353 net.cpp:100] Creating Layer relu3_3
I1206 23:38:54.705065 14353 net.cpp:434] relu3_3 <- conv3_3
I1206 23:38:54.705070 14353 net.cpp:395] relu3_3 -> conv3_3 (in-place)
I1206 23:38:54.705292 14353 net.cpp:150] Setting up relu3_3
I1206 23:38:54.705299 14353 net.cpp:157] Top shape: 5 256 75 75 (7200000)
I1206 23:38:54.705302 14353 net.cpp:165] Memory required for data: 950400032
I1206 23:38:54.705305 14353 layer_factory.hpp:77] Creating layer pool3
I1206 23:38:54.705310 14353 net.cpp:100] Creating Layer pool3
I1206 23:38:54.705313 14353 net.cpp:434] pool3 <- conv3_3
I1206 23:38:54.705317 14353 net.cpp:408] pool3 -> pool3
I1206 23:38:54.705360 14353 net.cpp:150] Setting up pool3
I1206 23:38:54.705364 14353 net.cpp:157] Top shape: 5 256 38 38 (1848320)
I1206 23:38:54.705368 14353 net.cpp:165] Memory required for data: 957793312
I1206 23:38:54.705369 14353 layer_factory.hpp:77] Creating layer conv4_1
I1206 23:38:54.705376 14353 net.cpp:100] Creating Layer conv4_1
I1206 23:38:54.705379 14353 net.cpp:434] conv4_1 <- pool3
I1206 23:38:54.705400 14353 net.cpp:408] conv4_1 -> conv4_1
I1206 23:38:54.713546 14353 net.cpp:150] Setting up conv4_1
I1206 23:38:54.713562 14353 net.cpp:157] Top shape: 5 512 38 38 (3696640)
I1206 23:38:54.713564 14353 net.cpp:165] Memory required for data: 972579872
I1206 23:38:54.713570 14353 layer_factory.hpp:77] Creating layer relu4_1
I1206 23:38:54.713577 14353 net.cpp:100] Creating Layer relu4_1
I1206 23:38:54.713579 14353 net.cpp:434] relu4_1 <- conv4_1
I1206 23:38:54.713583 14353 net.cpp:395] relu4_1 -> conv4_1 (in-place)
I1206 23:38:54.713809 14353 net.cpp:150] Setting up relu4_1
I1206 23:38:54.713817 14353 net.cpp:157] Top shape: 5 512 38 38 (3696640)
I1206 23:38:54.713819 14353 net.cpp:165] Memory required for data: 987366432
I1206 23:38:54.713822 14353 layer_factory.hpp:77] Creating layer conv4_2
I1206 23:38:54.713830 14353 net.cpp:100] Creating Layer conv4_2
I1206 23:38:54.713832 14353 net.cpp:434] conv4_2 <- conv4_1
I1206 23:38:54.713837 14353 net.cpp:408] conv4_2 -> conv4_2
I1206 23:38:54.730365 14353 net.cpp:150] Setting up conv4_2
I1206 23:38:54.730391 14353 net.cpp:157] Top shape: 5 512 38 38 (3696640)
I1206 23:38:54.730393 14353 net.cpp:165] Memory required for data: 1002152992
I1206 23:38:54.730404 14353 layer_factory.hpp:77] Creating layer relu4_2
I1206 23:38:54.730412 14353 net.cpp:100] Creating Layer relu4_2
I1206 23:38:54.730417 14353 net.cpp:434] relu4_2 <- conv4_2
I1206 23:38:54.730422 14353 net.cpp:395] relu4_2 -> conv4_2 (in-place)
I1206 23:38:54.730660 14353 net.cpp:150] Setting up relu4_2
I1206 23:38:54.730669 14353 net.cpp:157] Top shape: 5 512 38 38 (3696640)
I1206 23:38:54.730671 14353 net.cpp:165] Memory required for data: 1016939552
I1206 23:38:54.730674 14353 layer_factory.hpp:77] Creating layer conv4_3
I1206 23:38:54.730682 14353 net.cpp:100] Creating Layer conv4_3
I1206 23:38:54.730685 14353 net.cpp:434] conv4_3 <- conv4_2
I1206 23:38:54.730690 14353 net.cpp:408] conv4_3 -> conv4_3
I1206 23:38:54.747073 14353 net.cpp:150] Setting up conv4_3
I1206 23:38:54.747094 14353 net.cpp:157] Top shape: 5 512 38 38 (3696640)
I1206 23:38:54.747098 14353 net.cpp:165] Memory required for data: 1031726112
I1206 23:38:54.747105 14353 layer_factory.hpp:77] Creating layer relu4_3
I1206 23:38:54.747113 14353 net.cpp:100] Creating Layer relu4_3
I1206 23:38:54.747117 14353 net.cpp:434] relu4_3 <- conv4_3
I1206 23:38:54.747123 14353 net.cpp:395] relu4_3 -> conv4_3 (in-place)
I1206 23:38:54.747263 14353 net.cpp:150] Setting up relu4_3
I1206 23:38:54.747272 14353 net.cpp:157] Top shape: 5 512 38 38 (3696640)
I1206 23:38:54.747277 14353 net.cpp:165] Memory required for data: 1046512672
I1206 23:38:54.747280 14353 layer_factory.hpp:77] Creating layer conv4_3_relu4_3_0_split
I1206 23:38:54.747287 14353 net.cpp:100] Creating Layer conv4_3_relu4_3_0_split
I1206 23:38:54.747292 14353 net.cpp:434] conv4_3_relu4_3_0_split <- conv4_3
I1206 23:38:54.747298 14353 net.cpp:408] conv4_3_relu4_3_0_split -> conv4_3_relu4_3_0_split_0
I1206 23:38:54.747306 14353 net.cpp:408] conv4_3_relu4_3_0_split -> conv4_3_relu4_3_0_split_1
I1206 23:38:54.747352 14353 net.cpp:150] Setting up conv4_3_relu4_3_0_split
I1206 23:38:54.747357 14353 net.cpp:157] Top shape: 5 512 38 38 (3696640)
I1206 23:38:54.747360 14353 net.cpp:157] Top shape: 5 512 38 38 (3696640)
I1206 23:38:54.747362 14353 net.cpp:165] Memory required for data: 1076085792
I1206 23:38:54.747365 14353 layer_factory.hpp:77] Creating layer pool4
I1206 23:38:54.747370 14353 net.cpp:100] Creating Layer pool4
I1206 23:38:54.747373 14353 net.cpp:434] pool4 <- conv4_3_relu4_3_0_split_0
I1206 23:38:54.747377 14353 net.cpp:408] pool4 -> pool4
I1206 23:38:54.747414 14353 net.cpp:150] Setting up pool4
I1206 23:38:54.747419 14353 net.cpp:157] Top shape: 5 512 19 19 (924160)
I1206 23:38:54.747421 14353 net.cpp:165] Memory required for data: 1079782432
I1206 23:38:54.747424 14353 layer_factory.hpp:77] Creating layer conv5_1
I1206 23:38:54.747431 14353 net.cpp:100] Creating Layer conv5_1
I1206 23:38:54.747434 14353 net.cpp:434] conv5_1 <- pool4
I1206 23:38:54.747438 14353 net.cpp:408] conv5_1 -> conv5_1
I1206 23:38:54.763326 14353 net.cpp:150] Setting up conv5_1
I1206 23:38:54.763347 14353 net.cpp:157] Top shape: 5 512 19 19 (924160)
I1206 23:38:54.763350 14353 net.cpp:165] Memory required for data: 1083479072
I1206 23:38:54.763357 14353 layer_factory.hpp:77] Creating layer relu5_1
I1206 23:38:54.763365 14353 net.cpp:100] Creating Layer relu5_1
I1206 23:38:54.763368 14353 net.cpp:434] relu5_1 <- conv5_1
I1206 23:38:54.763373 14353 net.cpp:395] relu5_1 -> conv5_1 (in-place)
I1206 23:38:54.763598 14353 net.cpp:150] Setting up relu5_1
I1206 23:38:54.763607 14353 net.cpp:157] Top shape: 5 512 19 19 (924160)
I1206 23:38:54.763608 14353 net.cpp:165] Memory required for data: 1087175712
I1206 23:38:54.763612 14353 layer_factory.hpp:77] Creating layer conv5_2
I1206 23:38:54.763619 14353 net.cpp:100] Creating Layer conv5_2
I1206 23:38:54.763622 14353 net.cpp:434] conv5_2 <- conv5_1
I1206 23:38:54.763628 14353 net.cpp:408] conv5_2 -> conv5_2
I1206 23:38:54.779548 14353 net.cpp:150] Setting up conv5_2
I1206 23:38:54.779567 14353 net.cpp:157] Top shape: 5 512 19 19 (924160)
I1206 23:38:54.779572 14353 net.cpp:165] Memory required for data: 1090872352
I1206 23:38:54.779577 14353 layer_factory.hpp:77] Creating layer relu5_2
I1206 23:38:54.779585 14353 net.cpp:100] Creating Layer relu5_2
I1206 23:38:54.779589 14353 net.cpp:434] relu5_2 <- conv5_2
I1206 23:38:54.779593 14353 net.cpp:395] relu5_2 -> conv5_2 (in-place)
I1206 23:38:54.779830 14353 net.cpp:150] Setting up relu5_2
I1206 23:38:54.779839 14353 net.cpp:157] Top shape: 5 512 19 19 (924160)
I1206 23:38:54.779840 14353 net.cpp:165] Memory required for data: 1094568992
I1206 23:38:54.779844 14353 layer_factory.hpp:77] Creating layer conv5_3
I1206 23:38:54.779851 14353 net.cpp:100] Creating Layer conv5_3
I1206 23:38:54.779855 14353 net.cpp:434] conv5_3 <- conv5_2
I1206 23:38:54.779860 14353 net.cpp:408] conv5_3 -> conv5_3
I1206 23:38:54.795351 14353 net.cpp:150] Setting up conv5_3
I1206 23:38:54.795370 14353 net.cpp:157] Top shape: 5 512 19 19 (924160)
I1206 23:38:54.795373 14353 net.cpp:165] Memory required for data: 1098265632
I1206 23:38:54.795380 14353 layer_factory.hpp:77] Creating layer relu5_3
I1206 23:38:54.795390 14353 net.cpp:100] Creating Layer relu5_3
I1206 23:38:54.795394 14353 net.cpp:434] relu5_3 <- conv5_3
I1206 23:38:54.795398 14353 net.cpp:395] relu5_3 -> conv5_3 (in-place)
I1206 23:38:54.795528 14353 net.cpp:150] Setting up relu5_3
I1206 23:38:54.795534 14353 net.cpp:157] Top shape: 5 512 19 19 (924160)
I1206 23:38:54.795536 14353 net.cpp:165] Memory required for data: 1101962272
I1206 23:38:54.795539 14353 layer_factory.hpp:77] Creating layer pool5
I1206 23:38:54.795544 14353 net.cpp:100] Creating Layer pool5
I1206 23:38:54.795547 14353 net.cpp:434] pool5 <- conv5_3
I1206 23:38:54.795550 14353 net.cpp:408] pool5 -> pool5
I1206 23:38:54.795591 14353 net.cpp:150] Setting up pool5
I1206 23:38:54.795596 14353 net.cpp:157] Top shape: 5 512 19 19 (924160)
I1206 23:38:54.795598 14353 net.cpp:165] Memory required for data: 1105658912
I1206 23:38:54.795600 14353 layer_factory.hpp:77] Creating layer fc6
I1206 23:38:54.795608 14353 net.cpp:100] Creating Layer fc6
I1206 23:38:54.795610 14353 net.cpp:434] fc6 <- pool5
I1206 23:38:54.795614 14353 net.cpp:408] fc6 -> fc6
I1206 23:38:54.826213 14353 net.cpp:150] Setting up fc6
I1206 23:38:54.826236 14353 net.cpp:157] Top shape: 5 1024 19 19 (1848320)
I1206 23:38:54.826241 14353 net.cpp:165] Memory required for data: 1113052192
I1206 23:38:54.826246 14353 layer_factory.hpp:77] Creating layer relu6
I1206 23:38:54.826254 14353 net.cpp:100] Creating Layer relu6
I1206 23:38:54.826259 14353 net.cpp:434] relu6 <- fc6
I1206 23:38:54.826264 14353 net.cpp:395] relu6 -> fc6 (in-place)
I1206 23:38:54.826584 14353 net.cpp:150] Setting up relu6
I1206 23:38:54.826594 14353 net.cpp:157] Top shape: 5 1024 19 19 (1848320)
I1206 23:38:54.826597 14353 net.cpp:165] Memory required for data: 1120445472
I1206 23:38:54.826601 14353 layer_factory.hpp:77] Creating layer fc7
I1206 23:38:54.826608 14353 net.cpp:100] Creating Layer fc7
I1206 23:38:54.826612 14353 net.cpp:434] fc7 <- fc6
I1206 23:38:54.826629 14353 net.cpp:408] fc7 -> fc7
I1206 23:38:54.834492 14353 net.cpp:150] Setting up fc7
I1206 23:38:54.834530 14353 net.cpp:157] Top shape: 5 1024 19 19 (1848320)
I1206 23:38:54.834553 14353 net.cpp:165] Memory required for data: 1127838752
I1206 23:38:54.834573 14353 layer_factory.hpp:77] Creating layer relu7
I1206 23:38:54.834581 14353 net.cpp:100] Creating Layer relu7
I1206 23:38:54.834585 14353 net.cpp:434] relu7 <- fc7
I1206 23:38:54.834590 14353 net.cpp:395] relu7 -> fc7 (in-place)
I1206 23:38:54.834736 14353 net.cpp:150] Setting up relu7
I1206 23:38:54.834743 14353 net.cpp:157] Top shape: 5 1024 19 19 (1848320)
I1206 23:38:54.834764 14353 net.cpp:165] Memory required for data: 1135232032
I1206 23:38:54.834767 14353 layer_factory.hpp:77] Creating layer fc7_relu7_0_split
I1206 23:38:54.834772 14353 net.cpp:100] Creating Layer fc7_relu7_0_split
I1206 23:38:54.834775 14353 net.cpp:434] fc7_relu7_0_split <- fc7
I1206 23:38:54.834779 14353 net.cpp:408] fc7_relu7_0_split -> fc7_relu7_0_split_0
I1206 23:38:54.834785 14353 net.cpp:408] fc7_relu7_0_split -> fc7_relu7_0_split_1
I1206 23:38:54.834794 14353 net.cpp:408] fc7_relu7_0_split -> fc7_relu7_0_split_2
I1206 23:38:54.834800 14353 net.cpp:408] fc7_relu7_0_split -> fc7_relu7_0_split_3
I1206 23:38:54.834899 14353 net.cpp:150] Setting up fc7_relu7_0_split
I1206 23:38:54.834905 14353 net.cpp:157] Top shape: 5 1024 19 19 (1848320)
I1206 23:38:54.834928 14353 net.cpp:157] Top shape: 5 1024 19 19 (1848320)
I1206 23:38:54.834930 14353 net.cpp:157] Top shape: 5 1024 19 19 (1848320)
I1206 23:38:54.834933 14353 net.cpp:157] Top shape: 5 1024 19 19 (1848320)
I1206 23:38:54.834936 14353 net.cpp:165] Memory required for data: 1164805152
I1206 23:38:54.834939 14353 layer_factory.hpp:77] Creating layer conv6_1
I1206 23:38:54.834946 14353 net.cpp:100] Creating Layer conv6_1
I1206 23:38:54.834949 14353 net.cpp:434] conv6_1 <- fc7_relu7_0_split_0
I1206 23:38:54.834954 14353 net.cpp:408] conv6_1 -> conv6_1
I1206 23:38:54.837754 14353 net.cpp:150] Setting up conv6_1
I1206 23:38:54.837771 14353 net.cpp:157] Top shape: 5 256 19 19 (462080)
I1206 23:38:54.837774 14353 net.cpp:165] Memory required for data: 1166653472
I1206 23:38:54.837781 14353 layer_factory.hpp:77] Creating layer conv6_1_relu
I1206 23:38:54.837790 14353 net.cpp:100] Creating Layer conv6_1_relu
I1206 23:38:54.837793 14353 net.cpp:434] conv6_1_relu <- conv6_1
I1206 23:38:54.837798 14353 net.cpp:395] conv6_1_relu -> conv6_1 (in-place)
I1206 23:38:54.838052 14353 net.cpp:150] Setting up conv6_1_relu
I1206 23:38:54.838062 14353 net.cpp:157] Top shape: 5 256 19 19 (462080)
I1206 23:38:54.838064 14353 net.cpp:165] Memory required for data: 1168501792
I1206 23:38:54.838068 14353 layer_factory.hpp:77] Creating layer conv6_2
I1206 23:38:54.838075 14353 net.cpp:100] Creating Layer conv6_2
I1206 23:38:54.838078 14353 net.cpp:434] conv6_2 <- conv6_1
I1206 23:38:54.838083 14353 net.cpp:408] conv6_2 -> conv6_2
I1206 23:38:54.846799 14353 net.cpp:150] Setting up conv6_2
I1206 23:38:54.846822 14353 net.cpp:157] Top shape: 5 512 10 10 (256000)
I1206 23:38:54.846827 14353 net.cpp:165] Memory required for data: 1169525792
I1206 23:38:54.846858 14353 layer_factory.hpp:77] Creating layer conv6_2_relu
I1206 23:38:54.846865 14353 net.cpp:100] Creating Layer conv6_2_relu
I1206 23:38:54.846870 14353 net.cpp:434] conv6_2_relu <- conv6_2
I1206 23:38:54.846875 14353 net.cpp:395] conv6_2_relu -> conv6_2 (in-place)
I1206 23:38:54.847141 14353 net.cpp:150] Setting up conv6_2_relu
I1206 23:38:54.847151 14353 net.cpp:157] Top shape: 5 512 10 10 (256000)
I1206 23:38:54.847153 14353 net.cpp:165] Memory required for data: 1170549792
I1206 23:38:54.847157 14353 layer_factory.hpp:77] Creating layer conv6_2_conv6_2_relu_0_split
I1206 23:38:54.847180 14353 net.cpp:100] Creating Layer conv6_2_conv6_2_relu_0_split
I1206 23:38:54.847183 14353 net.cpp:434] conv6_2_conv6_2_relu_0_split <- conv6_2
I1206 23:38:54.847200 14353 net.cpp:408] conv6_2_conv6_2_relu_0_split -> conv6_2_conv6_2_relu_0_split_0
I1206 23:38:54.847206 14353 net.cpp:408] conv6_2_conv6_2_relu_0_split -> conv6_2_conv6_2_relu_0_split_1
I1206 23:38:54.847223 14353 net.cpp:408] conv6_2_conv6_2_relu_0_split -> conv6_2_conv6_2_relu_0_split_2
I1206 23:38:54.847229 14353 net.cpp:408] conv6_2_conv6_2_relu_0_split -> conv6_2_conv6_2_relu_0_split_3
I1206 23:38:54.847314 14353 net.cpp:150] Setting up conv6_2_conv6_2_relu_0_split
I1206 23:38:54.847319 14353 net.cpp:157] Top shape: 5 512 10 10 (256000)
I1206 23:38:54.847322 14353 net.cpp:157] Top shape: 5 512 10 10 (256000)
I1206 23:38:54.847326 14353 net.cpp:157] Top shape: 5 512 10 10 (256000)
I1206 23:38:54.847347 14353 net.cpp:157] Top shape: 5 512 10 10 (256000)
I1206 23:38:54.847349 14353 net.cpp:165] Memory required for data: 1174645792
I1206 23:38:54.847352 14353 layer_factory.hpp:77] Creating layer conv7_1
I1206 23:38:54.847359 14353 net.cpp:100] Creating Layer conv7_1
I1206 23:38:54.847362 14353 net.cpp:434] conv7_1 <- conv6_2_conv6_2_relu_0_split_0
I1206 23:38:54.847368 14353 net.cpp:408] conv7_1 -> conv7_1
I1206 23:38:54.848711 14353 net.cpp:150] Setting up conv7_1
I1206 23:38:54.848722 14353 net.cpp:157] Top shape: 5 128 10 10 (64000)
I1206 23:38:54.848726 14353 net.cpp:165] Memory required for data: 1174901792
I1206 23:38:54.848731 14353 layer_factory.hpp:77] Creating layer conv7_1_relu
I1206 23:38:54.848737 14353 net.cpp:100] Creating Layer conv7_1_relu
I1206 23:38:54.848739 14353 net.cpp:434] conv7_1_relu <- conv7_1
I1206 23:38:54.848743 14353 net.cpp:395] conv7_1_relu -> conv7_1 (in-place)
I1206 23:38:54.848881 14353 net.cpp:150] Setting up conv7_1_relu
I1206 23:38:54.848886 14353 net.cpp:157] Top shape: 5 128 10 10 (64000)
I1206 23:38:54.848889 14353 net.cpp:165] Memory required for data: 1175157792
I1206 23:38:54.848892 14353 layer_factory.hpp:77] Creating layer conv7_2
I1206 23:38:54.848898 14353 net.cpp:100] Creating Layer conv7_2
I1206 23:38:54.848901 14353 net.cpp:434] conv7_2 <- conv7_1
I1206 23:38:54.848906 14353 net.cpp:408] conv7_2 -> conv7_2
I1206 23:38:54.851766 14353 net.cpp:150] Setting up conv7_2
I1206 23:38:54.851783 14353 net.cpp:157] Top shape: 5 256 5 5 (32000)
I1206 23:38:54.851785 14353 net.cpp:165] Memory required for data: 1175285792
I1206 23:38:54.851809 14353 layer_factory.hpp:77] Creating layer conv7_2_relu
I1206 23:38:54.851816 14353 net.cpp:100] Creating Layer conv7_2_relu
I1206 23:38:54.851820 14353 net.cpp:434] conv7_2_relu <- conv7_2
I1206 23:38:54.851824 14353 net.cpp:395] conv7_2_relu -> conv7_2 (in-place)
I1206 23:38:54.852075 14353 net.cpp:150] Setting up conv7_2_relu
I1206 23:38:54.852084 14353 net.cpp:157] Top shape: 5 256 5 5 (32000)
I1206 23:38:54.852087 14353 net.cpp:165] Memory required for data: 1175413792
I1206 23:38:54.852089 14353 layer_factory.hpp:77] Creating layer conv7_2_conv7_2_relu_0_split
I1206 23:38:54.852094 14353 net.cpp:100] Creating Layer conv7_2_conv7_2_relu_0_split
I1206 23:38:54.852111 14353 net.cpp:434] conv7_2_conv7_2_relu_0_split <- conv7_2
I1206 23:38:54.852115 14353 net.cpp:408] conv7_2_conv7_2_relu_0_split -> conv7_2_conv7_2_relu_0_split_0
I1206 23:38:54.852121 14353 net.cpp:408] conv7_2_conv7_2_relu_0_split -> conv7_2_conv7_2_relu_0_split_1
I1206 23:38:54.852125 14353 net.cpp:408] conv7_2_conv7_2_relu_0_split -> conv7_2_conv7_2_relu_0_split_2
I1206 23:38:54.852130 14353 net.cpp:408] conv7_2_conv7_2_relu_0_split -> conv7_2_conv7_2_relu_0_split_3
I1206 23:38:54.852228 14353 net.cpp:150] Setting up conv7_2_conv7_2_relu_0_split
I1206 23:38:54.852234 14353 net.cpp:157] Top shape: 5 256 5 5 (32000)
I1206 23:38:54.852252 14353 net.cpp:157] Top shape: 5 256 5 5 (32000)
I1206 23:38:54.852254 14353 net.cpp:157] Top shape: 5 256 5 5 (32000)
I1206 23:38:54.852257 14353 net.cpp:157] Top shape: 5 256 5 5 (32000)
I1206 23:38:54.852259 14353 net.cpp:165] Memory required for data: 1175925792
I1206 23:38:54.852262 14353 layer_factory.hpp:77] Creating layer conv8_1
I1206 23:38:54.852269 14353 net.cpp:100] Creating Layer conv8_1
I1206 23:38:54.852272 14353 net.cpp:434] conv8_1 <- conv7_2_conv7_2_relu_0_split_0
I1206 23:38:54.852277 14353 net.cpp:408] conv8_1 -> conv8_1
I1206 23:38:54.853256 14353 net.cpp:150] Setting up conv8_1
I1206 23:38:54.853266 14353 net.cpp:157] Top shape: 5 128 5 5 (16000)
I1206 23:38:54.853269 14353 net.cpp:165] Memory required for data: 1175989792
I1206 23:38:54.853292 14353 layer_factory.hpp:77] Creating layer conv8_1_relu
I1206 23:38:54.853297 14353 net.cpp:100] Creating Layer conv8_1_relu
I1206 23:38:54.853314 14353 net.cpp:434] conv8_1_relu <- conv8_1
I1206 23:38:54.853318 14353 net.cpp:395] conv8_1_relu -> conv8_1 (in-place)
I1206 23:38:54.853571 14353 net.cpp:150] Setting up conv8_1_relu
I1206 23:38:54.853579 14353 net.cpp:157] Top shape: 5 128 5 5 (16000)
I1206 23:38:54.853582 14353 net.cpp:165] Memory required for data: 1176053792
I1206 23:38:54.853585 14353 layer_factory.hpp:77] Creating layer conv8_2
I1206 23:38:54.853610 14353 net.cpp:100] Creating Layer conv8_2
I1206 23:38:54.853613 14353 net.cpp:434] conv8_2 <- conv8_1
I1206 23:38:54.853617 14353 net.cpp:408] conv8_2 -> conv8_2
I1206 23:38:54.856410 14353 net.cpp:150] Setting up conv8_2
I1206 23:38:54.856421 14353 net.cpp:157] Top shape: 5 256 3 3 (11520)
I1206 23:38:54.856425 14353 net.cpp:165] Memory required for data: 1176099872
I1206 23:38:54.856447 14353 layer_factory.hpp:77] Creating layer conv8_2_relu
I1206 23:38:54.856453 14353 net.cpp:100] Creating Layer conv8_2_relu
I1206 23:38:54.856457 14353 net.cpp:434] conv8_2_relu <- conv8_2
I1206 23:38:54.856462 14353 net.cpp:395] conv8_2_relu -> conv8_2 (in-place)
I1206 23:38:54.856606 14353 net.cpp:150] Setting up conv8_2_relu
I1206 23:38:54.856612 14353 net.cpp:157] Top shape: 5 256 3 3 (11520)
I1206 23:38:54.856616 14353 net.cpp:165] Memory required for data: 1176145952
I1206 23:38:54.856617 14353 layer_factory.hpp:77] Creating layer conv8_2_conv8_2_relu_0_split
I1206 23:38:54.856622 14353 net.cpp:100] Creating Layer conv8_2_conv8_2_relu_0_split
I1206 23:38:54.856643 14353 net.cpp:434] conv8_2_conv8_2_relu_0_split <- conv8_2
I1206 23:38:54.856647 14353 net.cpp:408] conv8_2_conv8_2_relu_0_split -> conv8_2_conv8_2_relu_0_split_0
I1206 23:38:54.856652 14353 net.cpp:408] conv8_2_conv8_2_relu_0_split -> conv8_2_conv8_2_relu_0_split_1
I1206 23:38:54.856657 14353 net.cpp:408] conv8_2_conv8_2_relu_0_split -> conv8_2_conv8_2_relu_0_split_2
I1206 23:38:54.856662 14353 net.cpp:408] conv8_2_conv8_2_relu_0_split -> conv8_2_conv8_2_relu_0_split_3
I1206 23:38:54.856750 14353 net.cpp:150] Setting up conv8_2_conv8_2_relu_0_split
I1206 23:38:54.856755 14353 net.cpp:157] Top shape: 5 256 3 3 (11520)
I1206 23:38:54.856758 14353 net.cpp:157] Top shape: 5 256 3 3 (11520)
I1206 23:38:54.856761 14353 net.cpp:157] Top shape: 5 256 3 3 (11520)
I1206 23:38:54.856765 14353 net.cpp:157] Top shape: 5 256 3 3 (11520)
I1206 23:38:54.856786 14353 net.cpp:165] Memory required for data: 1176330272
I1206 23:38:54.856787 14353 layer_factory.hpp:77] Creating layer conv9_1
I1206 23:38:54.856794 14353 net.cpp:100] Creating Layer conv9_1
I1206 23:38:54.856812 14353 net.cpp:434] conv9_1 <- conv8_2_conv8_2_relu_0_split_0
I1206 23:38:54.856817 14353 net.cpp:408] conv9_1 -> conv9_1
I1206 23:38:54.857851 14353 net.cpp:150] Setting up conv9_1
I1206 23:38:54.857861 14353 net.cpp:157] Top shape: 5 128 3 3 (5760)
I1206 23:38:54.857864 14353 net.cpp:165] Memory required for data: 1176353312
I1206 23:38:54.857868 14353 layer_factory.hpp:77] Creating layer conv9_1_relu
I1206 23:38:54.857892 14353 net.cpp:100] Creating Layer conv9_1_relu
I1206 23:38:54.857895 14353 net.cpp:434] conv9_1_relu <- conv9_1
I1206 23:38:54.857899 14353 net.cpp:395] conv9_1_relu -> conv9_1 (in-place)
I1206 23:38:54.858157 14353 net.cpp:150] Setting up conv9_1_relu
I1206 23:38:54.858166 14353 net.cpp:157] Top shape: 5 128 3 3 (5760)
I1206 23:38:54.858168 14353 net.cpp:165] Memory required for data: 1176376352
I1206 23:38:54.858191 14353 layer_factory.hpp:77] Creating layer conv9_2
I1206 23:38:54.858197 14353 net.cpp:100] Creating Layer conv9_2
I1206 23:38:54.858213 14353 net.cpp:434] conv9_2 <- conv9_1
I1206 23:38:54.858218 14353 net.cpp:408] conv9_2 -> conv9_2
I1206 23:38:54.860880 14353 net.cpp:150] Setting up conv9_2
I1206 23:38:54.860899 14353 net.cpp:157] Top shape: 5 256 1 1 (1280)
I1206 23:38:54.860903 14353 net.cpp:165] Memory required for data: 1176381472
I1206 23:38:54.860926 14353 layer_factory.hpp:77] Creating layer conv9_2_relu
I1206 23:38:54.860932 14353 net.cpp:100] Creating Layer conv9_2_relu
I1206 23:38:54.860935 14353 net.cpp:434] conv9_2_relu <- conv9_2
I1206 23:38:54.860939 14353 net.cpp:395] conv9_2_relu -> conv9_2 (in-place)
I1206 23:38:54.861179 14353 net.cpp:150] Setting up conv9_2_relu
I1206 23:38:54.861187 14353 net.cpp:157] Top shape: 5 256 1 1 (1280)
I1206 23:38:54.861191 14353 net.cpp:165] Memory required for data: 1176386592
I1206 23:38:54.861193 14353 layer_factory.hpp:77] Creating layer conv9_2_conv9_2_relu_0_split
I1206 23:38:54.861217 14353 net.cpp:100] Creating Layer conv9_2_conv9_2_relu_0_split
I1206 23:38:54.861219 14353 net.cpp:434] conv9_2_conv9_2_relu_0_split <- conv9_2
I1206 23:38:54.861238 14353 net.cpp:408] conv9_2_conv9_2_relu_0_split -> conv9_2_conv9_2_relu_0_split_0
I1206 23:38:54.861243 14353 net.cpp:408] conv9_2_conv9_2_relu_0_split -> conv9_2_conv9_2_relu_0_split_1
I1206 23:38:54.861248 14353 net.cpp:408] conv9_2_conv9_2_relu_0_split -> conv9_2_conv9_2_relu_0_split_2
I1206 23:38:54.861333 14353 net.cpp:150] Setting up conv9_2_conv9_2_relu_0_split
I1206 23:38:54.861338 14353 net.cpp:157] Top shape: 5 256 1 1 (1280)
I1206 23:38:54.861342 14353 net.cpp:157] Top shape: 5 256 1 1 (1280)
I1206 23:38:54.861346 14353 net.cpp:157] Top shape: 5 256 1 1 (1280)
I1206 23:38:54.861347 14353 net.cpp:165] Memory required for data: 1176401952
I1206 23:38:54.861368 14353 layer_factory.hpp:77] Creating layer conv4_3_norm
I1206 23:38:54.861374 14353 net.cpp:100] Creating Layer conv4_3_norm
I1206 23:38:54.861378 14353 net.cpp:434] conv4_3_norm <- conv4_3_relu4_3_0_split_1
I1206 23:38:54.861395 14353 net.cpp:408] conv4_3_norm -> conv4_3_norm
I1206 23:38:54.861575 14353 net.cpp:150] Setting up conv4_3_norm
I1206 23:38:54.861582 14353 net.cpp:157] Top shape: 5 512 38 38 (3696640)
I1206 23:38:54.861583 14353 net.cpp:165] Memory required for data: 1191188512
I1206 23:38:54.861588 14353 layer_factory.hpp:77] Creating layer conv4_3_norm_conv4_3_norm_0_split
I1206 23:38:54.861610 14353 net.cpp:100] Creating Layer conv4_3_norm_conv4_3_norm_0_split
I1206 23:38:54.861613 14353 net.cpp:434] conv4_3_norm_conv4_3_norm_0_split <- conv4_3_norm
I1206 23:38:54.861618 14353 net.cpp:408] conv4_3_norm_conv4_3_norm_0_split -> conv4_3_norm_conv4_3_norm_0_split_0
I1206 23:38:54.861621 14353 net.cpp:408] conv4_3_norm_conv4_3_norm_0_split -> conv4_3_norm_conv4_3_norm_0_split_1
I1206 23:38:54.861626 14353 net.cpp:408] conv4_3_norm_conv4_3_norm_0_split -> conv4_3_norm_conv4_3_norm_0_split_2
I1206 23:38:54.861690 14353 net.cpp:150] Setting up conv4_3_norm_conv4_3_norm_0_split
I1206 23:38:54.861696 14353 net.cpp:157] Top shape: 5 512 38 38 (3696640)
I1206 23:38:54.861698 14353 net.cpp:157] Top shape: 5 512 38 38 (3696640)
I1206 23:38:54.861714 14353 net.cpp:157] Top shape: 5 512 38 38 (3696640)
I1206 23:38:54.861716 14353 net.cpp:165] Memory required for data: 1235548192
I1206 23:38:54.861719 14353 layer_factory.hpp:77] Creating layer conv4_3_norm_mbox_loc
I1206 23:38:54.861744 14353 net.cpp:100] Creating Layer conv4_3_norm_mbox_loc
I1206 23:38:54.861747 14353 net.cpp:434] conv4_3_norm_mbox_loc <- conv4_3_norm_conv4_3_norm_0_split_0
I1206 23:38:54.861765 14353 net.cpp:408] conv4_3_norm_mbox_loc -> conv4_3_norm_mbox_loc
I1206 23:38:54.863175 14353 net.cpp:150] Setting up conv4_3_norm_mbox_loc
I1206 23:38:54.863186 14353 net.cpp:157] Top shape: 5 12 38 38 (86640)
I1206 23:38:54.863189 14353 net.cpp:165] Memory required for data: 1235894752
I1206 23:38:54.863195 14353 layer_factory.hpp:77] Creating layer conv4_3_norm_mbox_loc_perm
I1206 23:38:54.863201 14353 net.cpp:100] Creating Layer conv4_3_norm_mbox_loc_perm
I1206 23:38:54.863204 14353 net.cpp:434] conv4_3_norm_mbox_loc_perm <- conv4_3_norm_mbox_loc
I1206 23:38:54.863209 14353 net.cpp:408] conv4_3_norm_mbox_loc_perm -> conv4_3_norm_mbox_loc_perm
I1206 23:38:54.863325 14353 net.cpp:150] Setting up conv4_3_norm_mbox_loc_perm
I1206 23:38:54.863338 14353 net.cpp:157] Top shape: 5 38 38 12 (86640)
I1206 23:38:54.863342 14353 net.cpp:165] Memory required for data: 1236241312
I1206 23:38:54.863344 14353 layer_factory.hpp:77] Creating layer conv4_3_norm_mbox_loc_flat
I1206 23:38:54.863348 14353 net.cpp:100] Creating Layer conv4_3_norm_mbox_loc_flat
I1206 23:38:54.863351 14353 net.cpp:434] conv4_3_norm_mbox_loc_flat <- conv4_3_norm_mbox_loc_perm
I1206 23:38:54.863355 14353 net.cpp:408] conv4_3_norm_mbox_loc_flat -> conv4_3_norm_mbox_loc_flat
I1206 23:38:54.863384 14353 net.cpp:150] Setting up conv4_3_norm_mbox_loc_flat
I1206 23:38:54.863389 14353 net.cpp:157] Top shape: 5 17328 (86640)
I1206 23:38:54.863392 14353 net.cpp:165] Memory required for data: 1236587872
I1206 23:38:54.863395 14353 layer_factory.hpp:77] Creating layer conv4_3_norm_mbox_conf
I1206 23:38:54.863405 14353 net.cpp:100] Creating Layer conv4_3_norm_mbox_conf
I1206 23:38:54.863411 14353 net.cpp:434] conv4_3_norm_mbox_conf <- conv4_3_norm_conv4_3_norm_0_split_1
I1206 23:38:54.863416 14353 net.cpp:408] conv4_3_norm_mbox_conf -> conv4_3_norm_mbox_conf
I1206 23:38:54.864475 14353 net.cpp:150] Setting up conv4_3_norm_mbox_conf
I1206 23:38:54.864486 14353 net.cpp:157] Top shape: 5 6 38 38 (43320)
I1206 23:38:54.864490 14353 net.cpp:165] Memory required for data: 1236761152
I1206 23:38:54.864495 14353 layer_factory.hpp:77] Creating layer conv4_3_norm_mbox_conf_perm
I1206 23:38:54.864500 14353 net.cpp:100] Creating Layer conv4_3_norm_mbox_conf_perm
I1206 23:38:54.864504 14353 net.cpp:434] conv4_3_norm_mbox_conf_perm <- conv4_3_norm_mbox_conf
I1206 23:38:54.864509 14353 net.cpp:408] conv4_3_norm_mbox_conf_perm -> conv4_3_norm_mbox_conf_perm
I1206 23:38:54.864624 14353 net.cpp:150] Setting up conv4_3_norm_mbox_conf_perm
I1206 23:38:54.864630 14353 net.cpp:157] Top shape: 5 38 38 6 (43320)
I1206 23:38:54.864632 14353 net.cpp:165] Memory required for data: 1236934432
I1206 23:38:54.864635 14353 layer_factory.hpp:77] Creating layer conv4_3_norm_mbox_conf_flat
I1206 23:38:54.864639 14353 net.cpp:100] Creating Layer conv4_3_norm_mbox_conf_flat
I1206 23:38:54.864642 14353 net.cpp:434] conv4_3_norm_mbox_conf_flat <- conv4_3_norm_mbox_conf_perm
I1206 23:38:54.864646 14353 net.cpp:408] conv4_3_norm_mbox_conf_flat -> conv4_3_norm_mbox_conf_flat
I1206 23:38:54.864670 14353 net.cpp:150] Setting up conv4_3_norm_mbox_conf_flat
I1206 23:38:54.864675 14353 net.cpp:157] Top shape: 5 8664 (43320)
I1206 23:38:54.864677 14353 net.cpp:165] Memory required for data: 1237107712
I1206 23:38:54.864681 14353 layer_factory.hpp:77] Creating layer conv4_3_norm_mbox_priorbox
I1206 23:38:54.864686 14353 net.cpp:100] Creating Layer conv4_3_norm_mbox_priorbox
I1206 23:38:54.864688 14353 net.cpp:434] conv4_3_norm_mbox_priorbox <- conv4_3_norm_conv4_3_norm_0_split_2
I1206 23:38:54.864692 14353 net.cpp:434] conv4_3_norm_mbox_priorbox <- data_data_0_split_1
I1206 23:38:54.864697 14353 net.cpp:408] conv4_3_norm_mbox_priorbox -> conv4_3_norm_mbox_priorbox
I1206 23:38:54.864723 14353 net.cpp:150] Setting up conv4_3_norm_mbox_priorbox
I1206 23:38:54.864728 14353 net.cpp:157] Top shape: 1 2 17328 (34656)
I1206 23:38:54.864732 14353 net.cpp:165] Memory required for data: 1237246336
I1206 23:38:54.864733 14353 layer_factory.hpp:77] Creating layer fc7_mbox_loc
I1206 23:38:54.864740 14353 net.cpp:100] Creating Layer fc7_mbox_loc
I1206 23:38:54.864744 14353 net.cpp:434] fc7_mbox_loc <- fc7_relu7_0_split_1
I1206 23:38:54.864749 14353 net.cpp:408] fc7_mbox_loc -> fc7_mbox_loc
I1206 23:38:54.866912 14353 net.cpp:150] Setting up fc7_mbox_loc
I1206 23:38:54.866925 14353 net.cpp:157] Top shape: 5 16 19 19 (28880)
I1206 23:38:54.866928 14353 net.cpp:165] Memory required for data: 1237361856
I1206 23:38:54.866953 14353 layer_factory.hpp:77] Creating layer fc7_mbox_loc_perm
I1206 23:38:54.866960 14353 net.cpp:100] Creating Layer fc7_mbox_loc_perm
I1206 23:38:54.866963 14353 net.cpp:434] fc7_mbox_loc_perm <- fc7_mbox_loc
I1206 23:38:54.866968 14353 net.cpp:408] fc7_mbox_loc_perm -> fc7_mbox_loc_perm
I1206 23:38:54.867120 14353 net.cpp:150] Setting up fc7_mbox_loc_perm
I1206 23:38:54.867125 14353 net.cpp:157] Top shape: 5 19 19 16 (28880)
I1206 23:38:54.867128 14353 net.cpp:165] Memory required for data: 1237477376
I1206 23:38:54.867131 14353 layer_factory.hpp:77] Creating layer fc7_mbox_loc_flat
I1206 23:38:54.867136 14353 net.cpp:100] Creating Layer fc7_mbox_loc_flat
I1206 23:38:54.867156 14353 net.cpp:434] fc7_mbox_loc_flat <- fc7_mbox_loc_perm
I1206 23:38:54.867161 14353 net.cpp:408] fc7_mbox_loc_flat -> fc7_mbox_loc_flat
I1206 23:38:54.867183 14353 net.cpp:150] Setting up fc7_mbox_loc_flat
I1206 23:38:54.867202 14353 net.cpp:157] Top shape: 5 5776 (28880)
I1206 23:38:54.867205 14353 net.cpp:165] Memory required for data: 1237592896
I1206 23:38:54.867208 14353 layer_factory.hpp:77] Creating layer fc7_mbox_conf
I1206 23:38:54.867214 14353 net.cpp:100] Creating Layer fc7_mbox_conf
I1206 23:38:54.867218 14353 net.cpp:434] fc7_mbox_conf <- fc7_relu7_0_split_2
I1206 23:38:54.867223 14353 net.cpp:408] fc7_mbox_conf -> fc7_mbox_conf
I1206 23:38:54.868662 14353 net.cpp:150] Setting up fc7_mbox_conf
I1206 23:38:54.868674 14353 net.cpp:157] Top shape: 5 8 19 19 (14440)
I1206 23:38:54.868679 14353 net.cpp:165] Memory required for data: 1237650656
I1206 23:38:54.868703 14353 layer_factory.hpp:77] Creating layer fc7_mbox_conf_perm
I1206 23:38:54.868724 14353 net.cpp:100] Creating Layer fc7_mbox_conf_perm
I1206 23:38:54.868729 14353 net.cpp:434] fc7_mbox_conf_perm <- fc7_mbox_conf
I1206 23:38:54.868736 14353 net.cpp:408] fc7_mbox_conf_perm -> fc7_mbox_conf_perm
I1206 23:38:54.868940 14353 net.cpp:150] Setting up fc7_mbox_conf_perm
I1206 23:38:54.868953 14353 net.cpp:157] Top shape: 5 19 19 8 (14440)
I1206 23:38:54.868958 14353 net.cpp:165] Memory required for data: 1237708416
I1206 23:38:54.868963 14353 layer_factory.hpp:77] Creating layer fc7_mbox_conf_flat
I1206 23:38:54.868969 14353 net.cpp:100] Creating Layer fc7_mbox_conf_flat
I1206 23:38:54.868974 14353 net.cpp:434] fc7_mbox_conf_flat <- fc7_mbox_conf_perm
I1206 23:38:54.868980 14353 net.cpp:408] fc7_mbox_conf_flat -> fc7_mbox_conf_flat
I1206 23:38:54.869016 14353 net.cpp:150] Setting up fc7_mbox_conf_flat
I1206 23:38:54.869025 14353 net.cpp:157] Top shape: 5 2888 (14440)
I1206 23:38:54.869030 14353 net.cpp:165] Memory required for data: 1237766176
I1206 23:38:54.869035 14353 layer_factory.hpp:77] Creating layer fc7_mbox_priorbox
I1206 23:38:54.869043 14353 net.cpp:100] Creating Layer fc7_mbox_priorbox
I1206 23:38:54.869050 14353 net.cpp:434] fc7_mbox_priorbox <- fc7_relu7_0_split_3
I1206 23:38:54.869056 14353 net.cpp:434] fc7_mbox_priorbox <- data_data_0_split_2
I1206 23:38:54.869065 14353 net.cpp:408] fc7_mbox_priorbox -> fc7_mbox_priorbox
I1206 23:38:54.869102 14353 net.cpp:150] Setting up fc7_mbox_priorbox
I1206 23:38:54.869110 14353 net.cpp:157] Top shape: 1 2 5776 (11552)
I1206 23:38:54.869114 14353 net.cpp:165] Memory required for data: 1237812384
I1206 23:38:54.869118 14353 layer_factory.hpp:77] Creating layer conv6_2_mbox_loc
I1206 23:38:54.869127 14353 net.cpp:100] Creating Layer conv6_2_mbox_loc
I1206 23:38:54.869132 14353 net.cpp:434] conv6_2_mbox_loc <- conv6_2_conv6_2_relu_0_split_1
I1206 23:38:54.869140 14353 net.cpp:408] conv6_2_mbox_loc -> conv6_2_mbox_loc
I1206 23:38:54.870720 14353 net.cpp:150] Setting up conv6_2_mbox_loc
I1206 23:38:54.870731 14353 net.cpp:157] Top shape: 5 16 10 10 (8000)
I1206 23:38:54.870749 14353 net.cpp:165] Memory required for data: 1237844384
I1206 23:38:54.870755 14353 layer_factory.hpp:77] Creating layer conv6_2_mbox_loc_perm
I1206 23:38:54.870761 14353 net.cpp:100] Creating Layer conv6_2_mbox_loc_perm
I1206 23:38:54.870766 14353 net.cpp:434] conv6_2_mbox_loc_perm <- conv6_2_mbox_loc
I1206 23:38:54.870770 14353 net.cpp:408] conv6_2_mbox_loc_perm -> conv6_2_mbox_loc_perm
I1206 23:38:54.870890 14353 net.cpp:150] Setting up conv6_2_mbox_loc_perm
I1206 23:38:54.870895 14353 net.cpp:157] Top shape: 5 10 10 16 (8000)
I1206 23:38:54.870898 14353 net.cpp:165] Memory required for data: 1237876384
I1206 23:38:54.870901 14353 layer_factory.hpp:77] Creating layer conv6_2_mbox_loc_flat
I1206 23:38:54.870915 14353 net.cpp:100] Creating Layer conv6_2_mbox_loc_flat
I1206 23:38:54.870919 14353 net.cpp:434] conv6_2_mbox_loc_flat <- conv6_2_mbox_loc_perm
I1206 23:38:54.870923 14353 net.cpp:408] conv6_2_mbox_loc_flat -> conv6_2_mbox_loc_flat
I1206 23:38:54.870947 14353 net.cpp:150] Setting up conv6_2_mbox_loc_flat
I1206 23:38:54.870952 14353 net.cpp:157] Top shape: 5 1600 (8000)
I1206 23:38:54.870955 14353 net.cpp:165] Memory required for data: 1237908384
I1206 23:38:54.870959 14353 layer_factory.hpp:77] Creating layer conv6_2_mbox_conf
I1206 23:38:54.870965 14353 net.cpp:100] Creating Layer conv6_2_mbox_conf
I1206 23:38:54.870968 14353 net.cpp:434] conv6_2_mbox_conf <- conv6_2_conv6_2_relu_0_split_2
I1206 23:38:54.870972 14353 net.cpp:408] conv6_2_mbox_conf -> conv6_2_mbox_conf
I1206 23:38:54.872505 14353 net.cpp:150] Setting up conv6_2_mbox_conf
I1206 23:38:54.872519 14353 net.cpp:157] Top shape: 5 8 10 10 (4000)
I1206 23:38:54.872521 14353 net.cpp:165] Memory required for data: 1237924384
I1206 23:38:54.872527 14353 layer_factory.hpp:77] Creating layer conv6_2_mbox_conf_perm
I1206 23:38:54.872534 14353 net.cpp:100] Creating Layer conv6_2_mbox_conf_perm
I1206 23:38:54.872536 14353 net.cpp:434] conv6_2_mbox_conf_perm <- conv6_2_mbox_conf
I1206 23:38:54.872541 14353 net.cpp:408] conv6_2_mbox_conf_perm -> conv6_2_mbox_conf_perm
I1206 23:38:54.872663 14353 net.cpp:150] Setting up conv6_2_mbox_conf_perm
I1206 23:38:54.872668 14353 net.cpp:157] Top shape: 5 10 10 8 (4000)
I1206 23:38:54.872671 14353 net.cpp:165] Memory required for data: 1237940384
I1206 23:38:54.872674 14353 layer_factory.hpp:77] Creating layer conv6_2_mbox_conf_flat
I1206 23:38:54.872678 14353 net.cpp:100] Creating Layer conv6_2_mbox_conf_flat
I1206 23:38:54.872681 14353 net.cpp:434] conv6_2_mbox_conf_flat <- conv6_2_mbox_conf_perm
I1206 23:38:54.872685 14353 net.cpp:408] conv6_2_mbox_conf_flat -> conv6_2_mbox_conf_flat
I1206 23:38:54.872709 14353 net.cpp:150] Setting up conv6_2_mbox_conf_flat
I1206 23:38:54.872714 14353 net.cpp:157] Top shape: 5 800 (4000)
I1206 23:38:54.872716 14353 net.cpp:165] Memory required for data: 1237956384
I1206 23:38:54.872720 14353 layer_factory.hpp:77] Creating layer conv6_2_mbox_priorbox
I1206 23:38:54.872725 14353 net.cpp:100] Creating Layer conv6_2_mbox_priorbox
I1206 23:38:54.872727 14353 net.cpp:434] conv6_2_mbox_priorbox <- conv6_2_conv6_2_relu_0_split_3
I1206 23:38:54.872731 14353 net.cpp:434] conv6_2_mbox_priorbox <- data_data_0_split_3
I1206 23:38:54.872735 14353 net.cpp:408] conv6_2_mbox_priorbox -> conv6_2_mbox_priorbox
I1206 23:38:54.872761 14353 net.cpp:150] Setting up conv6_2_mbox_priorbox
I1206 23:38:54.872767 14353 net.cpp:157] Top shape: 1 2 1600 (3200)
I1206 23:38:54.872769 14353 net.cpp:165] Memory required for data: 1237969184
I1206 23:38:54.872772 14353 layer_factory.hpp:77] Creating layer conv7_2_mbox_loc
I1206 23:38:54.872778 14353 net.cpp:100] Creating Layer conv7_2_mbox_loc
I1206 23:38:54.872783 14353 net.cpp:434] conv7_2_mbox_loc <- conv7_2_conv7_2_relu_0_split_1
I1206 23:38:54.872787 14353 net.cpp:408] conv7_2_mbox_loc -> conv7_2_mbox_loc
I1206 23:38:54.873904 14353 net.cpp:150] Setting up conv7_2_mbox_loc
I1206 23:38:54.873915 14353 net.cpp:157] Top shape: 5 16 5 5 (2000)
I1206 23:38:54.873919 14353 net.cpp:165] Memory required for data: 1237977184
I1206 23:38:54.873924 14353 layer_factory.hpp:77] Creating layer conv7_2_mbox_loc_perm
I1206 23:38:54.873929 14353 net.cpp:100] Creating Layer conv7_2_mbox_loc_perm
I1206 23:38:54.873934 14353 net.cpp:434] conv7_2_mbox_loc_perm <- conv7_2_mbox_loc
I1206 23:38:54.873939 14353 net.cpp:408] conv7_2_mbox_loc_perm -> conv7_2_mbox_loc_perm
I1206 23:38:54.874059 14353 net.cpp:150] Setting up conv7_2_mbox_loc_perm
I1206 23:38:54.874065 14353 net.cpp:157] Top shape: 5 5 5 16 (2000)
I1206 23:38:54.874068 14353 net.cpp:165] Memory required for data: 1237985184
I1206 23:38:54.874070 14353 layer_factory.hpp:77] Creating layer conv7_2_mbox_loc_flat
I1206 23:38:54.874074 14353 net.cpp:100] Creating Layer conv7_2_mbox_loc_flat
I1206 23:38:54.874086 14353 net.cpp:434] conv7_2_mbox_loc_flat <- conv7_2_mbox_loc_perm
I1206 23:38:54.874091 14353 net.cpp:408] conv7_2_mbox_loc_flat -> conv7_2_mbox_loc_flat
I1206 23:38:54.874115 14353 net.cpp:150] Setting up conv7_2_mbox_loc_flat
I1206 23:38:54.874120 14353 net.cpp:157] Top shape: 5 400 (2000)
I1206 23:38:54.874124 14353 net.cpp:165] Memory required for data: 1237993184
I1206 23:38:54.874126 14353 layer_factory.hpp:77] Creating layer conv7_2_mbox_conf
I1206 23:38:54.874132 14353 net.cpp:100] Creating Layer conv7_2_mbox_conf
I1206 23:38:54.874136 14353 net.cpp:434] conv7_2_mbox_conf <- conv7_2_conv7_2_relu_0_split_2
I1206 23:38:54.874141 14353 net.cpp:408] conv7_2_mbox_conf -> conv7_2_mbox_conf
I1206 23:38:54.875241 14353 net.cpp:150] Setting up conv7_2_mbox_conf
I1206 23:38:54.875252 14353 net.cpp:157] Top shape: 5 8 5 5 (1000)
I1206 23:38:54.875254 14353 net.cpp:165] Memory required for data: 1237997184
I1206 23:38:54.875260 14353 layer_factory.hpp:77] Creating layer conv7_2_mbox_conf_perm
I1206 23:38:54.875267 14353 net.cpp:100] Creating Layer conv7_2_mbox_conf_perm
I1206 23:38:54.875270 14353 net.cpp:434] conv7_2_mbox_conf_perm <- conv7_2_mbox_conf
I1206 23:38:54.875275 14353 net.cpp:408] conv7_2_mbox_conf_perm -> conv7_2_mbox_conf_perm
I1206 23:38:54.875396 14353 net.cpp:150] Setting up conv7_2_mbox_conf_perm
I1206 23:38:54.875402 14353 net.cpp:157] Top shape: 5 5 5 8 (1000)
I1206 23:38:54.875406 14353 net.cpp:165] Memory required for data: 1238001184
I1206 23:38:54.875407 14353 layer_factory.hpp:77] Creating layer conv7_2_mbox_conf_flat
I1206 23:38:54.875412 14353 net.cpp:100] Creating Layer conv7_2_mbox_conf_flat
I1206 23:38:54.875416 14353 net.cpp:434] conv7_2_mbox_conf_flat <- conv7_2_mbox_conf_perm
I1206 23:38:54.875418 14353 net.cpp:408] conv7_2_mbox_conf_flat -> conv7_2_mbox_conf_flat
I1206 23:38:54.875442 14353 net.cpp:150] Setting up conv7_2_mbox_conf_flat
I1206 23:38:54.875447 14353 net.cpp:157] Top shape: 5 200 (1000)
I1206 23:38:54.875450 14353 net.cpp:165] Memory required for data: 1238005184
I1206 23:38:54.875452 14353 layer_factory.hpp:77] Creating layer conv7_2_mbox_priorbox
I1206 23:38:54.875458 14353 net.cpp:100] Creating Layer conv7_2_mbox_priorbox
I1206 23:38:54.875460 14353 net.cpp:434] conv7_2_mbox_priorbox <- conv7_2_conv7_2_relu_0_split_3
I1206 23:38:54.875464 14353 net.cpp:434] conv7_2_mbox_priorbox <- data_data_0_split_4
I1206 23:38:54.875468 14353 net.cpp:408] conv7_2_mbox_priorbox -> conv7_2_mbox_priorbox
I1206 23:38:54.875494 14353 net.cpp:150] Setting up conv7_2_mbox_priorbox
I1206 23:38:54.875497 14353 net.cpp:157] Top shape: 1 2 400 (800)
I1206 23:38:54.875500 14353 net.cpp:165] Memory required for data: 1238008384
I1206 23:38:54.875502 14353 layer_factory.hpp:77] Creating layer conv8_2_mbox_loc
I1206 23:38:54.875509 14353 net.cpp:100] Creating Layer conv8_2_mbox_loc
I1206 23:38:54.875512 14353 net.cpp:434] conv8_2_mbox_loc <- conv8_2_conv8_2_relu_0_split_1
I1206 23:38:54.875516 14353 net.cpp:408] conv8_2_mbox_loc -> conv8_2_mbox_loc
I1206 23:38:54.876667 14353 net.cpp:150] Setting up conv8_2_mbox_loc
I1206 23:38:54.876675 14353 net.cpp:157] Top shape: 5 12 3 3 (540)
I1206 23:38:54.876678 14353 net.cpp:165] Memory required for data: 1238010544
I1206 23:38:54.876689 14353 layer_factory.hpp:77] Creating layer conv8_2_mbox_loc_perm
I1206 23:38:54.876695 14353 net.cpp:100] Creating Layer conv8_2_mbox_loc_perm
I1206 23:38:54.876698 14353 net.cpp:434] conv8_2_mbox_loc_perm <- conv8_2_mbox_loc
I1206 23:38:54.876703 14353 net.cpp:408] conv8_2_mbox_loc_perm -> conv8_2_mbox_loc_perm
I1206 23:38:54.876828 14353 net.cpp:150] Setting up conv8_2_mbox_loc_perm
I1206 23:38:54.876833 14353 net.cpp:157] Top shape: 5 3 3 12 (540)
I1206 23:38:54.876835 14353 net.cpp:165] Memory required for data: 1238012704
I1206 23:38:54.876838 14353 layer_factory.hpp:77] Creating layer conv8_2_mbox_loc_flat
I1206 23:38:54.876850 14353 net.cpp:100] Creating Layer conv8_2_mbox_loc_flat
I1206 23:38:54.876853 14353 net.cpp:434] conv8_2_mbox_loc_flat <- conv8_2_mbox_loc_perm
I1206 23:38:54.876857 14353 net.cpp:408] conv8_2_mbox_loc_flat -> conv8_2_mbox_loc_flat
I1206 23:38:54.876891 14353 net.cpp:150] Setting up conv8_2_mbox_loc_flat
I1206 23:38:54.876896 14353 net.cpp:157] Top shape: 5 108 (540)
I1206 23:38:54.876899 14353 net.cpp:165] Memory required for data: 1238014864
I1206 23:38:54.876901 14353 layer_factory.hpp:77] Creating layer conv8_2_mbox_conf
I1206 23:38:54.876907 14353 net.cpp:100] Creating Layer conv8_2_mbox_conf
I1206 23:38:54.876910 14353 net.cpp:434] conv8_2_mbox_conf <- conv8_2_conv8_2_relu_0_split_2
I1206 23:38:54.876915 14353 net.cpp:408] conv8_2_mbox_conf -> conv8_2_mbox_conf
I1206 23:38:54.878008 14353 net.cpp:150] Setting up conv8_2_mbox_conf
I1206 23:38:54.878016 14353 net.cpp:157] Top shape: 5 6 3 3 (270)
I1206 23:38:54.878020 14353 net.cpp:165] Memory required for data: 1238015944
I1206 23:38:54.878024 14353 layer_factory.hpp:77] Creating layer conv8_2_mbox_conf_perm
I1206 23:38:54.878029 14353 net.cpp:100] Creating Layer conv8_2_mbox_conf_perm
I1206 23:38:54.878033 14353 net.cpp:434] conv8_2_mbox_conf_perm <- conv8_2_mbox_conf
I1206 23:38:54.878037 14353 net.cpp:408] conv8_2_mbox_conf_perm -> conv8_2_mbox_conf_perm
I1206 23:38:54.878161 14353 net.cpp:150] Setting up conv8_2_mbox_conf_perm
I1206 23:38:54.878166 14353 net.cpp:157] Top shape: 5 3 3 6 (270)
I1206 23:38:54.878168 14353 net.cpp:165] Memory required for data: 1238017024
I1206 23:38:54.878171 14353 layer_factory.hpp:77] Creating layer conv8_2_mbox_conf_flat
I1206 23:38:54.878175 14353 net.cpp:100] Creating Layer conv8_2_mbox_conf_flat
I1206 23:38:54.878178 14353 net.cpp:434] conv8_2_mbox_conf_flat <- conv8_2_mbox_conf_perm
I1206 23:38:54.878182 14353 net.cpp:408] conv8_2_mbox_conf_flat -> conv8_2_mbox_conf_flat
I1206 23:38:54.878206 14353 net.cpp:150] Setting up conv8_2_mbox_conf_flat
I1206 23:38:54.878211 14353 net.cpp:157] Top shape: 5 54 (270)
I1206 23:38:54.878212 14353 net.cpp:165] Memory required for data: 1238018104
I1206 23:38:54.878216 14353 layer_factory.hpp:77] Creating layer conv8_2_mbox_priorbox
I1206 23:38:54.878219 14353 net.cpp:100] Creating Layer conv8_2_mbox_priorbox
I1206 23:38:54.878222 14353 net.cpp:434] conv8_2_mbox_priorbox <- conv8_2_conv8_2_relu_0_split_3
I1206 23:38:54.878226 14353 net.cpp:434] conv8_2_mbox_priorbox <- data_data_0_split_5
I1206 23:38:54.878231 14353 net.cpp:408] conv8_2_mbox_priorbox -> conv8_2_mbox_priorbox
I1206 23:38:54.878257 14353 net.cpp:150] Setting up conv8_2_mbox_priorbox
I1206 23:38:54.878260 14353 net.cpp:157] Top shape: 1 2 108 (216)
I1206 23:38:54.878263 14353 net.cpp:165] Memory required for data: 1238018968
I1206 23:38:54.878267 14353 layer_factory.hpp:77] Creating layer conv9_2_mbox_loc
I1206 23:38:54.878273 14353 net.cpp:100] Creating Layer conv9_2_mbox_loc
I1206 23:38:54.878275 14353 net.cpp:434] conv9_2_mbox_loc <- conv9_2_conv9_2_relu_0_split_0
I1206 23:38:54.878280 14353 net.cpp:408] conv9_2_mbox_loc -> conv9_2_mbox_loc
I1206 23:38:54.879525 14353 net.cpp:150] Setting up conv9_2_mbox_loc
I1206 23:38:54.879534 14353 net.cpp:157] Top shape: 5 12 1 1 (60)
I1206 23:38:54.879537 14353 net.cpp:165] Memory required for data: 1238019208
I1206 23:38:54.879542 14353 layer_factory.hpp:77] Creating layer conv9_2_mbox_loc_perm
I1206 23:38:54.879547 14353 net.cpp:100] Creating Layer conv9_2_mbox_loc_perm
I1206 23:38:54.879550 14353 net.cpp:434] conv9_2_mbox_loc_perm <- conv9_2_mbox_loc
I1206 23:38:54.879554 14353 net.cpp:408] conv9_2_mbox_loc_perm -> conv9_2_mbox_loc_perm
I1206 23:38:54.879676 14353 net.cpp:150] Setting up conv9_2_mbox_loc_perm
I1206 23:38:54.879681 14353 net.cpp:157] Top shape: 5 1 1 12 (60)
I1206 23:38:54.879684 14353 net.cpp:165] Memory required for data: 1238019448
I1206 23:38:54.879688 14353 layer_factory.hpp:77] Creating layer conv9_2_mbox_loc_flat
I1206 23:38:54.879691 14353 net.cpp:100] Creating Layer conv9_2_mbox_loc_flat
I1206 23:38:54.879694 14353 net.cpp:434] conv9_2_mbox_loc_flat <- conv9_2_mbox_loc_perm
I1206 23:38:54.879698 14353 net.cpp:408] conv9_2_mbox_loc_flat -> conv9_2_mbox_loc_flat
I1206 23:38:54.879720 14353 net.cpp:150] Setting up conv9_2_mbox_loc_flat
I1206 23:38:54.879731 14353 net.cpp:157] Top shape: 5 12 (60)
I1206 23:38:54.879734 14353 net.cpp:165] Memory required for data: 1238019688
I1206 23:38:54.879737 14353 layer_factory.hpp:77] Creating layer conv9_2_mbox_conf
I1206 23:38:54.879743 14353 net.cpp:100] Creating Layer conv9_2_mbox_conf
I1206 23:38:54.879746 14353 net.cpp:434] conv9_2_mbox_conf <- conv9_2_conv9_2_relu_0_split_1
I1206 23:38:54.879750 14353 net.cpp:408] conv9_2_mbox_conf -> conv9_2_mbox_conf
I1206 23:38:54.880755 14353 net.cpp:150] Setting up conv9_2_mbox_conf
I1206 23:38:54.880764 14353 net.cpp:157] Top shape: 5 6 1 1 (30)
I1206 23:38:54.880766 14353 net.cpp:165] Memory required for data: 1238019808
I1206 23:38:54.880772 14353 layer_factory.hpp:77] Creating layer conv9_2_mbox_conf_perm
I1206 23:38:54.880777 14353 net.cpp:100] Creating Layer conv9_2_mbox_conf_perm
I1206 23:38:54.880780 14353 net.cpp:434] conv9_2_mbox_conf_perm <- conv9_2_mbox_conf
I1206 23:38:54.880784 14353 net.cpp:408] conv9_2_mbox_conf_perm -> conv9_2_mbox_conf_perm
I1206 23:38:54.880916 14353 net.cpp:150] Setting up conv9_2_mbox_conf_perm
I1206 23:38:54.880921 14353 net.cpp:157] Top shape: 5 1 1 6 (30)
I1206 23:38:54.880923 14353 net.cpp:165] Memory required for data: 1238019928
I1206 23:38:54.880926 14353 layer_factory.hpp:77] Creating layer conv9_2_mbox_conf_flat
I1206 23:38:54.880930 14353 net.cpp:100] Creating Layer conv9_2_mbox_conf_flat
I1206 23:38:54.880934 14353 net.cpp:434] conv9_2_mbox_conf_flat <- conv9_2_mbox_conf_perm
I1206 23:38:54.880937 14353 net.cpp:408] conv9_2_mbox_conf_flat -> conv9_2_mbox_conf_flat
I1206 23:38:54.880961 14353 net.cpp:150] Setting up conv9_2_mbox_conf_flat
I1206 23:38:54.880965 14353 net.cpp:157] Top shape: 5 6 (30)
I1206 23:38:54.880969 14353 net.cpp:165] Memory required for data: 1238020048
I1206 23:38:54.880970 14353 layer_factory.hpp:77] Creating layer conv9_2_mbox_priorbox
I1206 23:38:54.880975 14353 net.cpp:100] Creating Layer conv9_2_mbox_priorbox
I1206 23:38:54.880978 14353 net.cpp:434] conv9_2_mbox_priorbox <- conv9_2_conv9_2_relu_0_split_2
I1206 23:38:54.880982 14353 net.cpp:434] conv9_2_mbox_priorbox <- data_data_0_split_6
I1206 23:38:54.880986 14353 net.cpp:408] conv9_2_mbox_priorbox -> conv9_2_mbox_priorbox
I1206 23:38:54.881012 14353 net.cpp:150] Setting up conv9_2_mbox_priorbox
I1206 23:38:54.881016 14353 net.cpp:157] Top shape: 1 2 12 (24)
I1206 23:38:54.881019 14353 net.cpp:165] Memory required for data: 1238020144
I1206 23:38:54.881022 14353 layer_factory.hpp:77] Creating layer mbox_loc
I1206 23:38:54.881031 14353 net.cpp:100] Creating Layer mbox_loc
I1206 23:38:54.881034 14353 net.cpp:434] mbox_loc <- conv4_3_norm_mbox_loc_flat
I1206 23:38:54.881038 14353 net.cpp:434] mbox_loc <- fc7_mbox_loc_flat
I1206 23:38:54.881042 14353 net.cpp:434] mbox_loc <- conv6_2_mbox_loc_flat
I1206 23:38:54.881047 14353 net.cpp:434] mbox_loc <- conv7_2_mbox_loc_flat
I1206 23:38:54.881049 14353 net.cpp:434] mbox_loc <- conv8_2_mbox_loc_flat
I1206 23:38:54.881052 14353 net.cpp:434] mbox_loc <- conv9_2_mbox_loc_flat
I1206 23:38:54.881057 14353 net.cpp:408] mbox_loc -> mbox_loc
I1206 23:38:54.881083 14353 net.cpp:150] Setting up mbox_loc
I1206 23:38:54.881086 14353 net.cpp:157] Top shape: 5 25224 (126120)
I1206 23:38:54.881089 14353 net.cpp:165] Memory required for data: 1238524624
I1206 23:38:54.881093 14353 layer_factory.hpp:77] Creating layer mbox_conf
I1206 23:38:54.881096 14353 net.cpp:100] Creating Layer mbox_conf
I1206 23:38:54.881099 14353 net.cpp:434] mbox_conf <- conv4_3_norm_mbox_conf_flat
I1206 23:38:54.881103 14353 net.cpp:434] mbox_conf <- fc7_mbox_conf_flat
I1206 23:38:54.881106 14353 net.cpp:434] mbox_conf <- conv6_2_mbox_conf_flat
I1206 23:38:54.881109 14353 net.cpp:434] mbox_conf <- conv7_2_mbox_conf_flat
I1206 23:38:54.881114 14353 net.cpp:434] mbox_conf <- conv8_2_mbox_conf_flat
I1206 23:38:54.881116 14353 net.cpp:434] mbox_conf <- conv9_2_mbox_conf_flat
I1206 23:38:54.881121 14353 net.cpp:408] mbox_conf -> mbox_conf
I1206 23:38:54.881145 14353 net.cpp:150] Setting up mbox_conf
I1206 23:38:54.881150 14353 net.cpp:157] Top shape: 5 12612 (63060)
I1206 23:38:54.881160 14353 net.cpp:165] Memory required for data: 1238776864
I1206 23:38:54.881162 14353 layer_factory.hpp:77] Creating layer mbox_priorbox
I1206 23:38:54.881166 14353 net.cpp:100] Creating Layer mbox_priorbox
I1206 23:38:54.881170 14353 net.cpp:434] mbox_priorbox <- conv4_3_norm_mbox_priorbox
I1206 23:38:54.881172 14353 net.cpp:434] mbox_priorbox <- fc7_mbox_priorbox
I1206 23:38:54.881176 14353 net.cpp:434] mbox_priorbox <- conv6_2_mbox_priorbox
I1206 23:38:54.881180 14353 net.cpp:434] mbox_priorbox <- conv7_2_mbox_priorbox
I1206 23:38:54.881182 14353 net.cpp:434] mbox_priorbox <- conv8_2_mbox_priorbox
I1206 23:38:54.881186 14353 net.cpp:434] mbox_priorbox <- conv9_2_mbox_priorbox
I1206 23:38:54.881189 14353 net.cpp:408] mbox_priorbox -> mbox_priorbox
I1206 23:38:54.881214 14353 net.cpp:150] Setting up mbox_priorbox
I1206 23:38:54.881219 14353 net.cpp:157] Top shape: 1 2 25224 (50448)
I1206 23:38:54.881222 14353 net.cpp:165] Memory required for data: 1238978656
I1206 23:38:54.881224 14353 layer_factory.hpp:77] Creating layer mbox_conf_reshape
I1206 23:38:54.881229 14353 net.cpp:100] Creating Layer mbox_conf_reshape
I1206 23:38:54.881232 14353 net.cpp:434] mbox_conf_reshape <- mbox_conf
I1206 23:38:54.881237 14353 net.cpp:408] mbox_conf_reshape -> mbox_conf_reshape
I1206 23:38:54.881268 14353 net.cpp:150] Setting up mbox_conf_reshape
I1206 23:38:54.881273 14353 net.cpp:157] Top shape: 5 6306 2 (63060)
I1206 23:38:54.881275 14353 net.cpp:165] Memory required for data: 1239230896
I1206 23:38:54.881278 14353 layer_factory.hpp:77] Creating layer mbox_conf_softmax
I1206 23:38:54.881283 14353 net.cpp:100] Creating Layer mbox_conf_softmax
I1206 23:38:54.881285 14353 net.cpp:434] mbox_conf_softmax <- mbox_conf_reshape
I1206 23:38:54.881289 14353 net.cpp:408] mbox_conf_softmax -> mbox_conf_softmax
I1206 23:38:54.881614 14353 net.cpp:150] Setting up mbox_conf_softmax
I1206 23:38:54.881623 14353 net.cpp:157] Top shape: 5 6306 2 (63060)
I1206 23:38:54.881625 14353 net.cpp:165] Memory required for data: 1239483136
I1206 23:38:54.881628 14353 layer_factory.hpp:77] Creating layer mbox_conf_flatten
I1206 23:38:54.881633 14353 net.cpp:100] Creating Layer mbox_conf_flatten
I1206 23:38:54.881649 14353 net.cpp:434] mbox_conf_flatten <- mbox_conf_softmax
I1206 23:38:54.881654 14353 net.cpp:408] mbox_conf_flatten -> mbox_conf_flatten
I1206 23:38:54.881678 14353 net.cpp:150] Setting up mbox_conf_flatten
I1206 23:38:54.881682 14353 net.cpp:157] Top shape: 5 12612 (63060)
I1206 23:38:54.881685 14353 net.cpp:165] Memory required for data: 1239735376
I1206 23:38:54.881687 14353 layer_factory.hpp:77] Creating layer detection_out
I1206 23:38:54.881701 14353 net.cpp:100] Creating Layer detection_out
I1206 23:38:54.881705 14353 net.cpp:434] detection_out <- mbox_loc
I1206 23:38:54.881708 14353 net.cpp:434] detection_out <- mbox_conf_flatten
I1206 23:38:54.881711 14353 net.cpp:434] detection_out <- mbox_priorbox
I1206 23:38:54.881716 14353 net.cpp:408] detection_out -> detection_out
I1206 23:38:54.882179 14353 net.cpp:150] Setting up detection_out
I1206 23:38:54.882187 14353 net.cpp:157] Top shape: 1 1 1 7 (7)
I1206 23:38:54.882190 14353 net.cpp:165] Memory required for data: 1239735404
I1206 23:38:54.882194 14353 layer_factory.hpp:77] Creating layer detection_eval
I1206 23:38:54.882200 14353 net.cpp:100] Creating Layer detection_eval
I1206 23:38:54.882202 14353 net.cpp:434] detection_eval <- detection_out
I1206 23:38:54.882206 14353 net.cpp:434] detection_eval <- label
I1206 23:38:54.882210 14353 net.cpp:408] detection_eval -> detection_eval
I1206 23:38:54.882306 14353 net.cpp:150] Setting up detection_eval
I1206 23:38:54.882313 14353 net.cpp:157] Top shape: 1 1 2 5 (10)
I1206 23:38:54.882314 14353 net.cpp:165] Memory required for data: 1239735444
I1206 23:38:54.882318 14353 net.cpp:228] detection_eval does not need backward computation.
I1206 23:38:54.882320 14353 net.cpp:228] detection_out does not need backward computation.
I1206 23:38:54.882323 14353 net.cpp:228] mbox_conf_flatten does not need backward computation.
I1206 23:38:54.882333 14353 net.cpp:228] mbox_conf_softmax does not need backward computation.
…
