…
      sampler {
        min_scale: 0.3
        max_scale: 1
        min_aspect_ratio: 0.5
        max_aspect_ratio: 2
      }
      sample_constraint {
        min_jaccard_overlap: 0.9
      }
      max_sample: 1
      max_trials: 50
    }
    batch_sampler {
      sampler {
        min_scale: 0.3
        max_scale: 1
        min_aspect_ratio: 0.5
        max_aspect_ratio: 2
      }
      sample_constraint {
        max_jaccard_overlap: 1
      }
      max_sample: 1
      max_trials: 50
    }
    label_map_file: "data/VOC0712/labelmap_voc.prototxt"
  }
}
layer {
  name: "conv1_1"
  type: "Convolution"
  bottom: "data"
  top: "conv1_1"
  param {
    lr_mult: 1
    decay_mult: 1
  }
  param {
    lr_mult: 2
    decay_mult: 0
  }
  convolution_param {
    num_output: 64
    pad: 1
    kernel_size: 3
    weight_filler {
      type: "xavier"
    }
    bias_filler {
      type: "constant"
      value: 0
    }
  }
}
layer {
  name: "relu1_1"
  type: "ReLU"
  bottom: "conv1_1"
  top: "conv1_1"
}
layer {
  name: "conv1_2"
  type: "Convolution"
  bottom: "conv1_1"
  top: "conv1_2"
  param {
    lr_mult: 1
    decay_mult: 1
  }
  param {
    lr_mult: 2
    decay_mult: 0
  }
  convolution_param {
    num_output: 64
    pad: 1
    kernel_size: 3
    weight_filler {
      type: "xavier"
    }
    bias_filler {
      type: "constant"
      value: 0
    }
  }
}
layer {
  name: "relu1_2"
  type: "ReLU"
  bottom: "conv1_2"
  top: "conv1_2"
}
layer {
  name: "pool1"
  type: "Pooling"
  bottom: "conv1_2"
  top: "pool1"
  pooling_param {
    pool: MAX
    kernel_size: 2
    stride: 2
  }
}
layer {
  name: "conv2_1"
  type: "Convolution"
  bottom: "pool1"
  top: "conv2_1"
  param {
    lr_mult: 1
    decay_mult: 1
  }
  param {
    lr_mult: 2
    decay_mult: 0
  }
  convolution_param {
    num_output: 128
    pad: 1
    kernel_size: 3
    weight_filler {
      type: "xavier"
    }
    bias_filler {
      type: "constant"
      value: 0
    }
  }
}
layer {
  name: "relu2_1"
  type: "ReLU"
  bottom: "conv2_1"
  top: "conv2_1"
}
layer {
  name: "conv2_2"
  type: "Convolution"
  bottom: "conv2_1"
  top: "conv2_2"
  param {
    lr_mult: 1
    decay_mult: 1
  }
  param {
    lr_mult: 2
    decay_mult: 0
  }
  convolution_param {
    num_output: 128
    pad: 1
    kernel_size: 3
    weight_filler {
      type: "xavier"
    }
    bias_filler {
      type: "constant"
      value: 0
    }
  }
}
layer {
  name: "relu2_2"
  type: "ReLU"
  bottom: "conv2_2"
  top: "conv2_2"
}
layer {
  name: "pool2"
  type: "Pooling"
  bottom: "conv2_2"
  top: "pool2"
  pooling_param {
    pool: MAX
    kernel_size: 2
    stride: 2
  }
}
layer {
  name: "conv3_1"
  type: "Convolution"
  bottom: "pool2"
  top: "conv3_1"
  param {
    lr_mult: 1
    decay_mult: 1
  }
  param {
    lr_mult: 2
    decay_mult: 0
  }
  convolution_param {
    num_output: 256
    pad: 1
    kernel_size: 3
    weight_filler {
      type: "xavier"
    }
    bias_filler {
      type: "constant"
      value: 0
    }
  }
}
layer {
  name: "relu3_1"
  type: "ReLU"
  bottom: "conv3_1"
  top: "conv3_1"
}
layer {
  name: "conv3_2"
  type: "Convolution"
  bottom: "conv3_1"
  top: "conv3_2"
  param {
    lr_mult: 1
    decay_mult: 1
  }
  param {
    lr_mult: 2
    decay_mult: 0
  }
  convolution_param {
    num_output: 256
    pad: 1
    kernel_size: 3
    weight_filler {
      type: "xavier"
    }
    bias_filler {
      type: "constant"
      value: 0
    }
  }
}
layer {
  name: "relu3_2"
  type: "ReLU"
  bottom: "conv3_2"
  top: "conv3_2"
}
layer {
  name: "conv3_3"
  type: "Convolution"
  bottom: "conv3_2"
  top: "conv3_3"
  param {
    lr_mult: 1
    decay_mult: 1
  }
  param {
    lr_mult: 2
    decay_mult: 0
  }
  convolution_param {
    num_output: 256
    pad: 1
    kernel_size: 3
    weight_filler {
      type: "xavier"
    }
    bias_filler {
      type: "constant"
      value: 0
    }
  }
}
layer {
  name: "relu3_3"
  type: "ReLU"
  bottom: "conv3_3"
  top: "conv3_3"
}
layer {
  name: "pool3"
  type: "Pooling"
  bottom: "conv3_3"
  top: "pool3"
  pooling_param {
    pool: MAX
    kernel_size: 2
    stride: 2
  }
}
layer {
  name: "conv4_1"
  type: "Convolution"
  bottom: "pool3"
  top: "conv4_1"
  param {
    lr_mult: 1
    decay_mult: 1
  }
  param {
    lr_mult: 2
    decay_mult: 0
  }
  convolution_param {
    num_output: 512
    pad: 1
    kernel_size: 3
    weight_filler {
      type: "xavier"
    }
    bias_filler {
      type: "constant"
      value: 0
    }
  }
}
layer {
  name: "relu4_1"
  type: "ReLU"
  bottom: "conv4_1"
  top: "conv4_1"
}
layer {
  name: "conv4_2"
  type: "Convolution"
  bottom: "conv4_1"
  top: "conv4_2"
  param {
    lr_mult: 1
    decay_mult: 1
  }
  param {
    lr_mult: 2
    decay_mult: 0
  }
  convolution_param {
    num_output: 512
    pad: 1
    kernel_size: 3
    weight_filler {
      type: "xavier"
    }
    bias_filler {
      type: "constant"
      value: 0
    }
  }
}
layer {
  name: "relu4_2"
  type: "ReLU"
  bottom: "conv4_2"
  top: "conv4_2"
}
layer {
  name: "conv4_3"
  type: "Convolution"
  bottom: "conv4_2"
  top: "conv4_3"
  param {
    lr_mult: 1
    decay_mult: 1
  }
  param {
    lr_mult: 2
    decay_mult: 0
  }
  convolution_param {
    num_output: 512
    pad: 1
    kernel_size: 3
    weight_filler {
      type: "xavier"
    }
    bias_filler {
      type: "constant"
      value: 0
    }
  }
}
layer {
  name: "relu4_3"
  type: "ReLU"
  bottom: "conv4_3"
  top: "conv4_3"
}
layer {
  name: "pool4"
  type: "Pooling"
  bottom: "conv4_3"
  top: "pool4"
  pooling_param {
    pool: MAX
    kernel_size: 2
    stride: 2
  }
}
layer {
  name: "conv5_1"
  type: "Convolution"
  bottom: "pool4"
  top: "conv5_1"
  param {
    lr_mult: 1
    decay_mult: 1
  }
  param {
    lr_mult: 2
    decay_mult: 0
  }
  convolution_param {
    num_output: 512
    pad: 1
    kernel_size: 3
    weight_filler {
      type: "xavier"
    }
    bias_filler {
      type: "constant"
      value: 0
    }
    dilation: 1
  }
}
layer {
  name: "relu5_1"
  type: "ReLU"
  bottom: "conv5_1"
  top: "conv5_1"
}
layer {
  name: "conv5_2"
  type: "Convolution"
  bottom: "conv5_1"
  top: "conv5_2"
  param {
    lr_mult: 1
    decay_mult: 1
  }
  param {
    lr_mult: 2
    decay_mult: 0
  }
  convolution_param {
    num_output: 512
    pad: 1
    kernel_size: 3
    weight_filler {
      type: "xavier"
    }
    bias_filler {
      type: "constant"
      value: 0
    }
    dilation: 1
  }
}
layer {
  name: "relu5_2"
  type: "ReLU"
  bottom: "conv5_2"
  top: "conv5_2"
}
layer {
  name: "conv5_3"
  type: "Convolution"
  bottom: "conv5_2"
  top: "conv5_3"
  param {
    lr_mult: 1
    decay_mult: 1
  }
  param {
    lr_mult: 2
    decay_mult: 0
  }
  convolution_param {
    num_output: 512
    pad: 1
    kernel_size: 3
    weight_filler {
      type: "xavier"
    }
    bias_filler {
      type: "constant"
      value: 0
    }
    dilation: 1
  }
}
layer {
  name: "relu5_3"
  type: "ReLU"
  bottom: "conv5_3"
  top: "conv5_3"
}
layer {
  name: "pool5"
  type: "Pooling"
  bottom: "conv5_3"
  top: "pool5"
  pooling_param {
    pool: MAX
    kernel_size: 3
    stride: 1
    pad: 1
  }
}
layer {
  name: "fc6"
  type: "Convolution"
  bottom: "pool5"
  top: "fc6"
  param {
    lr_mult: 1
    decay_mult: 1
  }
  param {
    lr_mult: 2
    decay_mult: 0
  }
  convolution_param {
    num_output: 1024
    pad: 6
    kernel_size: 3
    weight_filler {
      type: "xavier"
    }
    bias_filler {
      type: "constant"
      value: 0
    }
    dilation: 6
  }
}
layer {
  name: "relu6"
  type: "ReLU"
  bottom: "fc6"
  top: "fc6"
}
layer {
  name: "fc7"
  type: "Convolution"
  bottom: "fc6"
  top: "fc7"
  param {
    lr_mult: 1
    decay_mult: 1
  }
  param {
    lr_mult: 2
    decay_mult: 0
  }
  convolution_param {
    num_output: 1024
    kernel_size: 1
    weight_filler {
      type: "xavier"
    }
    bias_filler {
      type: "constant"
      value: 0
    }
  }
}
layer {
  name: "relu7"
  type: "ReLU"
  bottom: "fc7"
  top: "fc7"
}
layer {
  name: "conv6_1"
  type: "Convolution"
  bottom: "fc7"
  top: "conv6_1"
  param {
    lr_mult: 1
    decay_mult: 1
  }
  param {
    lr_mult: 2
    decay_mult: 0
  }
  convolution_param {
    num_output: 256
    pad: 0
    kernel_size: 1
    stride: 1
    weight_filler {
      type: "xavier"
    }
    bias_filler {
      type: "constant"
      value: 0
    }
  }
}
layer {
  name: "conv6_1_relu"
  type: "ReLU"
  bottom: "conv6_1"
  top: "conv6_1"
}
layer {
  name: "conv6_2"
  type: "Convolution"
  bottom: "conv6_1"
  top: "conv6_2"
  param {
    lr_mult: 1
    decay_mult: 1
  }
  param {
    lr_mult: 2
    decay_mult: 0
  }
  convolution_param {
    num_output: 512
    pad: 1
    kernel_size: 3
    stride: 2
    weight_filler {
      type: "xavier"
    }
    bias_filler {
      type: "constant"
      value: 0
    }
  }
}
layer {
  name: "conv6_2_relu"
  type: "ReLU"
  bottom: "conv6_2"
  top: "conv6_2"
}
layer {
  name: "conv7_1"
  type: "Convolution"
  bottom: "conv6_2"
  top: "conv7_1"
  param {
    lr_mult: 1
    decay_mult: 1
  }
  param {
    lr_mult: 2
    decay_mult: 0
  }
  convolution_param {
    num_output: 128
    pad: 0
    kernel_size: 1
    stride: 1
    weight_filler {
      type: "xavier"
    }
    bias_filler {
      type: "constant"
      value: 0
    }
  }
}
layer {
  name: "conv7_1_relu"
  type: "ReLU"
  bottom: "conv7_1"
  top: "conv7_1"
}
layer {
  name: "conv7_2"
  type: "Convolution"
  bottom: "conv7_1"
  top: "conv7_2"
  param {
    lr_mult: 1
    decay_mult: 1
  }
  param {
    lr_mult: 2
    decay_mult: 0
  }
  convolution_param {
    num_output: 256
    pad: 1
    kernel_size: 3
    stride: 2
    weight_filler {
      type: "xavier"
    }
    bias_filler {
      type: "constant"
      value: 0
    }
  }
}
layer {
  name: "conv7_2_relu"
  type: "ReLU"
  bottom: "conv7_2"
  top: "conv7_2"
}
layer {
  name: "conv8_1"
  type: "Convolution"
  bottom: "conv7_2"
  top: "conv8_1"
  param {
    lr_mult: 1
    decay_mult: 1
  }
  param {
    lr_mult: 2
    decay_mult: 0
  }
  convolution_param {
    num_output: 128
    pad: 0
    kernel_size: 1
    stride: 1
    weight_filler {
      type: "xavier"
    }
    bias_filler {
      type: "constant"
      value: 0
    }
  }
}
layer {
  name: "conv8_1_relu"
  type: "ReLU"
  bottom: "conv8_1"
  top: "conv8_1"
}
layer {
  name: "conv8_2"
  type: "Convolution"
  bottom: "conv8_1"
  top: "conv8_2"
  param {
    lr_mult: 1
    decay_mult: 1
  }
  param {
    lr_mult: 2
    decay_mult: 0
  }
  convolution_param {
    num_output: 256
    pad: 0
    kernel_size: 3
    stride: 1
    weight_filler {
      type: "xavier"
    }
    bias_filler {
      type: "constant"
      value: 0
    }
  }
}
layer {
  name: "conv8_2_relu"
  type: "ReLU"
  bottom: "conv8_2"
  top: "conv8_2"
}
layer {
  name: "conv9_1"
  type: "Convolution"
  bottom: "conv8_2"
  top: "conv9_1"
  param {
    lr_mult: 1
    decay_mult: 1
  }
  param {
    lr_mult: 2
    decay_mult: 0
  }
  convolution_param {
    num_output: 128
    pad: 0
    kernel_size: 1
    stride: 1
    weight_filler {
      type: "xavier"
    }
    bias_filler {
      type: "constant"
      value: 0
    }
  }
}
layer {
  name: "conv9_1_relu"
  type: "ReLU"
  bottom: "conv9_1"
  top: "conv9_1"
}
layer {
  name: "conv9_2"
  type: "Convolution"
  bottom: "conv9_1"
  top: "conv9_2"
  param {
    lr_mult: 1
    decay_mult: 1
  }
  param {
    lr_mult: 2
    decay_mult: 0
  }
  convolution_param {
    num_output: 256
    pad: 0
    kernel_size: 3
    stride: 1
    weight_filler {
      type: "xavier"
    }
    bias_filler {
      type: "constant"
      value: 0
    }
  }
}
layer {
  name: "conv9_2_relu"
  type: "ReLU"
  bottom: "conv9_2"
  top: "conv9_2"
}
layer {
  name: "conv4_3_norm"
  type: "Normalize"
  bottom: "conv4_3"
  top: "conv4_3_norm"
  norm_param {
    across_spatial: false
    scale_filler {
      type: "constant"
      value: 20
    }
    channel_shared: false
  }
}
layer {
  name: "conv4_3_norm_mbox_loc"
  type: "Convolution"
  bottom: "conv4_3_norm"
  top: "conv4_3_norm_mbox_loc"
  param {
    lr_mult: 1
    decay_mult: 1
  }
  param {
    lr_mult: 2
    decay_mult: 0
  }
  convolution_param {
    num_output: 16
    pad: 1
    kernel_size: 3
    stride: 1
    weight_filler {
      type: "xavier"
    }
    bias_filler {
      type: "constant"
      value: 0
    }
  }
}
layer {
  name: "conv4_3_norm_mbox_loc_perm"
  type: "Permute"
  bottom: "conv4_3_norm_mbox_loc"
  top: "conv4_3_norm_mbox_loc_perm"
  permute_param {
    order: 0
    order: 2
    order: 3
    order: 1
  }
}
layer {
  name: "conv4_3_norm_mbox_loc_flat"
  type: "Flatten"
  bottom: "conv4_3_norm_mbox_loc_perm"
  top: "conv4_3_norm_mbox_loc_flat"
  flatten_param {
    axis: 1
  }
}
layer {
  name: "conv4_3_norm_mbox_conf"
  type: "Convolution"
  bottom: "conv4_3_norm"
  top: "conv4_3_norm_mbox_conf"
  param {
    lr_mult: 1
    decay_mult: 1
  }
  param {
    lr_mult: 2
    decay_mult: 0
  }
  convolution_param {
    num_output: 84
    pad: 1
    kernel_size: 3
    stride: 1
    weight_filler {
      type: "xavier"
    }
    bias_filler {
      type: "constant"
      value: 0
    }
  }
}
layer {
  name: "conv4_3_norm_mbox_conf_perm"
  type: "Permute"
  bottom: "conv4_3_norm_mbox_conf"
  top: "conv4_3_norm_mbox_conf_perm"
  permute_param {
    order: 0
    order: 2
    order: 3
    order: 1
  }
}
layer {
  name: "conv4_3_norm_mbox_conf_flat"
  type: "Flatten"
  bottom: "conv4_3_norm_mbox_conf_perm"
  top: "conv4_3_norm_mbox_conf_flat"
  flatten_param {
    axis: 1
  }
}
layer {
  name: "conv4_3_norm_mbox_priorbox"
  type: "PriorBox"
  bottom: "conv4_3_norm"
  bottom: "data"
  top: "conv4_3_norm_mbox_priorbox"
  prior_box_param {
    min_size: 30
    max_size: 60
    aspect_ratio: 2
    flip: true
    clip: false
    variance: 0.1
    variance: 0.1
    variance: 0.2
    variance: 0.2
    step: 8
    offset: 0.5
  }
}
layer {
  name: "fc7_mbox_loc"
  type: "Convolution"
  bottom: "fc7"
  top: "fc7_mbox_loc"
  param {
    lr_mult: 1
    decay_mult: 1
  }
  param {
    lr_mult: 2
    decay_mult: 0
  }
  convolution_param {
    num_output: 24
    pad: 1
    kernel_size: 3
    stride: 1
    weight_filler {
      type: "xavier"
    }
    bias_filler {
      type: "constant"
      value: 0
    }
  }
}
layer {
  name: "fc7_mbox_loc_perm"
  type: "Permute"
  bottom: "fc7_mbox_loc"
  top: "fc7_mbox_loc_perm"
  permute_param {
    order: 0
    order: 2
    order: 3
    order: 1
  }
}
layer {
  name: "fc7_mbox_loc_flat"
  type: "Flatten"
  bottom: "fc7_mbox_loc_perm"
  top: "fc7_mbox_loc_flat"
  flatten_param {
    axis: 1
  }
}
layer {
  name: "fc7_mbox_conf"
  type: "Convolution"
  bottom: "fc7"
  top: "fc7_mbox_conf"
  param {
    lr_mult: 1
    decay_mult: 1
  }
  param {
    lr_mult: 2
    decay_mult: 0
  }
  convolution_param {
    num_output: 126
    pad: 1
    kernel_size: 3
    stride: 1
    weight_filler {
      type: "xavier"
    }
    bias_filler {
      type: "constant"
      value: 0
    }
  }
}
layer {
  name: "fc7_mbox_conf_perm"
  type: "Permute"
  bottom: "fc7_mbox_conf"
  top: "fc7_mbox_conf_perm"
  permute_param {
    order: 0
    order: 2
    order: 3
    order: 1
  }
}
layer {
  name: "fc7_mbox_conf_flat"
  type: "Flatten"
  bottom: "fc7_mbox_conf_perm"
  top: "fc7_mbox_conf_flat"
  flatten_param {
    axis: 1
  }
}
layer {
  name: "fc7_mbox_priorbox"
  type: "PriorBox"
  bottom: "fc7"
  bottom: "data"
  top: "fc7_mbox_priorbox"
  prior_box_param {
    min_size: 60
    max_size: 111
    aspect_ratio: 2
    aspect_ratio: 3
    flip: true
    clip: false
    variance: 0.1
    variance: 0.1
    variance: 0.2
    variance: 0.2
    step: 16
    offset: 0.5
  }
}
layer {
  name: "conv6_2_mbox_loc"
  type: "Convolution"
  bottom: "conv6_2"
  top: "conv6_2_mbox_loc"
  param {
    lr_mult: 1
    decay_mult: 1
  }
  param {
    lr_mult: 2
    decay_mult: 0
  }
  convolution_param {
    num_output: 24
    pad: 1
    kernel_size: 3
    stride: 1
    weight_filler {
      type: "xavier"
    }
    bias_filler {
      type: "constant"
      value: 0
    }
  }
}
layer {
  name: "conv6_2_mbox_loc_perm"
  type: "Permute"
  bottom: "conv6_2_mbox_loc"
  top: "conv6_2_mbox_loc_perm"
  permute_param {
    order: 0
    order: 2
    order: 3
    order: 1
  }
}
layer {
  name: "conv6_2_mbox_loc_flat"
  type: "Flatten"
  bottom: "conv6_2_mbox_loc_perm"
  top: "conv6_2_mbox_loc_flat"
  flatten_param {
    axis: 1
  }
}
layer {
  name: "conv6_2_mbox_conf"
  type: "Convolution"
  bottom: "conv6_2"
  top: "conv6_2_mbox_conf"
  param {
    lr_mult: 1
    decay_mult: 1
  }
  param {
    lr_mult: 2
    decay_mult: 0
  }
  convolution_param {
    num_output: 126
    pad: 1
    kernel_size: 3
    stride: 1
    weight_filler {
      type: "xavier"
    }
    bias_filler {
      type: "constant"
      value: 0
    }
  }
}
layer {
  name: "conv6_2_mbox_conf_perm"
  type: "Permute"
  bottom: "conv6_2_mbox_conf"
  top: "conv6_2_mbox_conf_perm"
  permute_param {
    order: 0
    order: 2
    order: 3
    order: 1
  }
}
layer {
  name: "conv6_2_mbox_conf_flat"
  type: "Flatten"
  bottom: "conv6_2_mbox_conf_perm"
  top: "conv6_2_mbox_conf_flat"
  flatten_param {
    axis: 1
  }
}
layer {
  name: "conv6_2_mbox_priorbox"
  type: "PriorBox"
  bottom: "conv6_2"
  bottom: "data"
  top: "conv6_2_mbox_priorbox"
  prior_box_param {
    min_size: 111
    max_size: 162
    aspect_ratio: 2
    aspect_ratio: 3
    flip: true
    clip: false
    variance: 0.1
    variance: 0.1
    variance: 0.2
    variance: 0.2
    step: 32
    offset: 0.5
  }
}
layer {
  name: "conv7_2_mbox_loc"
  type: "Convolution"
  bottom: "conv7_2"
  top: "conv7_2_mbox_loc"
  param {
    lr_mult: 1
    decay_mult: 1
  }
  param {
    lr_mult: 2
    decay_mult: 0
  }
  convolution_param {
    num_output: 24
    pad: 1
    kernel_size: 3
    stride: 1
    weight_filler {
      type: "xavier"
    }
    bias_filler {
      type: "constant"
      value: 0
    }
  }
}
layer {
  name: "conv7_2_mbox_loc_perm"
  type: "Permute"
  bottom: "conv7_2_mbox_loc"
  top: "conv7_2_mbox_loc_perm"
  permute_param {
    order: 0
    order: 2
    order: 3
    order: 1
  }
}
layer {
  name: "conv7_2_mbox_loc_flat"
  type: "Flatten"
  bottom: "conv7_2_mbox_loc_perm"
  top: "conv7_2_mbox_loc_flat"
  flatten_param {
    axis: 1
  }
}
layer {
  name: "conv7_2_mbox_conf"
  type: "Convolution"
  bottom: "conv7_2"
  top: "conv7_2_mbox_conf"
  param {
    lr_mult: 1
    decay_mult: 1
  }
  param {
    lr_mult: 2
    decay_mult: 0
  }
  convolution_param {
    num_output: 126
    pad: 1
    kernel_size: 3
    stride: 1
    weight_filler {
      type: "xavier"
    }
    bias_filler {
      type: "constant"
      value: 0
    }
  }
}
layer {
  name: "conv7_2_mbox_conf_perm"
  type: "Permute"
  bottom: "conv7_2_mbox_conf"
  top: "conv7_2_mbox_conf_perm"
  permute_param {
    order: 0
    order: 2
    order: 3
    order: 1
  }
}
layer {
  name: "conv7_2_mbox_conf_flat"
  type: "Flatten"
  bottom: "conv7_2_mbox_conf_perm"
  top: "conv7_2_mbox_conf_flat"
  flatten_param {
    axis: 1
  }
}
layer {
  name: "conv7_2_mbox_priorbox"
  type: "PriorBox"
  bottom: "conv7_2"
  bottom: "data"
  top: "conv7_2_mbox_priorbox"
  prior_box_param {
    min_size: 162
    max_size: 213
    aspect_ratio: 2
    aspect_ratio: 3
    flip: true
    clip: false
    variance: 0.1
    variance: 0.1
    variance: 0.2
    variance: 0.2
    step: 64
    offset: 0.5
  }
}
layer {
  name: "conv8_2_mbox_loc"
  type: "Convolution"
  bottom: "conv8_2"
  top: "conv8_2_mbox_loc"
  param {
    lr_mult: 1
    decay_mult: 1
  }
  param {
    lr_mult: 2
    decay_mult: 0
  }
  convolution_param {
    num_output: 16
    pad: 1
    kernel_size: 3
    stride: 1
    weight_filler {
      type: "xavier"
    }
    bias_filler {
      type: "constant"
      value: 0
    }
  }
}
layer {
  name: "conv8_2_mbox_loc_perm"
  type: "Permute"
  bottom: "conv8_2_mbox_loc"
  top: "conv8_2_mbox_loc_perm"
  permute_param {
    order: 0
    order: 2
    order: 3
    order: 1
  }
}
layer {
  name: "conv8_2_mbox_loc_flat"
  type: "Flatten"
  bottom: "conv8_2_mbox_loc_perm"
  top: "conv8_2_mbox_loc_flat"
  flatten_param {
    axis: 1
  }
}
layer {
  name: "conv8_2_mbox_conf"
  type: "Convolution"
  bottom: "conv8_2"
  top: "conv8_2_mbox_conf"
  param {
    lr_mult: 1
    decay_mult: 1
  }
  param {
    lr_mult: 2
    decay_mult: 0
  }
  convolution_param {
    num_output: 84
    pad: 1
    kernel_size: 3
    stride: 1
    weight_filler {
      type: "xavier"
    }
    bias_filler {
      type: "constant"
      value: 0
    }
  }
}
layer {
  name: "conv8_2_mbox_conf_perm"
  type: "Permute"
  bottom: "conv8_2_mbox_conf"
  top: "conv8_2_mbox_conf_perm"
  permute_param {
    order: 0
    order: 2
    order: 3
    order: 1
  }
}
layer {
  name: "conv8_2_mbox_conf_flat"
  type: "Flatten"
  bottom: "conv8_2_mbox_conf_perm"
  top: "conv8_2_mbox_conf_flat"
  flatten_param {
    axis: 1
  }
}
layer {
  name: "conv8_2_mbox_priorbox"
  type: "PriorBox"
  bottom: "conv8_2"
  bottom: "data"
  top: "conv8_2_mbox_priorbox"
  prior_box_param {
    min_size: 213
    max_size: 264
    aspect_ratio: 2
    flip: true
    clip: false
    variance: 0.1
    variance: 0.1
    variance: 0.2
    variance: 0.2
    step: 100
    offset: 0.5
  }
}
layer {
  name: "conv9_2_mbox_loc"
  type: "Convolution"
  bottom: "conv9_2"
  top: "conv9_2_mbox_loc"
  param {
    lr_mult: 1
    decay_mult: 1
  }
  param {
    lr_mult: 2
    decay_mult: 0
  }
  convolution_param {
    num_output: 16
    pad: 1
    kernel_size: 3
    stride: 1
    weight_filler {
      type: "xavier"
    }
    bias_filler {
      type: "constant"
      value: 0
    }
  }
}
layer {
  name: "conv9_2_mbox_loc_perm"
  type: "Permute"
  bottom: "conv9_2_mbox_loc"
  top: "conv9_2_mbox_loc_perm"
  permute_param {
    order: 0
    order: 2
    order: 3
    order: 1
  }
}
layer {
  name: "conv9_2_mbox_loc_flat"
  type: "Flatten"
  bottom: "conv9_2_mbox_loc_perm"
  top: "conv9_2_mbox_loc_flat"
  flatten_param {
    axis: 1
  }
}
layer {
  name: "conv9_2_mbox_conf"
  type: "Convolution"
  bottom: "conv9_2"
  top: "conv9_2_mbox_conf"
  param {
    lr_mult: 1
    decay_mult: 1
  }
  param {
    lr_mult: 2
    decay_mult: 0
  }
  convolution_param {
    num_output: 84
    pad: 1
    kernel_size: 3
    stride: 1
    weight_filler {
      type: "xavier"
    }
    bias_filler {
      type: "constant"
      value: 0
    }
  }
}
layer {
  name: "conv9_2_mbox_conf_perm"
  type: "Permute"
  bottom: "conv9_2_mbox_conf"
  top: "conv9_2_mbox_conf_perm"
  permute_param {
    order: 0
    order: 2
    order: 3
    order: 1
  }
}
layer {
  name: "conv9_2_mbox_conf_flat"
  type: "Flatten"
  bottom: "conv9_2_mbox_conf_perm"
  top: "conv9_2_mbox_conf_flat"
  flatten_param {
    axis: 1
  }
}
layer {
  name: "conv9_2_mbox_priorbox"
  type: "PriorBox"
  bottom: "conv9_2"
  bottom: "data"
  top: "conv9_2_mbox_priorbox"
  prior_box_param {
    min_size: 264
    max_size: 315
    aspect_ratio: 2
    flip: true
    clip: false
    variance: 0.1
    variance: 0.1
    variance: 0.2
    variance: 0.2
    step: 300
    offset: 0.5
  }
}
layer {
  name: "mbox_loc"
  type: "Concat"
  bottom: "conv4_3_norm_mbox_loc_flat"
  bottom: "fc7_mbox_loc_flat"
  bottom: "conv6_2_mbox_loc_flat"
  bottom: "conv7_2_mbox_loc_flat"
  bottom: "conv8_2_mbox_loc_flat"
  bottom: "conv9_2_mbox_loc_flat"
  top: "mbox_loc"
  concat_param {
    axis: 1
  }
}
layer {
  name: "mbox_conf"
  type: "Concat"
  bottom: "conv4_3_norm_mbox_conf_flat"
  bottom: "fc7_mbox_conf_flat"
  bottom: "conv6_2_mbox_conf_flat"
  bottom: "conv7_2_mbox_conf_flat"
  bottom: "conv8_2_mbox_conf_flat"
  bottom: "conv9_2_mbox_conf_flat"
  top: "mbox_conf"
  concat_param {
    axis: 1
  }
}
layer {
  name: "mbox_priorbox"
  type: "Concat"
  bottom: "conv4_3_norm_mbox_priorbox"
  bottom: "fc7_mbox_priorbox"
  bottom: "conv6_2_mbox_priorbox"
  bottom: "conv7_2_mbox_priorbox"
  bottom: "conv8_2_mbox_priorbox"
  bottom: "conv9_2_mbox_priorbox"
  top: "mbox_priorbox"
  concat_param {
    axis: 2
  }
}
layer {
  name: "mbox_loss"
  type: "MultiBoxLoss"
  bottom: "mbox_loc"
  bottom: "mbox_conf"
  bottom: "mbox_priorbox"
  bottom: "label"
  top: "mbox_loss"
  include {
    phase: TRAIN
  }
  propagate_down: true
  propagate_down: true
  propagate_down: false
  propagate_down: false
  loss_param {
    normalization: VALID
  }
  multibox_loss_param {
    loc_loss_type: SMOOTH_L1
    conf_loss_type: SOFTMAX
    loc_weight: 1
    num_classes: 21
    share_location: true
    match_type: PER_PREDICTION
    overlap_threshold: 0.5
    use_prior_for_matching: true
    background_label_id: 0
    use_difficult_gt: true
    neg_pos_ratio: 3
    neg_overlap: 0.5
    code_type: CENTER_SIZE
    ignore_cross_boundary_bbox: false
    mining_type: MAX_NEGATIVE
  }
}
I1205 15:31:43.439810 26649 layer_factory.hpp:77] Creating layer data
I1205 15:31:43.440191 26649 net.cpp:100] Creating Layer data
I1205 15:31:43.440219 26649 net.cpp:408] data -> data
I1205 15:31:43.440244 26649 net.cpp:408] data -> label
I1205 15:31:43.440855 26654 db_lmdb.cpp:35] Opened lmdb examples/VOC0712/VOC0712_trainval_lmdb
I1205 15:31:43.781608 26649 annotated_data_layer.cpp:62] output data size: 1,3,300,300
I1205 15:31:43.783234 26649 net.cpp:150] Setting up data
I1205 15:31:43.783272 26649 net.cpp:157] Top shape: 1 3 300 300 (270000)
I1205 15:31:43.783277 26649 net.cpp:157] Top shape: 1 1 1 8 (8)
I1205 15:31:43.783313 26649 net.cpp:165] Memory required for data: 1080032
I1205 15:31:43.783334 26649 layer_factory.hpp:77] Creating layer data_data_0_split
I1205 15:31:43.783346 26649 net.cpp:100] Creating Layer data_data_0_split
I1205 15:31:43.783365 26649 net.cpp:434] data_data_0_split <- data
I1205 15:31:43.783375 26649 net.cpp:408] data_data_0_split -> data_data_0_split_0
I1205 15:31:43.783385 26649 net.cpp:408] data_data_0_split -> data_data_0_split_1
I1205 15:31:43.783390 26649 net.cpp:408] data_data_0_split -> data_data_0_split_2
I1205 15:31:43.783396 26649 net.cpp:408] data_data_0_split -> data_data_0_split_3
I1205 15:31:43.783402 26649 net.cpp:408] data_data_0_split -> data_data_0_split_4
I1205 15:31:43.783407 26649 net.cpp:408] data_data_0_split -> data_data_0_split_5
I1205 15:31:43.783411 26649 net.cpp:408] data_data_0_split -> data_data_0_split_6
I1205 15:31:43.783483 26649 net.cpp:150] Setting up data_data_0_split
I1205 15:31:43.783506 26649 net.cpp:157] Top shape: 1 3 300 300 (270000)
I1205 15:31:43.783510 26649 net.cpp:157] Top shape: 1 3 300 300 (270000)
I1205 15:31:43.783514 26649 net.cpp:157] Top shape: 1 3 300 300 (270000)
I1205 15:31:43.783535 26649 net.cpp:157] Top shape: 1 3 300 300 (270000)
I1205 15:31:43.783537 26649 net.cpp:157] Top shape: 1 3 300 300 (270000)
I1205 15:31:43.783540 26649 net.cpp:157] Top shape: 1 3 300 300 (270000)
I1205 15:31:43.783557 26649 net.cpp:157] Top shape: 1 3 300 300 (270000)
I1205 15:31:43.783560 26649 net.cpp:165] Memory required for data: 8640032
I1205 15:31:43.783563 26649 layer_factory.hpp:77] Creating layer conv1_1
I1205 15:31:43.783591 26649 net.cpp:100] Creating Layer conv1_1
I1205 15:31:43.783594 26649 net.cpp:434] conv1_1 <- data_data_0_split_0
I1205 15:31:43.783599 26649 net.cpp:408] conv1_1 -> conv1_1
I1205 15:31:44.416355 26649 net.cpp:150] Setting up conv1_1
I1205 15:31:44.416378 26649 net.cpp:157] Top shape: 1 64 300 300 (5760000)
I1205 15:31:44.416400 26649 net.cpp:165] Memory required for data: 31680032
I1205 15:31:44.416427 26649 layer_factory.hpp:77] Creating layer relu1_1
I1205 15:31:44.416436 26649 net.cpp:100] Creating Layer relu1_1
I1205 15:31:44.416440 26649 net.cpp:434] relu1_1 <- conv1_1
I1205 15:31:44.416445 26649 net.cpp:395] relu1_1 -> conv1_1 (in-place)
I1205 15:31:44.416622 26649 net.cpp:150] Setting up relu1_1
I1205 15:31:44.416630 26649 net.cpp:157] Top shape: 1 64 300 300 (5760000)
I1205 15:31:44.416632 26649 net.cpp:165] Memory required for data: 54720032
I1205 15:31:44.416635 26649 layer_factory.hpp:77] Creating layer conv1_2
I1205 15:31:44.416662 26649 net.cpp:100] Creating Layer conv1_2
I1205 15:31:44.416666 26649 net.cpp:434] conv1_2 <- conv1_1
I1205 15:31:44.416682 26649 net.cpp:408] conv1_2 -> conv1_2
I1205 15:31:44.417996 26649 net.cpp:150] Setting up conv1_2
I1205 15:31:44.418007 26649 net.cpp:157] Top shape: 1 64 300 300 (5760000)
I1205 15:31:44.418010 26649 net.cpp:165] Memory required for data: 77760032
I1205 15:31:44.418035 26649 layer_factory.hpp:77] Creating layer relu1_2
I1205 15:31:44.418040 26649 net.cpp:100] Creating Layer relu1_2
I1205 15:31:44.418042 26649 net.cpp:434] relu1_2 <- conv1_2
I1205 15:31:44.418046 26649 net.cpp:395] relu1_2 -> conv1_2 (in-place)
I1205 15:31:44.418304 26649 net.cpp:150] Setting up relu1_2
I1205 15:31:44.418313 26649 net.cpp:157] Top shape: 1 64 300 300 (5760000)
I1205 15:31:44.418315 26649 net.cpp:165] Memory required for data: 100800032
I1205 15:31:44.418318 26649 layer_factory.hpp:77] Creating layer pool1
I1205 15:31:44.418341 26649 net.cpp:100] Creating Layer pool1
I1205 15:31:44.418344 26649 net.cpp:434] pool1 <- conv1_2
I1205 15:31:44.418349 26649 net.cpp:408] pool1 -> pool1
I1205 15:31:44.418429 26649 net.cpp:150] Setting up pool1
I1205 15:31:44.418434 26649 net.cpp:157] Top shape: 1 64 150 150 (1440000)
I1205 15:31:44.418437 26649 net.cpp:165] Memory required for data: 106560032
I1205 15:31:44.418439 26649 layer_factory.hpp:77] Creating layer conv2_1
I1205 15:31:44.418484 26649 net.cpp:100] Creating Layer conv2_1
I1205 15:31:44.418488 26649 net.cpp:434] conv2_1 <- pool1
I1205 15:31:44.418493 26649 net.cpp:408] conv2_1 -> conv2_1
I1205 15:31:44.419571 26649 net.cpp:150] Setting up conv2_1
I1205 15:31:44.419580 26649 net.cpp:157] Top shape: 1 128 150 150 (2880000)
I1205 15:31:44.419584 26649 net.cpp:165] Memory required for data: 118080032
I1205 15:31:44.419610 26649 layer_factory.hpp:77] Creating layer relu2_1
I1205 15:31:44.419627 26649 net.cpp:100] Creating Layer relu2_1
I1205 15:31:44.419631 26649 net.cpp:434] relu2_1 <- conv2_1
I1205 15:31:44.419636 26649 net.cpp:395] relu2_1 -> conv2_1 (in-place)
I1205 15:31:44.419873 26649 net.cpp:150] Setting up relu2_1
I1205 15:31:44.419883 26649 net.cpp:157] Top shape: 1 128 150 150 (2880000)
I1205 15:31:44.419884 26649 net.cpp:165] Memory required for data: 129600032
I1205 15:31:44.419888 26649 layer_factory.hpp:77] Creating layer conv2_2
I1205 15:31:44.419912 26649 net.cpp:100] Creating Layer conv2_2
I1205 15:31:44.419915 26649 net.cpp:434] conv2_2 <- conv2_1
I1205 15:31:44.419934 26649 net.cpp:408] conv2_2 -> conv2_2
I1205 15:31:44.421808 26649 net.cpp:150] Setting up conv2_2
I1205 15:31:44.421818 26649 net.cpp:157] Top shape: 1 128 150 150 (2880000)
I1205 15:31:44.421820 26649 net.cpp:165] Memory required for data: 141120032
I1205 15:31:44.421844 26649 layer_factory.hpp:77] Creating layer relu2_2
I1205 15:31:44.421849 26649 net.cpp:100] Creating Layer relu2_2
I1205 15:31:44.421851 26649 net.cpp:434] relu2_2 <- conv2_2
I1205 15:31:44.421855 26649 net.cpp:395] relu2_2 -> conv2_2 (in-place)
I1205 15:31:44.422039 26649 net.cpp:150] Setting up relu2_2
I1205 15:31:44.422044 26649 net.cpp:157] Top shape: 1 128 150 150 (2880000)
I1205 15:31:44.422046 26649 net.cpp:165] Memory required for data: 152640032
I1205 15:31:44.422049 26649 layer_factory.hpp:77] Creating layer pool2
I1205 15:31:44.422053 26649 net.cpp:100] Creating Layer pool2
I1205 15:31:44.422075 26649 net.cpp:434] pool2 <- conv2_2
I1205 15:31:44.422078 26649 net.cpp:408] pool2 -> pool2
I1205 15:31:44.422153 26649 net.cpp:150] Setting up pool2
I1205 15:31:44.422158 26649 net.cpp:157] Top shape: 1 128 75 75 (720000)
I1205 15:31:44.422161 26649 net.cpp:165] Memory required for data: 155520032
I1205 15:31:44.422163 26649 layer_factory.hpp:77] Creating layer conv3_1
I1205 15:31:44.422170 26649 net.cpp:100] Creating Layer conv3_1
I1205 15:31:44.422173 26649 net.cpp:434] conv3_1 <- pool2
I1205 15:31:44.422178 26649 net.cpp:408] conv3_1 -> conv3_1
I1205 15:31:44.424998 26649 net.cpp:150] Setting up conv3_1
I1205 15:31:44.425009 26649 net.cpp:157] Top shape: 1 256 75 75 (1440000)
I1205 15:31:44.425011 26649 net.cpp:165] Memory required for data: 161280032
I1205 15:31:44.425037 26649 layer_factory.hpp:77] Creating layer relu3_1
I1205 15:31:44.425042 26649 net.cpp:100] Creating Layer relu3_1
I1205 15:31:44.425045 26649 net.cpp:434] relu3_1 <- conv3_1
I1205 15:31:44.425050 26649 net.cpp:395] relu3_1 -> conv3_1 (in-place)
I1205 15:31:44.425267 26649 net.cpp:150] Setting up relu3_1
I1205 15:31:44.425276 26649 net.cpp:157] Top shape: 1 256 75 75 (1440000)
I1205 15:31:44.425279 26649 net.cpp:165] Memory required for data: 167040032
I1205 15:31:44.425282 26649 layer_factory.hpp:77] Creating layer conv3_2
I1205 15:31:44.425307 26649 net.cpp:100] Creating Layer conv3_2
I1205 15:31:44.425310 26649 net.cpp:434] conv3_2 <- conv3_1
I1205 15:31:44.425314 26649 net.cpp:408] conv3_2 -> conv3_2
I1205 15:31:44.430169 26649 net.cpp:150] Setting up conv3_2
I1205 15:31:44.430203 26649 net.cpp:157] Top shape: 1 256 75 75 (1440000)
I1205 15:31:44.430207 26649 net.cpp:165] Memory required for data: 172800032
I1205 15:31:44.430227 26649 layer_factory.hpp:77] Creating layer relu3_2
I1205 15:31:44.430251 26649 net.cpp:100] Creating Layer relu3_2
I1205 15:31:44.430255 26649 net.cpp:434] relu3_2 <- conv3_2
I1205 15:31:44.430261 26649 net.cpp:395] relu3_2 -> conv3_2 (in-place)
I1205 15:31:44.430503 26649 net.cpp:150] Setting up relu3_2
I1205 15:31:44.430531 26649 net.cpp:157] Top shape: 1 256 75 75 (1440000)
I1205 15:31:44.430533 26649 net.cpp:165] Memory required for data: 178560032
I1205 15:31:44.430537 26649 layer_factory.hpp:77] Creating layer conv3_3
I1205 15:31:44.430578 26649 net.cpp:100] Creating Layer conv3_3
I1205 15:31:44.430598 26649 net.cpp:434] conv3_3 <- conv3_2
I1205 15:31:44.430603 26649 net.cpp:408] conv3_3 -> conv3_3
I1205 15:31:44.434797 26649 net.cpp:150] Setting up conv3_3
I1205 15:31:44.434808 26649 net.cpp:157] Top shape: 1 256 75 75 (1440000)
I1205 15:31:44.434811 26649 net.cpp:165] Memory required for data: 184320032
I1205 15:31:44.434836 26649 layer_factory.hpp:77] Creating layer relu3_3
I1205 15:31:44.434842 26649 net.cpp:100] Creating Layer relu3_3
I1205 15:31:44.434845 26649 net.cpp:434] relu3_3 <- conv3_3
I1205 15:31:44.434850 26649 net.cpp:395] relu3_3 -> conv3_3 (in-place)
I1205 15:31:44.435050 26649 net.cpp:150] Setting up relu3_3
I1205 15:31:44.435056 26649 net.cpp:157] Top shape: 1 256 75 75 (1440000)
I1205 15:31:44.435060 26649 net.cpp:165] Memory required for data: 190080032
I1205 15:31:44.435061 26649 layer_factory.hpp:77] Creating layer pool3
I1205 15:31:44.435066 26649 net.cpp:100] Creating Layer pool3
I1205 15:31:44.435087 26649 net.cpp:434] pool3 <- conv3_3
I1205 15:31:44.435091 26649 net.cpp:408] pool3 -> pool3
I1205 15:31:44.435156 26649 net.cpp:150] Setting up pool3
I1205 15:31:44.435161 26649 net.cpp:157] Top shape: 1 256 38 38 (369664)
I1205 15:31:44.435164 26649 net.cpp:165] Memory required for data: 191558688
I1205 15:31:44.435166 26649 layer_factory.hpp:77] Creating layer conv4_1
I1205 15:31:44.435186 26649 net.cpp:100] Creating Layer conv4_1
I1205 15:31:44.435189 26649 net.cpp:434] conv4_1 <- pool3
I1205 15:31:44.435194 26649 net.cpp:408] conv4_1 -> conv4_1
I1205 15:31:44.443002 26649 net.cpp:150] Setting up conv4_1
I1205 15:31:44.443020 26649 net.cpp:157] Top shape: 1 512 38 38 (739328)
I1205 15:31:44.443023 26649 net.cpp:165] Memory required for data: 194516000
I1205 15:31:44.443048 26649 layer_factory.hpp:77] Creating layer relu4_1
I1205 15:31:44.443054 26649 net.cpp:100] Creating Layer relu4_1
I1205 15:31:44.443058 26649 net.cpp:434] relu4_1 <- conv4_1
I1205 15:31:44.443063 26649 net.cpp:395] relu4_1 -> conv4_1 (in-place)
I1205 15:31:44.443320 26649 net.cpp:150] Setting up relu4_1
I1205 15:31:44.443347 26649 net.cpp:157] Top shape: 1 512 38 38 (739328)
I1205 15:31:44.443351 26649 net.cpp:165] Memory required for data: 197473312
I1205 15:31:44.443353 26649 layer_factory.hpp:77] Creating layer conv4_2
I1205 15:31:44.443362 26649 net.cpp:100] Creating Layer conv4_2
I1205 15:31:44.443366 26649 net.cpp:434] conv4_2 <- conv4_1
I1205 15:31:44.443372 26649 net.cpp:408] conv4_2 -> conv4_2
I1205 15:31:44.458300 26649 net.cpp:150] Setting up conv4_2
I1205 15:31:44.458323 26649 net.cpp:157] Top shape: 1 512 38 38 (739328)
I1205 15:31:44.458325 26649 net.cpp:165] Memory required for data: 200430624
I1205 15:31:44.458354 26649 layer_factory.hpp:77] Creating layer relu4_2
I1205 15:31:44.458364 26649 net.cpp:100] Creating Layer relu4_2
I1205 15:31:44.458369 26649 net.cpp:434] relu4_2 <- conv4_2
I1205 15:31:44.458374 26649 net.cpp:395] relu4_2 -> conv4_2 (in-place)
I1205 15:31:44.458648 26649 net.cpp:150] Setting up relu4_2
I1205 15:31:44.458657 26649 net.cpp:157] Top shape: 1 512 38 38 (739328)
I1205 15:31:44.458659 26649 net.cpp:165] Memory required for data: 203387936
I1205 15:31:44.458662 26649 layer_factory.hpp:77] Creating layer conv4_3
I1205 15:31:44.458688 26649 net.cpp:100] Creating Layer conv4_3
I1205 15:31:44.458693 26649 net.cpp:434] conv4_3 <- conv4_2
I1205 15:31:44.458711 26649 net.cpp:408] conv4_3 -> conv4_3
I1205 15:31:44.472800 26649 net.cpp:150] Setting up conv4_3
I1205 15:31:44.472822 26649 net.cpp:157] Top shape: 1 512 38 38 (739328)
I1205 15:31:44.472844 26649 net.cpp:165] Memory required for data: 206345248
I1205 15:31:44.472851 26649 layer_factory.hpp:77] Creating layer relu4_3
I1205 15:31:44.472872 26649 net.cpp:100] Creating Layer relu4_3
I1205 15:31:44.472877 26649 net.cpp:434] relu4_3 <- conv4_3
I1205 15:31:44.472899 26649 net.cpp:395] relu4_3 -> conv4_3 (in-place)
I1205 15:31:44.473054 26649 net.cpp:150] Setting up relu4_3
I1205 15:31:44.473062 26649 net.cpp:157] Top shape: 1 512 38 38 (739328)
I1205 15:31:44.473093 26649 net.cpp:165] Memory required for data: 209302560
I1205 15:31:44.473095 26649 layer_factory.hpp:77] Creating layer conv4_3_relu4_3_0_split
I1205 15:31:44.473100 26649 net.cpp:100] Creating Layer conv4_3_relu4_3_0_split
I1205 15:31:44.473103 26649 net.cpp:434] conv4_3_relu4_3_0_split <- conv4_3
I1205 15:31:44.473107 26649 net.cpp:408] conv4_3_relu4_3_0_split -> conv4_3_relu4_3_0_split_0
I1205 15:31:44.473130 26649 net.cpp:408] conv4_3_relu4_3_0_split -> conv4_3_relu4_3_0_split_1
I1205 15:31:44.473192 26649 net.cpp:150] Setting up conv4_3_relu4_3_0_split
I1205 15:31:44.473197 26649 net.cpp:157] Top shape: 1 512 38 38 (739328)
I1205 15:31:44.473201 26649 net.cpp:157] Top shape: 1 512 38 38 (739328)
I1205 15:31:44.473203 26649 net.cpp:165] Memory required for data: 215217184
I1205 15:31:44.473206 26649 layer_factory.hpp:77] Creating layer pool4
I1205 15:31:44.473212 26649 net.cpp:100] Creating Layer pool4
I1205 15:31:44.473213 26649 net.cpp:434] pool4 <- conv4_3_relu4_3_0_split_0
I1205 15:31:44.473217 26649 net.cpp:408] pool4 -> pool4
I1205 15:31:44.473264 26649 net.cpp:150] Setting up pool4
I1205 15:31:44.473268 26649 net.cpp:157] Top shape: 1 512 19 19 (184832)
I1205 15:31:44.473270 26649 net.cpp:165] Memory required for data: 215956512
I1205 15:31:44.473273 26649 layer_factory.hpp:77] Creating layer conv5_1
I1205 15:31:44.473295 26649 net.cpp:100] Creating Layer conv5_1
I1205 15:31:44.473302 26649 net.cpp:434] conv5_1 <- pool4
I1205 15:31:44.473309 26649 net.cpp:408] conv5_1 -> conv5_1
I1205 15:31:44.488263 26649 net.cpp:150] Setting up conv5_1
I1205 15:31:44.488284 26649 net.cpp:157] Top shape: 1 512 19 19 (184832)
I1205 15:31:44.488287 26649 net.cpp:165] Memory required for data: 216695840
I1205 15:31:44.488313 26649 layer_factory.hpp:77] Creating layer relu5_1
I1205 15:31:44.488322 26649 net.cpp:100] Creating Layer relu5_1
I1205 15:31:44.488325 26649 net.cpp:434] relu5_1 <- conv5_1
I1205 15:31:44.488332 26649 net.cpp:395] relu5_1 -> conv5_1 (in-place)
I1205 15:31:44.488605 26649 net.cpp:150] Setting up relu5_1
I1205 15:31:44.488612 26649 net.cpp:157] Top shape: 1 512 19 19 (184832)
I1205 15:31:44.488615 26649 net.cpp:165] Memory required for data: 217435168
I1205 15:31:44.488618 26649 layer_factory.hpp:77] Creating layer conv5_2
I1205 15:31:44.488644 26649 net.cpp:100] Creating Layer conv5_2
I1205 15:31:44.488648 26649 net.cpp:434] conv5_2 <- conv5_1
I1205 15:31:44.488653 26649 net.cpp:408] conv5_2 -> conv5_2
I1205 15:31:44.503296 26649 net.cpp:150] Setting up conv5_2
I1205 15:31:44.503317 26649 net.cpp:157] Top shape: 1 512 19 19 (184832)
I1205 15:31:44.503320 26649 net.cpp:165] Memory required for data: 218174496
I1205 15:31:44.503345 26649 layer_factory.hpp:77] Creating layer relu5_2
I1205 15:31:44.503353 26649 net.cpp:100] Creating Layer relu5_2
I1205 15:31:44.503358 26649 net.cpp:434] relu5_2 <- conv5_2
I1205 15:31:44.503362 26649 net.cpp:395] relu5_2 -> conv5_2 (in-place)
I1205 15:31:44.503638 26649 net.cpp:150] Setting up relu5_2
I1205 15:31:44.503646 26649 net.cpp:157] Top shape: 1 512 19 19 (184832)
I1205 15:31:44.503648 26649 net.cpp:165] Memory required for data: 218913824
I1205 15:31:44.503651 26649 layer_factory.hpp:77] Creating layer conv5_3
I1205 15:31:44.503677 26649 net.cpp:100] Creating Layer conv5_3
I1205 15:31:44.503681 26649 net.cpp:434] conv5_3 <- conv5_2
I1205 15:31:44.503685 26649 net.cpp:408] conv5_3 -> conv5_3
I1205 15:31:44.519080 26649 net.cpp:150] Setting up conv5_3
I1205 15:31:44.519101 26649 net.cpp:157] Top shape: 1 512 19 19 (184832)
I1205 15:31:44.519104 26649 net.cpp:165] Memory required for data: 219653152
I1205 15:31:44.519129 26649 layer_factory.hpp:77] Creating layer relu5_3
I1205 15:31:44.519142 26649 net.cpp:100] Creating Layer relu5_3
I1205 15:31:44.519147 26649 net.cpp:434] relu5_3 <- conv5_3
I1205 15:31:44.519151 26649 net.cpp:395] relu5_3 -> conv5_3 (in-place)
I1205 15:31:44.519335 26649 net.cpp:150] Setting up relu5_3
I1205 15:31:44.519342 26649 net.cpp:157] Top shape: 1 512 19 19 (184832)
I1205 15:31:44.519345 26649 net.cpp:165] Memory required for data: 220392480
I1205 15:31:44.519376 26649 layer_factory.hpp:77] Creating layer pool5
I1205 15:31:44.519394 26649 net.cpp:100] Creating Layer pool5
I1205 15:31:44.519397 26649 net.cpp:434] pool5 <- conv5_3
I1205 15:31:44.519421 26649 net.cpp:408] pool5 -> pool5
I1205 15:31:44.519469 26649 net.cpp:150] Setting up pool5
I1205 15:31:44.519474 26649 net.cpp:157] Top shape: 1 512 19 19 (184832)
I1205 15:31:44.519476 26649 net.cpp:165] Memory required for data: 221131808
I1205 15:31:44.519479 26649 layer_factory.hpp:77] Creating layer fc6
I1205 15:31:44.519487 26649 net.cpp:100] Creating Layer fc6
I1205 15:31:44.519490 26649 net.cpp:434] fc6 <- pool5
I1205 15:31:44.519495 26649 net.cpp:408] fc6 -> fc6
I1205 15:31:44.547293 26649 net.cpp:150] Setting up fc6
I1205 15:31:44.547313 26649 net.cpp:157] Top shape: 1 1024 19 19 (369664)
I1205 15:31:44.547317 26649 net.cpp:165] Memory required for data: 222610464
I1205 15:31:44.547341 26649 layer_factory.hpp:77] Creating layer relu6
I1205 15:31:44.547349 26649 net.cpp:100] Creating Layer relu6
I1205 15:31:44.547353 26649 net.cpp:434] relu6 <- fc6
I1205 15:31:44.547359 26649 net.cpp:395] relu6 -> fc6 (in-place)
I1205 15:31:44.547708 26649 net.cpp:150] Setting up relu6
I1205 15:31:44.547716 26649 net.cpp:157] Top shape: 1 1024 19 19 (369664)
I1205 15:31:44.547719 26649 net.cpp:165] Memory required for data: 224089120
I1205 15:31:44.547721 26649 layer_factory.hpp:77] Creating layer fc7
I1205 15:31:44.547749 26649 net.cpp:100] Creating Layer fc7
I1205 15:31:44.547754 26649 net.cpp:434] fc7 <- fc6
I1205 15:31:44.547757 26649 net.cpp:408] fc7 -> fc7
I1205 15:31:44.554445 26649 net.cpp:150] Setting up fc7
I1205 15:31:44.554462 26649 net.cpp:157] Top shape: 1 1024 19 19 (369664)
I1205 15:31:44.554466 26649 net.cpp:165] Memory required for data: 225567776
I1205 15:31:44.554488 26649 layer_factory.hpp:77] Creating layer relu7
I1205 15:31:44.554496 26649 net.cpp:100] Creating Layer relu7
I1205 15:31:44.554512 26649 net.cpp:434] relu7 <- fc7
I1205 15:31:44.554517 26649 net.cpp:395] relu7 -> fc7 (in-place)
I1205 15:31:44.554687 26649 net.cpp:150] Setting up relu7
I1205 15:31:44.554692 26649 net.cpp:157] Top shape: 1 1024 19 19 (369664)
I1205 15:31:44.554695 26649 net.cpp:165] Memory required for data: 227046432
I1205 15:31:44.554697 26649 layer_factory.hpp:77] Creating layer fc7_relu7_0_split
I1205 15:31:44.554703 26649 net.cpp:100] Creating Layer fc7_relu7_0_split
I1205 15:31:44.554705 26649 net.cpp:434] fc7_relu7_0_split <- fc7
I1205 15:31:44.554728 26649 net.cpp:408] fc7_relu7_0_split -> fc7_relu7_0_split_0
I1205 15:31:44.554733 26649 net.cpp:408] fc7_relu7_0_split -> fc7_relu7_0_split_1
I1205 15:31:44.554740 26649 net.cpp:408] fc7_relu7_0_split -> fc7_relu7_0_split_2
I1205 15:31:44.554762 26649 net.cpp:408] fc7_relu7_0_split -> fc7_relu7_0_split_3
I1205 15:31:44.554869 26649 net.cpp:150] Setting up fc7_relu7_0_split
I1205 15:31:44.554874 26649 net.cpp:157] Top shape: 1 1024 19 19 (369664)
I1205 15:31:44.554878 26649 net.cpp:157] Top shape: 1 1024 19 19 (369664)
I1205 15:31:44.554882 26649 net.cpp:157] Top shape: 1 1024 19 19 (369664)
I1205 15:31:44.554896 26649 net.cpp:157] Top shape: 1 1024 19 19 (369664)
I1205 15:31:44.554899 26649 net.cpp:165] Memory required for data: 232961056
I1205 15:31:44.554901 26649 layer_factory.hpp:77] Creating layer conv6_1
I1205 15:31:44.554927 26649 net.cpp:100] Creating Layer conv6_1
I1205 15:31:44.554930 26649 net.cpp:434] conv6_1 <- fc7_relu7_0_split_0
I1205 15:31:44.554949 26649 net.cpp:408] conv6_1 -> conv6_1
I1205 15:31:44.557433 26649 net.cpp:150] Setting up conv6_1
I1205 15:31:44.557443 26649 net.cpp:157] Top shape: 1 256 19 19 (92416)
I1205 15:31:44.557446 26649 net.cpp:165] Memory required for data: 233330720
I1205 15:31:44.557469 26649 layer_factory.hpp:77] Creating layer conv6_1_relu
I1205 15:31:44.557474 26649 net.cpp:100] Creating Layer conv6_1_relu
I1205 15:31:44.557492 26649 net.cpp:434] conv6_1_relu <- conv6_1
I1205 15:31:44.557495 26649 net.cpp:395] conv6_1_relu -> conv6_1 (in-place)
I1205 15:31:44.557673 26649 net.cpp:150] Setting up conv6_1_relu
I1205 15:31:44.557689 26649 net.cpp:157] Top shape: 1 256 19 19 (92416)
I1205 15:31:44.557693 26649 net.cpp:165] Memory required for data: 233700384
I1205 15:31:44.557694 26649 layer_factory.hpp:77] Creating layer conv6_2
I1205 15:31:44.557719 26649 net.cpp:100] Creating Layer conv6_2
I1205 15:31:44.557723 26649 net.cpp:434] conv6_2 <- conv6_1
I1205 15:31:44.557729 26649 net.cpp:408] conv6_2 -> conv6_2
I1205 15:31:44.565322 26649 net.cpp:150] Setting up conv6_2
I1205 15:31:44.565340 26649 net.cpp:157] Top shape: 1 512 10 10 (51200)
I1205 15:31:44.565343 26649 net.cpp:165] Memory required for data: 233905184
I1205 15:31:44.565373 26649 layer_factory.hpp:77] Creating layer conv6_2_relu
I1205 15:31:44.565381 26649 net.cpp:100] Creating Layer conv6_2_relu
I1205 15:31:44.565397 26649 net.cpp:434] conv6_2_relu <- conv6_2
I1205 15:31:44.565402 26649 net.cpp:395] conv6_2_relu -> conv6_2 (in-place)
I1205 15:31:44.565659 26649 net.cpp:150] Setting up conv6_2_relu
I1205 15:31:44.565667 26649 net.cpp:157] Top shape: 1 512 10 10 (51200)
I1205 15:31:44.565670 26649 net.cpp:165] Memory required for data: 234109984
I1205 15:31:44.565672 26649 layer_factory.hpp:77] Creating layer conv6_2_conv6_2_relu_0_split
I1205 15:31:44.565696 26649 net.cpp:100] Creating Layer conv6_2_conv6_2_relu_0_split
I1205 15:31:44.565698 26649 net.cpp:434] conv6_2_conv6_2_relu_0_split <- conv6_2
I1205 15:31:44.565703 26649 net.cpp:408] conv6_2_conv6_2_relu_0_split -> conv6_2_conv6_2_relu_0_split_0
I1205 15:31:44.565708 26649 net.cpp:408] conv6_2_conv6_2_relu_0_split -> conv6_2_conv6_2_relu_0_split_1
I1205 15:31:44.565712 26649 net.cpp:408] conv6_2_conv6_2_relu_0_split -> conv6_2_conv6_2_relu_0_split_2
I1205 15:31:44.565717 26649 net.cpp:408] conv6_2_conv6_2_relu_0_split -> conv6_2_conv6_2_relu_0_split_3
I1205 15:31:44.565785 26649 net.cpp:150] Setting up conv6_2_conv6_2_relu_0_split
I1205 15:31:44.565790 26649 net.cpp:157] Top shape: 1 512 10 10 (51200)
I1205 15:31:44.565794 26649 net.cpp:157] Top shape: 1 512 10 10 (51200)
I1205 15:31:44.565796 26649 net.cpp:157] Top shape: 1 512 10 10 (51200)
I1205 15:31:44.565817 26649 net.cpp:157] Top shape: 1 512 10 10 (51200)
I1205 15:31:44.565819 26649 net.cpp:165] Memory required for data: 234929184
I1205 15:31:44.565822 26649 layer_factory.hpp:77] Creating layer conv7_1
I1205 15:31:44.565830 26649 net.cpp:100] Creating Layer conv7_1
I1205 15:31:44.565834 26649 net.cpp:434] conv7_1 <- conv6_2_conv6_2_relu_0_split_0
I1205 15:31:44.565838 26649 net.cpp:408] conv7_1 -> conv7_1
I1205 15:31:44.566926 26649 net.cpp:150] Setting up conv7_1
I1205 15:31:44.566934 26649 net.cpp:157] Top shape: 1 128 10 10 (12800)
I1205 15:31:44.566937 26649 net.cpp:165] Memory required for data: 234980384
I1205 15:31:44.566961 26649 layer_factory.hpp:77] Creating layer conv7_1_relu
I1205 15:31:44.566967 26649 net.cpp:100] Creating Layer conv7_1_relu
I1205 15:31:44.566970 26649 net.cpp:434] conv7_1_relu <- conv7_1
I1205 15:31:44.566973 26649 net.cpp:395] conv7_1_relu -> conv7_1 (in-place)
I1205 15:31:44.567124 26649 net.cpp:150] Setting up conv7_1_relu
I1205 15:31:44.567131 26649 net.cpp:157] Top shape: 1 128 10 10 (12800)
I1205 15:31:44.567133 26649 net.cpp:165] Memory required for data: 235031584
I1205 15:31:44.567137 26649 layer_factory.hpp:77] Creating layer conv7_2
I1205 15:31:44.567162 26649 net.cpp:100] Creating Layer conv7_2
I1205 15:31:44.567164 26649 net.cpp:434] conv7_2 <- conv7_1
I1205 15:31:44.567169 26649 net.cpp:408] conv7_2 -> conv7_2
I1205 15:31:44.570132 26649 net.cpp:150] Setting up conv7_2
I1205 15:31:44.570143 26649 net.cpp:157] Top shape: 1 256 5 5 (6400)
I1205 15:31:44.570147 26649 net.cpp:165] Memory required for data: 235057184
I1205 15:31:44.570170 26649 layer_factory.hpp:77] Creating layer conv7_2_relu
I1205 15:31:44.570174 26649 net.cpp:100] Creating Layer conv7_2_relu
I1205 15:31:44.570178 26649 net.cpp:434] conv7_2_relu <- conv7_2
I1205 15:31:44.570183 26649 net.cpp:395] conv7_2_relu -> conv7_2 (in-place)
I1205 15:31:44.570369 26649 net.cpp:150] Setting up conv7_2_relu
I1205 15:31:44.570376 26649 net.cpp:157] Top shape: 1 256 5 5 (6400)
I1205 15:31:44.570405 26649 net.cpp:165] Memory required for data: 235082784
I1205 15:31:44.570408 26649 layer_factory.hpp:77] Creating layer conv7_2_conv7_2_relu_0_split
I1205 15:31:44.570425 26649 net.cpp:100] Creating Layer conv7_2_conv7_2_relu_0_split
I1205 15:31:44.570428 26649 net.cpp:434] conv7_2_conv7_2_relu_0_split <- conv7_2
I1205 15:31:44.570432 26649 net.cpp:408] conv7_2_conv7_2_relu_0_split -> conv7_2_conv7_2_relu_0_split_0
I1205 15:31:44.570462 26649 net.cpp:408] conv7_2_conv7_2_relu_0_split -> conv7_2_conv7_2_relu_0_split_1
I1205 15:31:44.570482 26649 net.cpp:408] conv7_2_conv7_2_relu_0_split -> conv7_2_conv7_2_relu_0_split_2
I1205 15:31:44.570485 26649 net.cpp:408] conv7_2_conv7_2_relu_0_split -> conv7_2_conv7_2_relu_0_split_3
I1205 15:31:44.570569 26649 net.cpp:150] Setting up conv7_2_conv7_2_relu_0_split
I1205 15:31:44.570574 26649 net.cpp:157] Top shape: 1 256 5 5 (6400)
I1205 15:31:44.570577 26649 net.cpp:157] Top shape: 1 256 5 5 (6400)
I1205 15:31:44.570580 26649 net.cpp:157] Top shape: 1 256 5 5 (6400)
I1205 15:31:44.570597 26649 net.cpp:157] Top shape: 1 256 5 5 (6400)
I1205 15:31:44.570600 26649 net.cpp:165] Memory required for data: 235185184
I1205 15:31:44.570601 26649 layer_factory.hpp:77] Creating layer conv8_1
I1205 15:31:44.570627 26649 net.cpp:100] Creating Layer conv8_1
I1205 15:31:44.570643 26649 net.cpp:434] conv8_1 <- conv7_2_conv7_2_relu_0_split_0
I1205 15:31:44.570648 26649 net.cpp:408] conv8_1 -> conv8_1
I1205 15:31:44.571651 26649 net.cpp:150] Setting up conv8_1
I1205 15:31:44.571693 26649 net.cpp:157] Top shape: 1 128 5 5 (3200)
I1205 15:31:44.571697 26649 net.cpp:165] Memory required for data: 235197984
I1205 15:31:44.571702 26649 layer_factory.hpp:77] Creating layer conv8_1_relu
I1205 15:31:44.571722 26649 net.cpp:100] Creating Layer conv8_1_relu
I1205 15:31:44.571724 26649 net.cpp:434] conv8_1_relu <- conv8_1
I1205 15:31:44.571748 26649 net.cpp:395] conv8_1_relu -> conv8_1 (in-place)
I1205 15:31:44.571990 26649 net.cpp:150] Setting up conv8_1_relu
I1205 15:31:44.571998 26649 net.cpp:157] Top shape: 1 128 5 5 (3200)
I1205 15:31:44.572001 26649 net.cpp:165] Memory required for data: 235210784
I1205 15:31:44.572005 26649 layer_factory.hpp:77] Creating layer conv8_2
I1205 15:31:44.572029 26649 net.cpp:100] Creating Layer conv8_2
I1205 15:31:44.572033 26649 net.cpp:434] conv8_2 <- conv8_1
I1205 15:31:44.572038 26649 net.cpp:408] conv8_2 -> conv8_2
I1205 15:31:44.574724 26649 net.cpp:150] Setting up conv8_2
I1205 15:31:44.574735 26649 net.cpp:157] Top shape: 1 256 3 3 (2304)
I1205 15:31:44.574738 26649 net.cpp:165] Memory required for data: 235220000
I1205 15:31:44.574743 26649 layer_factory.hpp:77] Creating layer conv8_2_relu
I1205 15:31:44.574765 26649 net.cpp:100] Creating Layer conv8_2_relu
I1205 15:31:44.574769 26649 net.cpp:434] conv8_2_relu <- conv8_2
I1205 15:31:44.574774 26649 net.cpp:395] conv8_2_relu -> conv8_2 (in-place)
I1205 15:31:44.574977 26649 net.cpp:150] Setting up conv8_2_relu
I1205 15:31:44.574985 26649 net.cpp:157] Top shape: 1 256 3 3 (2304)
I1205 15:31:44.574987 26649 net.cpp:165] Memory required for data: 235229216
I1205 15:31:44.574990 26649 layer_factory.hpp:77] Creating layer conv8_2_conv8_2_relu_0_split
I1205 15:31:44.575012 26649 net.cpp:100] Creating Layer conv8_2_conv8_2_relu_0_split
I1205 15:31:44.575016 26649 net.cpp:434] conv8_2_conv8_2_relu_0_split <- conv8_2
I1205 15:31:44.575019 26649 net.cpp:408] conv8_2_conv8_2_relu_0_split -> conv8_2_conv8_2_relu_0_split_0
I1205 15:31:44.575026 26649 net.cpp:408] conv8_2_conv8_2_relu_0_split -> conv8_2_conv8_2_relu_0_split_1
I1205 15:31:44.575031 26649 net.cpp:408] conv8_2_conv8_2_relu_0_split -> conv8_2_conv8_2_relu_0_split_2
I1205 15:31:44.575052 26649 net.cpp:408] conv8_2_conv8_2_relu_0_split -> conv8_2_conv8_2_relu_0_split_3
I1205 15:31:44.575152 26649 net.cpp:150] Setting up conv8_2_conv8_2_relu_0_split
I1205 15:31:44.575157 26649 net.cpp:157] Top shape: 1 256 3 3 (2304)
I1205 15:31:44.575160 26649 net.cpp:157] Top shape: 1 256 3 3 (2304)
I1205 15:31:44.575176 26649 net.cpp:157] Top shape: 1 256 3 3 (2304)
I1205 15:31:44.575206 26649 net.cpp:157] Top shape: 1 256 3 3 (2304)
I1205 15:31:44.575208 26649 net.cpp:165] Memory required for data: 235266080
I1205 15:31:44.575212 26649 layer_factory.hpp:77] Creating layer conv9_1
I1205 15:31:44.575232 26649 net.cpp:100] Creating Layer conv9_1
I1205 15:31:44.575235 26649 net.cpp:434] conv9_1 <- conv8_2_conv8_2_relu_0_split_0
I1205 15:31:44.575239 26649 net.cpp:408] conv9_1 -> conv9_1
I1205 15:31:44.576205 26649 net.cpp:150] Setting up conv9_1
I1205 15:31:44.576215 26649 net.cpp:157] Top shape: 1 128 3 3 (1152)
I1205 15:31:44.576218 26649 net.cpp:165] Memory required for data: 235270688
I1205 15:31:44.576241 26649 layer_factory.hpp:77] Creating layer conv9_1_relu
I1205 15:31:44.576246 26649 net.cpp:100] Creating Layer conv9_1_relu
I1205 15:31:44.576249 26649 net.cpp:434] conv9_1_relu <- conv9_1
I1205 15:31:44.576253 26649 net.cpp:395] conv9_1_relu -> conv9_1 (in-place)
I1205 15:31:44.576409 26649 net.cpp:150] Setting up conv9_1_relu
I1205 15:31:44.576416 26649 net.cpp:157] Top shape: 1 128 3 3 (1152)
I1205 15:31:44.576418 26649 net.cpp:165] Memory required for data: 235275296
I1205 15:31:44.576421 26649 layer_factory.hpp:77] Creating layer conv9_2
I1205 15:31:44.576447 26649 net.cpp:100] Creating Layer conv9_2
I1205 15:31:44.576450 26649 net.cpp:434] conv9_2 <- conv9_1
I1205 15:31:44.576454 26649 net.cpp:408] conv9_2 -> conv9_2
I1205 15:31:44.578917 26649 net.cpp:150] Setting up conv9_2
I1205 15:31:44.578927 26649 net.cpp:157] Top shape: 1 256 1 1 (256)
I1205 15:31:44.578932 26649 net.cpp:165] Memory required for data: 235276320
I1205 15:31:44.578954 26649 layer_factory.hpp:77] Creating layer conv9_2_relu
I1205 15:31:44.578958 26649 net.cpp:100] Creating Layer conv9_2_relu
I1205 15:31:44.578975 26649 net.cpp:434] conv9_2_relu <- conv9_2
I1205 15:31:44.578979 26649 net.cpp:395] conv9_2_relu -> conv9_2 (in-place)
I1205 15:31:44.579198 26649 net.cpp:150] Setting up conv9_2_relu
I1205 15:31:44.579207 26649 net.cpp:157] Top shape: 1 256 1 1 (256)
I1205 15:31:44.579210 26649 net.cpp:165] Memory required for data: 235277344
I1205 15:31:44.579212 26649 layer_factory.hpp:77] Creating layer conv9_2_conv9_2_relu_0_split
I1205 15:31:44.579216 26649 net.cpp:100] Creating Layer conv9_2_conv9_2_relu_0_split
I1205 15:31:44.579237 26649 net.cpp:434] conv9_2_conv9_2_relu_0_split <- conv9_2
I1205 15:31:44.579242 26649 net.cpp:408] conv9_2_conv9_2_relu_0_split -> conv9_2_conv9_2_relu_0_split_0
I1205 15:31:44.579262 26649 net.cpp:408] conv9_2_conv9_2_relu_0_split -> conv9_2_conv9_2_relu_0_split_1
I1205 15:31:44.579267 26649 net.cpp:408] conv9_2_conv9_2_relu_0_split -> conv9_2_conv9_2_relu_0_split_2
I1205 15:31:44.579321 26649 net.cpp:150] Setting up conv9_2_conv9_2_relu_0_split
I1205 15:31:44.579326 26649 net.cpp:157] Top shape: 1 256 1 1 (256)
I1205 15:31:44.579329 26649 net.cpp:157] Top shape: 1 256 1 1 (256)
I1205 15:31:44.579332 26649 net.cpp:157] Top shape: 1 256 1 1 (256)
I1205 15:31:44.579334 26649 net.cpp:165] Memory required for data: 235280416
I1205 15:31:44.579355 26649 layer_factory.hpp:77] Creating layer conv4_3_norm
I1205 15:31:44.579360 26649 net.cpp:100] Creating Layer conv4_3_norm
I1205 15:31:44.579363 26649 net.cpp:434] conv4_3_norm <- conv4_3_relu4_3_0_split_1
I1205 15:31:44.579367 26649 net.cpp:408] conv4_3_norm -> conv4_3_norm
I1205 15:31:44.579502 26649 net.cpp:150] Setting up conv4_3_norm
I1205 15:31:44.579509 26649 net.cpp:157] Top shape: 1 512 38 38 (739328)
I1205 15:31:44.579510 26649 net.cpp:165] Memory required for data: 238237728
I1205 15:31:44.579514 26649 layer_factory.hpp:77] Creating layer conv4_3_norm_conv4_3_norm_0_split
I1205 15:31:44.579535 26649 net.cpp:100] Creating Layer conv4_3_norm_conv4_3_norm_0_split
I1205 15:31:44.579538 26649 net.cpp:434] conv4_3_norm_conv4_3_norm_0_split <- conv4_3_norm
I1205 15:31:44.579542 26649 net.cpp:408] conv4_3_norm_conv4_3_norm_0_split -> conv4_3_norm_conv4_3_norm_0_split_0
I1205 15:31:44.579546 26649 net.cpp:408] conv4_3_norm_conv4_3_norm_0_split -> conv4_3_norm_conv4_3_norm_0_split_1
I1205 15:31:44.579551 26649 net.cpp:408] conv4_3_norm_conv4_3_norm_0_split -> conv4_3_norm_conv4_3_norm_0_split_2
I1205 15:31:44.579608 26649 net.cpp:150] Setting up conv4_3_norm_conv4_3_norm_0_split
I1205 15:31:44.579614 26649 net.cpp:157] Top shape: 1 512 38 38 (739328)
I1205 15:31:44.579630 26649 net.cpp:157] Top shape: 1 512 38 38 (739328)
I1205 15:31:44.579632 26649 net.cpp:157] Top shape: 1 512 38 38 (739328)
I1205 15:31:44.579635 26649 net.cpp:165] Memory required for data: 247109664
I1205 15:31:44.579655 26649 layer_factory.hpp:77] Creating layer conv4_3_norm_mbox_loc
I1205 15:31:44.579661 26649 net.cpp:100] Creating Layer conv4_3_norm_mbox_loc
I1205 15:31:44.579677 26649 net.cpp:434] conv4_3_norm_mbox_loc <- conv4_3_norm_conv4_3_norm_0_split_0
I1205 15:31:44.579684 26649 net.cpp:408] conv4_3_norm_mbox_loc -> conv4_3_norm_mbox_loc
I1205 15:31:44.581037 26649 net.cpp:150] Setting up conv4_3_norm_mbox_loc
I1205 15:31:44.581048 26649 net.cpp:157] Top shape: 1 16 38 38 (23104)
I1205 15:31:44.581050 26649 net.cpp:165] Memory required for data: 247202080
I1205 15:31:44.581073 26649 layer_factory.hpp:77] Creating layer conv4_3_norm_mbox_loc_perm
I1205 15:31:44.581079 26649 net.cpp:100] Creating Layer conv4_3_norm_mbox_loc_perm
I1205 15:31:44.581084 26649 net.cpp:434] conv4_3_norm_mbox_loc_perm <- conv4_3_norm_mbox_loc
I1205 15:31:44.581087 26649 net.cpp:408] conv4_3_norm_mbox_loc_perm -> conv4_3_norm_mbox_loc_perm
I1205 15:31:44.581200 26649 net.cpp:150] Setting up conv4_3_norm_mbox_loc_perm
I1205 15:31:44.581205 26649 net.cpp:157] Top shape: 1 38 38 16 (23104)
I1205 15:31:44.581208 26649 net.cpp:165] Memory required for data: 247294496
I1205 15:31:44.581210 26649 layer_factory.hpp:77] Creating layer conv4_3_norm_mbox_loc_flat
I1205 15:31:44.581233 26649 net.cpp:100] Creating Layer conv4_3_norm_mbox_loc_flat
I1205 15:31:44.581235 26649 net.cpp:434] conv4_3_norm_mbox_loc_flat <- conv4_3_norm_mbox_loc_perm
I1205 15:31:44.581240 26649 net.cpp:408] conv4_3_norm_mbox_loc_flat -> conv4_3_norm_mbox_loc_flat
I1205 15:31:44.581265 26649 net.cpp:150] Setting up conv4_3_norm_mbox_loc_flat
I1205 15:31:44.581271 26649 net.cpp:157] Top shape: 1 23104 (23104)
I1205 15:31:44.581274 26649 net.cpp:165] Memory required for data: 247386912
I1205 15:31:44.581276 26649 layer_factory.hpp:77] Creating layer conv4_3_norm_mbox_conf
I1205 15:31:44.581290 26649 net.cpp:100] Creating Layer conv4_3_norm_mbox_conf
I1205 15:31:44.581293 26649 net.cpp:434] conv4_3_norm_mbox_conf <- conv4_3_norm_conv4_3_norm_0_split_1
I1205 15:31:44.581313 26649 net.cpp:408] conv4_3_norm_mbox_conf -> conv4_3_norm_mbox_conf
I1205 15:31:44.584301 26649 net.cpp:150] Setting up conv4_3_norm_mbox_conf
I1205 15:31:44.584311 26649 net.cpp:157] Top shape: 1 84 38 38 (121296)
I1205 15:31:44.584314 26649 net.cpp:165] Memory required for data: 247872096
I1205 15:31:44.584321 26649 layer_factory.hpp:77] Creating layer conv4_3_norm_mbox_conf_perm
I1205 15:31:44.584344 26649 net.cpp:100] Creating Layer conv4_3_norm_mbox_conf_perm
I1205 15:31:44.584347 26649 net.cpp:434] conv4_3_norm_mbox_conf_perm <- conv4_3_norm_mbox_conf
I1205 15:31:44.584352 26649 net.cpp:408] conv4_3_norm_mbox_conf_perm -> conv4_3_norm_mbox_conf_perm
I1205 15:31:44.584463 26649 net.cpp:150] Setting up conv4_3_norm_mbox_conf_perm
I1205 15:31:44.584468 26649 net.cpp:157] Top shape: 1 38 38 84 (121296)
I1205 15:31:44.584470 26649 net.cpp:165] Memory required for data: 248357280
I1205 15:31:44.584473 26649 layer_factory.hpp:77] Creating layer conv4_3_norm_mbox_conf_flat
I1205 15:31:44.584494 26649 net.cpp:100] Creating Layer conv4_3_norm_mbox_conf_flat
I1205 15:31:44.584497 26649 net.cpp:434] conv4_3_norm_mbox_conf_flat <- conv4_3_norm_mbox_conf_perm
I1205 15:31:44.584501 26649 net.cpp:408] conv4_3_norm_mbox_conf_flat -> conv4_3_norm_mbox_conf_flat
I1205 15:31:44.584520 26649 net.cpp:150] Setting up conv4_3_norm_mbox_conf_flat
I1205 15:31:44.584527 26649 net.cpp:157] Top shape: 1 121296 (121296)
I1205 15:31:44.584528 26649 net.cpp:165] Memory required for data: 248842464
I1205 15:31:44.584544 26649 layer_factory.hpp:77] Creating layer conv4_3_norm_mbox_priorbox
I1205 15:31:44.584559 26649 net.cpp:100] Creating Layer conv4_3_norm_mbox_priorbox
I1205 15:31:44.584563 26649 net.cpp:434] conv4_3_norm_mbox_priorbox <- conv4_3_norm_conv4_3_norm_0_split_2
I1205 15:31:44.584566 26649 net.cpp:434] conv4_3_norm_mbox_priorbox <- data_data_0_split_1
I1205 15:31:44.584571 26649 net.cpp:408] conv4_3_norm_mbox_priorbox -> conv4_3_norm_mbox_priorbox
I1205 15:31:44.584606 26649 net.cpp:150] Setting up conv4_3_norm_mbox_priorbox
I1205 15:31:44.584611 26649 net.cpp:157] Top shape: 1 2 23104 (46208)
I1205 15:31:44.584630 26649 net.cpp:165] Memory required for data: 249027296
I1205 15:31:44.584632 26649 layer_factory.hpp:77] Creating layer fc7_mbox_loc
I1205 15:31:44.584657 26649 net.cpp:100] Creating Layer fc7_mbox_loc
I1205 15:31:44.584661 26649 net.cpp:434] fc7_mbox_loc <- fc7_relu7_0_split_1
I1205 15:31:44.584667 26649 net.cpp:408] fc7_mbox_loc -> fc7_mbox_loc
I1205 15:31:44.586921 26649 net.cpp:150] Setting up fc7_mbox_loc
I1205 15:31:44.586931 26649 net.cpp:157] Top shape: 1 24 19 19 (8664)
I1205 15:31:44.586935 26649 net.cpp:165] Memory required for data: 249061952
I1205 15:31:44.586958 26649 layer_factory.hpp:77] Creating layer fc7_mbox_loc_perm
I1205 15:31:44.586963 26649 net.cpp:100] Creating Layer fc7_mbox_loc_perm
I1205 15:31:44.586967 26649 net.cpp:434] fc7_mbox_loc_perm <- fc7_mbox_loc
I1205 15:31:44.586972 26649 net.cpp:408] fc7_mbox_loc_perm -> fc7_mbox_loc_perm
I1205 15:31:44.587070 26649 net.cpp:150] Setting up fc7_mbox_loc_perm
I1205 15:31:44.587076 26649 net.cpp:157] Top shape: 1 19 19 24 (8664)
I1205 15:31:44.587080 26649 net.cpp:165] Memory required for data: 249096608
I1205 15:31:44.587081 26649 layer_factory.hpp:77] Creating layer fc7_mbox_loc_flat
I1205 15:31:44.587097 26649 net.cpp:100] Creating Layer fc7_mbox_loc_flat
I1205 15:31:44.587100 26649 net.cpp:434] fc7_mbox_loc_flat <- fc7_mbox_loc_perm
I1205 15:31:44.587103 26649 net.cpp:408] fc7_mbox_loc_flat -> fc7_mbox_loc_flat
I1205 15:31:44.587153 26649 net.cpp:150] Setting up fc7_mbox_loc_flat
I1205 15:31:44.587158 26649 net.cpp:157] Top shape: 1 8664 (8664)
I1205 15:31:44.587160 26649 net.cpp:165] Memory required for data: 249131264
I1205 15:31:44.587163 26649 layer_factory.hpp:77] Creating layer fc7_mbox_conf
I1205 15:31:44.587169 26649 net.cpp:100] Creating Layer fc7_mbox_conf
I1205 15:31:44.587172 26649 net.cpp:434] fc7_mbox_conf <- fc7_relu7_0_split_2
I1205 15:31:44.587178 26649 net.cpp:408] fc7_mbox_conf -> fc7_mbox_conf
I1205 15:31:44.594555 26649 net.cpp:150] Setting up fc7_mbox_conf
I1205 15:31:44.594571 26649 net.cpp:157] Top shape: 1 126 19 19 (45486)
I1205 15:31:44.594575 26649 net.cpp:165] Memory required for data: 249313208
I1205 15:31:44.594600 26649 layer_factory.hpp:77] Creating layer fc7_mbox_conf_perm
I1205 15:31:44.594607 26649 net.cpp:100] Creating Layer fc7_mbox_conf_perm
I1205 15:31:44.594611 26649 net.cpp:434] fc7_mbox_conf_perm <- fc7_mbox_conf
I1205 15:31:44.594615 26649 net.cpp:408] fc7_mbox_conf_perm -> fc7_mbox_conf_perm
I1205 15:31:44.594729 26649 net.cpp:150] Setting up fc7_mbox_conf_perm
I1205 15:31:44.594734 26649 net.cpp:157] Top shape: 1 19 19 126 (45486)
I1205 15:31:44.594738 26649 net.cpp:165] Memory required for data: 249495152
I1205 15:31:44.594739 26649 layer_factory.hpp:77] Creating layer fc7_mbox_conf_flat
I1205 15:31:44.594763 26649 net.cpp:100] Creating Layer fc7_mbox_conf_flat
I1205 15:31:44.594764 26649 net.cpp:434] fc7_mbox_conf_flat <- fc7_mbox_conf_perm
I1205 15:31:44.594769 26649 net.cpp:408] fc7_mbox_conf_flat -> fc7_mbox_conf_flat
I1205 15:31:44.594801 26649 net.cpp:150] Setting up fc7_mbox_conf_flat
I1205 15:31:44.594806 26649 net.cpp:157] Top shape: 1 45486 (45486)
I1205 15:31:44.594810 26649 net.cpp:165] Memory required for data: 249677096
I1205 15:31:44.594811 26649 layer_factory.hpp:77] Creating layer fc7_mbox_priorbox
I1205 15:31:44.594816 26649 net.cpp:100] Creating Layer fc7_mbox_priorbox
I1205 15:31:44.594820 26649 net.cpp:434] fc7_mbox_priorbox <- fc7_relu7_0_split_3
I1205 15:31:44.594822 26649 net.cpp:434] fc7_mbox_priorbox <- data_data_0_split_2
I1205 15:31:44.594837 26649 net.cpp:408] fc7_mbox_priorbox -> fc7_mbox_priorbox
I1205 15:31:44.594861 26649 net.cpp:150] Setting up fc7_mbox_priorbox
I1205 15:31:44.594864 26649 net.cpp:157] Top shape: 1 2 8664 (17328)
I1205 15:31:44.594867 26649 net.cpp:165] Memory required for data: 249746408
I1205 15:31:44.594869 26649 layer_factory.hpp:77] Creating layer conv6_2_mbox_loc
I1205 15:31:44.594877 26649 net.cpp:100] Creating Layer conv6_2_mbox_loc
I1205 15:31:44.594880 26649 net.cpp:434] conv6_2_mbox_loc <- conv6_2_conv6_2_relu_0_split_1
I1205 15:31:44.594885 26649 net.cpp:408] conv6_2_mbox_loc -> conv6_2_mbox_loc
I1205 15:31:44.596621 26649 net.cpp:150] Setting up conv6_2_mbox_loc
I1205 15:31:44.596632 26649 net.cpp:157] Top shape: 1 24 10 10 (2400)
I1205 15:31:44.596634 26649 net.cpp:165] Memory required for data: 249756008
I1205 15:31:44.596657 26649 layer_factory.hpp:77] Creating layer conv6_2_mbox_loc_perm
I1205 15:31:44.596663 26649 net.cpp:100] Creating Layer conv6_2_mbox_loc_perm
I1205 15:31:44.596668 26649 net.cpp:434] conv6_2_mbox_loc_perm <- conv6_2_mbox_loc
I1205 15:31:44.596671 26649 net.cpp:408] conv6_2_mbox_loc_perm -> conv6_2_mbox_loc_perm
I1205 15:31:44.596772 26649 net.cpp:150] Setting up conv6_2_mbox_loc_perm
I1205 15:31:44.596777 26649 net.cpp:157] Top shape: 1 10 10 24 (2400)
I1205 15:31:44.596781 26649 net.cpp:165] Memory required for data: 249765608
I1205 15:31:44.596782 26649 layer_factory.hpp:77] Creating layer conv6_2_mbox_loc_flat
I1205 15:31:44.596786 26649 net.cpp:100] Creating Layer conv6_2_mbox_loc_flat
I1205 15:31:44.596807 26649 net.cpp:434] conv6_2_mbox_loc_flat <- conv6_2_mbox_loc_perm
I1205 15:31:44.596812 26649 net.cpp:408] conv6_2_mbox_loc_flat -> conv6_2_mbox_loc_flat
I1205 15:31:44.596843 26649 net.cpp:150] Setting up conv6_2_mbox_loc_flat
I1205 15:31:44.596848 26649 net.cpp:157] Top shape: 1 2400 (2400)
I1205 15:31:44.596849 26649 net.cpp:165] Memory required for data: 249775208
I1205 15:31:44.596853 26649 layer_factory.hpp:77] Creating layer conv6_2_mbox_conf
I1205 15:31:44.596859 26649 net.cpp:100] Creating Layer conv6_2_mbox_conf
I1205 15:31:44.596864 26649 net.cpp:434] conv6_2_mbox_conf <- conv6_2_conv6_2_relu_0_split_2
I1205 15:31:44.596869 26649 net.cpp:408] conv6_2_mbox_conf -> conv6_2_mbox_conf
I1205 15:31:44.601781 26649 net.cpp:150] Setting up conv6_2_mbox_conf
I1205 15:31:44.601817 26649 net.cpp:157] Top shape: 1 126 10 10 (12600)
I1205 15:31:44.601821 26649 net.cpp:165] Memory required for data: 249825608
I1205 15:31:44.601829 26649 layer_factory.hpp:77] Creating layer conv6_2_mbox_conf_perm
I1205 15:31:44.601836 26649 net.cpp:100] Creating Layer conv6_2_mbox_conf_perm
I1205 15:31:44.601855 26649 net.cpp:434] conv6_2_mbox_conf_perm <- conv6_2_mbox_conf
I1205 15:31:44.601860 26649 net.cpp:408] conv6_2_mbox_conf_perm -> conv6_2_mbox_conf_perm
I1205 15:31:44.601968 26649 net.cpp:150] Setting up conv6_2_mbox_conf_perm
I1205 15:31:44.601974 26649 net.cpp:157] Top shape: 1 10 10 126 (12600)
I1205 15:31:44.601994 26649 net.cpp:165] Memory required for data: 249876008
I1205 15:31:44.601996 26649 layer_factory.hpp:77] Creating layer conv6_2_mbox_conf_flat
I1205 15:31:44.602002 26649 net.cpp:100] Creating Layer conv6_2_mbox_conf_flat
I1205 15:31:44.602005 26649 net.cpp:434] conv6_2_mbox_conf_flat <- conv6_2_mbox_conf_perm
I1205 15:31:44.602027 26649 net.cpp:408] conv6_2_mbox_conf_flat -> conv6_2_mbox_conf_flat
I1205 15:31:44.602062 26649 net.cpp:150] Setting up conv6_2_mbox_conf_flat
I1205 15:31:44.602068 26649 net.cpp:157] Top shape: 1 12600 (12600)
I1205 15:31:44.602071 26649 net.cpp:165] Memory required for data: 249926408
I1205 15:31:44.602073 26649 layer_factory.hpp:77] Creating layer conv6_2_mbox_priorbox
I1205 15:31:44.602079 26649 net.cpp:100] Creating Layer conv6_2_mbox_priorbox
I1205 15:31:44.602084 26649 net.cpp:434] conv6_2_mbox_priorbox <- conv6_2_conv6_2_relu_0_split_3
I1205 15:31:44.602092 26649 net.cpp:434] conv6_2_mbox_priorbox <- data_data_0_split_3
I1205 15:31:44.602095 26649 net.cpp:408] conv6_2_mbox_priorbox -> conv6_2_mbox_priorbox
I1205 15:31:44.602123 26649 net.cpp:150] Setting up conv6_2_mbox_priorbox
I1205 15:31:44.602138 26649 net.cpp:157] Top shape: 1 2 2400 (4800)
I1205 15:31:44.602141 26649 net.cpp:165] Memory required for data: 249945608
I1205 15:31:44.602144 26649 layer_factory.hpp:77] Creating layer conv7_2_mbox_loc
I1205 15:31:44.602152 26649 net.cpp:100] Creating Layer conv7_2_mbox_loc
I1205 15:31:44.602156 26649 net.cpp:434] conv7_2_mbox_loc <- conv7_2_conv7_2_relu_0_split_1
I1205 15:31:44.602161 26649 net.cpp:408] conv7_2_mbox_loc -> conv7_2_mbox_loc
I1205 15:31:44.603627 26649 net.cpp:150] Setting up conv7_2_mbox_loc
I1205 15:31:44.603639 26649 net.cpp:157] Top shape: 1 24 5 5 (600)
I1205 15:31:44.603642 26649 net.cpp:165] Memory required for data: 249948008
I1205 15:31:44.603665 26649 layer_factory.hpp:77] Creating layer conv7_2_mbox_loc_perm
I1205 15:31:44.603672 26649 net.cpp:100] Creating Layer conv7_2_mbox_loc_perm
I1205 15:31:44.603675 26649 net.cpp:434] conv7_2_mbox_loc_perm <- conv7_2_mbox_loc
I1205 15:31:44.603680 26649 net.cpp:408] conv7_2_mbox_loc_perm -> conv7_2_mbox_loc_perm
I1205 15:31:44.603814 26649 net.cpp:150] Setting up conv7_2_mbox_loc_perm
I1205 15:31:44.603821 26649 net.cpp:157] Top shape: 1 5 5 24 (600)
I1205 15:31:44.603822 26649 net.cpp:165] Memory required for data: 249950408
I1205 15:31:44.603824 26649 layer_factory.hpp:77] Creating layer conv7_2_mbox_loc_flat
I1205 15:31:44.603847 26649 net.cpp:100] Creating Layer conv7_2_mbox_loc_flat
I1205 15:31:44.603850 26649 net.cpp:434] conv7_2_mbox_loc_flat <- conv7_2_mbox_loc_perm
I1205 15:31:44.603854 26649 net.cpp:408] conv7_2_mbox_loc_flat -> conv7_2_mbox_loc_flat
I1205 15:31:44.603888 26649 net.cpp:150] Setting up conv7_2_mbox_loc_flat
I1205 15:31:44.603905 26649 net.cpp:157] Top shape: 1 600 (600)
I1205 15:31:44.603907 26649 net.cpp:165] Memory required for data: 249952808
I1205 15:31:44.603910 26649 layer_factory.hpp:77] Creating layer conv7_2_mbox_conf
I1205 15:31:44.603935 26649 net.cpp:100] Creating Layer conv7_2_mbox_conf
I1205 15:31:44.603937 26649 net.cpp:434] conv7_2_mbox_conf <- conv7_2_conv7_2_relu_0_split_2
I1205 15:31:44.603942 26649 net.cpp:408] conv7_2_mbox_conf -> conv7_2_mbox_conf
I1205 15:31:44.606497 26649 net.cpp:150] Setting up conv7_2_mbox_conf
I1205 15:31:44.606506 26649 net.cpp:157] Top shape: 1 126 5 5 (3150)
I1205 15:31:44.606509 26649 net.cpp:165] Memory required for data: 249965408
I1205 15:31:44.606534 26649 layer_factory.hpp:77] Creating layer conv7_2_mbox_conf_perm
I1205 15:31:44.606539 26649 net.cpp:100] Creating Layer conv7_2_mbox_conf_perm
I1205 15:31:44.606541 26649 net.cpp:434] conv7_2_mbox_conf_perm <- conv7_2_mbox_conf
I1205 15:31:44.606546 26649 net.cpp:408] conv7_2_mbox_conf_perm -> conv7_2_mbox_conf_perm
I1205 15:31:44.606688 26649 net.cpp:150] Setting up conv7_2_mbox_conf_perm
I1205 15:31:44.606693 26649 net.cpp:157] Top shape: 1 5 5 126 (3150)
I1205 15:31:44.606696 26649 net.cpp:165] Memory required for data: 249978008
I1205 15:31:44.606698 26649 layer_factory.hpp:77] Creating layer conv7_2_mbox_conf_flat
I1205 15:31:44.606720 26649 net.cpp:100] Creating Layer conv7_2_mbox_conf_flat
I1205 15:31:44.606724 26649 net.cpp:434] conv7_2_mbox_conf_flat <- conv7_2_mbox_conf_perm
I1205 15:31:44.606726 26649 net.cpp:408] conv7_2_mbox_conf_flat -> conv7_2_mbox_conf_flat
I1205 15:31:44.606760 26649 net.cpp:150] Setting up conv7_2_mbox_conf_flat
I1205 15:31:44.606765 26649 net.cpp:157] Top shape: 1 3150 (3150)
I1205 15:31:44.606767 26649 net.cpp:165] Memory required for data: 249990608
I1205 15:31:44.606770 26649 layer_factory.hpp:77] Creating layer conv7_2_mbox_priorbox
I1205 15:31:44.606776 26649 net.cpp:100] Creating Layer conv7_2_mbox_priorbox
I1205 15:31:44.606781 26649 net.cpp:434] conv7_2_mbox_priorbox <- conv7_2_conv7_2_relu_0_split_3
I1205 15:31:44.606784 26649 net.cpp:434] conv7_2_mbox_priorbox <- data_data_0_split_4
I1205 15:31:44.606788 26649 net.cpp:408] conv7_2_mbox_priorbox -> conv7_2_mbox_priorbox
I1205 15:31:44.606809 26649 net.cpp:150] Setting up conv7_2_mbox_priorbox
I1205 15:31:44.606814 26649 net.cpp:157] Top shape: 1 2 600 (1200)
I1205 15:31:44.606824 26649 net.cpp:165] Memory required for data: 249995408
I1205 15:31:44.606827 26649 layer_factory.hpp:77] Creating layer conv8_2_mbox_loc
I1205 15:31:44.606834 26649 net.cpp:100] Creating Layer conv8_2_mbox_loc
I1205 15:31:44.606837 26649 net.cpp:434] conv8_2_mbox_loc <- conv8_2_conv8_2_relu_0_split_1
I1205 15:31:44.606843 26649 net.cpp:408] conv8_2_mbox_loc -> conv8_2_mbox_loc
I1205 15:31:44.607931 26649 net.cpp:150] Setting up conv8_2_mbox_loc
I1205 15:31:44.607941 26649 net.cpp:157] Top shape: 1 16 3 3 (144)
I1205 15:31:44.607944 26649 net.cpp:165] Memory required for data: 249995984
I1205 15:31:44.607975 26649 layer_factory.hpp:77] Creating layer conv8_2_mbox_loc_perm
I1205 15:31:44.607981 26649 net.cpp:100] Creating Layer conv8_2_mbox_loc_perm
I1205 15:31:44.607985 26649 net.cpp:434] conv8_2_mbox_loc_perm <- conv8_2_mbox_loc
I1205 15:31:44.608002 26649 net.cpp:408] conv8_2_mbox_loc_perm -> conv8_2_mbox_loc_perm
I1205 15:31:44.608106 26649 net.cpp:150] Setting up conv8_2_mbox_loc_perm
I1205 15:31:44.608113 26649 net.cpp:157] Top shape: 1 3 3 16 (144)
I1205 15:31:44.608114 26649 net.cpp:165] Memory required for data: 249996560
I1205 15:31:44.608117 26649 layer_factory.hpp:77] Creating layer conv8_2_mbox_loc_flat
I1205 15:31:44.608139 26649 net.cpp:100] Creating Layer conv8_2_mbox_loc_flat
I1205 15:31:44.608141 26649 net.cpp:434] conv8_2_mbox_loc_flat <- conv8_2_mbox_loc_perm
I1205 15:31:44.608146 26649 net.cpp:408] conv8_2_mbox_loc_flat -> conv8_2_mbox_loc_flat
I1205 15:31:44.608165 26649 net.cpp:150] Setting up conv8_2_mbox_loc_flat
I1205 15:31:44.608170 26649 net.cpp:157] Top shape: 1 144 (144)
I1205 15:31:44.608173 26649 net.cpp:165] Memory required for data: 249997136
I1205 15:31:44.608175 26649 layer_factory.hpp:77] Creating layer conv8_2_mbox_conf
I1205 15:31:44.608197 26649 net.cpp:100] Creating Layer conv8_2_mbox_conf
I1205 15:31:44.608201 26649 net.cpp:434] conv8_2_mbox_conf <- conv8_2_conv8_2_relu_0_split_2
I1205 15:31:44.608206 26649 net.cpp:408] conv8_2_mbox_conf -> conv8_2_mbox_conf
I1205 15:31:44.610355 26649 net.cpp:150] Setting up conv8_2_mbox_conf
I1205 15:31:44.610365 26649 net.cpp:157] Top shape: 1 84 3 3 (756)
I1205 15:31:44.610368 26649 net.cpp:165] Memory required for data: 250000160
I1205 15:31:44.610391 26649 layer_factory.hpp:77] Creating layer conv8_2_mbox_conf_perm
I1205 15:31:44.610397 26649 net.cpp:100] Creating Layer conv8_2_mbox_conf_perm
I1205 15:31:44.610400 26649 net.cpp:434] conv8_2_mbox_conf_perm <- conv8_2_mbox_conf
I1205 15:31:44.610405 26649 net.cpp:408] conv8_2_mbox_conf_perm -> conv8_2_mbox_conf_perm
I1205 15:31:44.610519 26649 net.cpp:150] Setting up conv8_2_mbox_conf_perm
I1205 15:31:44.610525 26649 net.cpp:157] Top shape: 1 3 3 84 (756)
I1205 15:31:44.610528 26649 net.cpp:165] Memory required for data: 250003184
I1205 15:31:44.610530 26649 layer_factory.hpp:77] Creating layer conv8_2_mbox_conf_flat
I1205 15:31:44.610534 26649 net.cpp:100] Creating Layer conv8_2_mbox_conf_flat
I1205 15:31:44.610555 26649 net.cpp:434] conv8_2_mbox_conf_flat <- conv8_2_mbox_conf_perm
I1205 15:31:44.610560 26649 net.cpp:408] conv8_2_mbox_conf_flat -> conv8_2_mbox_conf_flat
I1205 15:31:44.610580 26649 net.cpp:150] Setting up conv8_2_mbox_conf_flat
I1205 15:31:44.610602 26649 net.cpp:157] Top shape: 1 756 (756)
I1205 15:31:44.610605 26649 net.cpp:165] Memory required for data: 250006208
I1205 15:31:44.610607 26649 layer_factory.hpp:77] Creating layer conv8_2_mbox_priorbox
I1205 15:31:44.610611 26649 net.cpp:100] Creating Layer conv8_2_mbox_priorbox
I1205 15:31:44.610615 26649 net.cpp:434] conv8_2_mbox_priorbox <- conv8_2_conv8_2_relu_0_split_3
I1205 15:31:44.610618 26649 net.cpp:434] conv8_2_mbox_priorbox <- data_data_0_split_5
I1205 15:31:44.610622 26649 net.cpp:408] conv8_2_mbox_priorbox -> conv8_2_mbox_priorbox
I1205 15:31:44.610657 26649 net.cpp:150] Setting up conv8_2_mbox_priorbox
I1205 15:31:44.610662 26649 net.cpp:157] Top shape: 1 2 144 (288)
I1205 15:31:44.610666 26649 net.cpp:165] Memory required for data: 250007360
I1205 15:31:44.610683 26649 layer_factory.hpp:77] Creating layer conv9_2_mbox_loc
I1205 15:31:44.610715 26649 net.cpp:100] Creating Layer conv9_2_mbox_loc
I1205 15:31:44.610718 26649 net.cpp:434] conv9_2_mbox_loc <- conv9_2_conv9_2_relu_0_split_0
I1205 15:31:44.610724 26649 net.cpp:408] conv9_2_mbox_loc -> conv9_2_mbox_loc
I1205 15:31:44.611791 26649 net.cpp:150] Setting up conv9_2_mbox_loc
I1205 15:31:44.611801 26649 net.cpp:157] Top shape: 1 16 1 1 (16)
I1205 15:31:44.611804 26649 net.cpp:165] Memory required for data: 250007424
I1205 15:31:44.611809 26649 layer_factory.hpp:77] Creating layer conv9_2_mbox_loc_perm
I1205 15:31:44.611832 26649 net.cpp:100] Creating Layer conv9_2_mbox_loc_perm
I1205 15:31:44.611835 26649 net.cpp:434] conv9_2_mbox_loc_perm <- conv9_2_mbox_loc
I1205 15:31:44.611840 26649 net.cpp:408] conv9_2_mbox_loc_perm -> conv9_2_mbox_loc_perm
I1205 15:31:44.611958 26649 net.cpp:150] Setting up conv9_2_mbox_loc_perm
I1205 15:31:44.611963 26649 net.cpp:157] Top shape: 1 1 1 16 (16)
I1205 15:31:44.611964 26649 net.cpp:165] Memory required for data: 250007488
I1205 15:31:44.611966 26649 layer_factory.hpp:77] Creating layer conv9_2_mbox_loc_flat
I1205 15:31:44.611970 26649 net.cpp:100] Creating Layer conv9_2_mbox_loc_flat
I1205 15:31:44.611992 26649 net.cpp:434] conv9_2_mbox_loc_flat <- conv9_2_mbox_loc_perm
I1205 15:31:44.611996 26649 net.cpp:408] conv9_2_mbox_loc_flat -> conv9_2_mbox_loc_flat
I1205 15:31:44.612030 26649 net.cpp:150] Setting up conv9_2_mbox_loc_flat
I1205 15:31:44.612033 26649 net.cpp:157] Top shape: 1 16 (16)
I1205 15:31:44.612035 26649 net.cpp:165] Memory required for data: 250007552
I1205 15:31:44.612038 26649 layer_factory.hpp:77] Creating layer conv9_2_mbox_conf
I1205 15:31:44.612046 26649 net.cpp:100] Creating Layer conv9_2_mbox_conf
I1205 15:31:44.612051 26649 net.cpp:434] conv9_2_mbox_conf <- conv9_2_conv9_2_relu_0_split_1
I1205 15:31:44.612056 26649 net.cpp:408] conv9_2_mbox_conf -> conv9_2_mbox_conf
I1205 15:31:44.614197 26649 net.cpp:150] Setting up conv9_2_mbox_conf
I1205 15:31:44.614207 26649 net.cpp:157] Top shape: 1 84 1 1 (84)
I1205 15:31:44.614209 26649 net.cpp:165] Memory required for data: 250007888
I1205 15:31:44.614233 26649 layer_factory.hpp:77] Creating layer conv9_2_mbox_conf_perm
I1205 15:31:44.614238 26649 net.cpp:100] Creating Layer conv9_2_mbox_conf_perm
I1205 15:31:44.614241 26649 net.cpp:434] conv9_2_mbox_conf_perm <- conv9_2_mbox_conf
I1205 15:31:44.614246 26649 net.cpp:408] conv9_2_mbox_conf_perm -> conv9_2_mbox_conf_perm
I1205 15:31:44.614363 26649 net.cpp:150] Setting up conv9_2_mbox_conf_perm
I1205 15:31:44.614368 26649 net.cpp:157] Top shape: 1 1 1 84 (84)
I1205 15:31:44.614372 26649 net.cpp:165] Memory required for data: 250008224
I1205 15:31:44.614373 26649 layer_factory.hpp:77] Creating layer conv9_2_mbox_conf_flat
I1205 15:31:44.614377 26649 net.cpp:100] Creating Layer conv9_2_mbox_conf_flat
I1205 15:31:44.614398 26649 net.cpp:434] conv9_2_mbox_conf_flat <- conv9_2_mbox_conf_perm
I1205 15:31:44.614403 26649 net.cpp:408] conv9_2_mbox_conf_flat -> conv9_2_mbox_conf_flat
I1205 15:31:44.614435 26649 net.cpp:150] Setting up conv9_2_mbox_conf_flat
I1205 15:31:44.614440 26649 net.cpp:157] Top shape: 1 84 (84)
I1205 15:31:44.614444 26649 net.cpp:165] Memory required for data: 250008560
I1205 15:31:44.614446 26649 layer_factory.hpp:77] Creating layer conv9_2_mbox_priorbox
I1205 15:31:44.614454 26649 net.cpp:100] Creating Layer conv9_2_mbox_priorbox
I1205 15:31:44.614459 26649 net.cpp:434] conv9_2_mbox_priorbox <- conv9_2_conv9_2_relu_0_split_2
I1205 15:31:44.614461 26649 net.cpp:434] conv9_2_mbox_priorbox <- data_data_0_split_6
I1205 15:31:44.614465 26649 net.cpp:408] conv9_2_mbox_priorbox -> conv9_2_mbox_priorbox
I1205 15:31:44.614488 26649 net.cpp:150] Setting up conv9_2_mbox_priorbox
I1205 15:31:44.614493 26649 net.cpp:157] Top shape: 1 2 16 (32)
I1205 15:31:44.614496 26649 net.cpp:165] Memory required for data: 250008688
I1205 15:31:44.614498 26649 layer_factory.hpp:77] Creating layer mbox_loc
I1205 15:31:44.614507 26649 net.cpp:100] Creating Layer mbox_loc
I1205 15:31:44.614511 26649 net.cpp:434] mbox_loc <- conv4_3_norm_mbox_loc_flat
I1205 15:31:44.614539 26649 net.cpp:434] mbox_loc <- fc7_mbox_loc_flat
I1205 15:31:44.614543 26649 net.cpp:434] mbox_loc <- conv6_2_mbox_loc_flat
I1205 15:31:44.614547 26649 net.cpp:434] mbox_loc <- conv7_2_mbox_loc_flat
I1205 15:31:44.614549 26649 net.cpp:434] mbox_loc <- conv8_2_mbox_loc_flat
I1205 15:31:44.614552 26649 net.cpp:434] mbox_loc <- conv9_2_mbox_loc_flat
I1205 15:31:44.614557 26649 net.cpp:408] mbox_loc -> mbox_loc
I1205 15:31:44.614595 26649 net.cpp:150] Setting up mbox_loc
I1205 15:31:44.614600 26649 net.cpp:157] Top shape: 1 34928 (34928)
I1205 15:31:44.614603 26649 net.cpp:165] Memory required for data: 250148400
I1205 15:31:44.614605 26649 layer_factory.hpp:77] Creating layer mbox_conf
I1205 15:31:44.614610 26649 net.cpp:100] Creating Layer mbox_conf
I1205 15:31:44.614614 26649 net.cpp:434] mbox_conf <- conv4_3_norm_mbox_conf_flat
I1205 15:31:44.614616 26649 net.cpp:434] mbox_conf <- fc7_mbox_conf_flat
I1205 15:31:44.614619 26649 net.cpp:434] mbox_conf <- conv6_2_mbox_conf_flat
I1205 15:31:44.614622 26649 net.cpp:434] mbox_conf <- conv7_2_mbox_conf_flat
I1205 15:31:44.614625 26649 net.cpp:434] mbox_conf <- conv8_2_mbox_conf_flat
I1205 15:31:44.614646 26649 net.cpp:434] mbox_conf <- conv9_2_mbox_conf_flat
I1205 15:31:44.614650 26649 net.cpp:408] mbox_conf -> mbox_conf
I1205 15:31:44.614670 26649 net.cpp:150] Setting up mbox_conf
I1205 15:31:44.614686 26649 net.cpp:157] Top shape: 1 183372 (183372)
I1205 15:31:44.614689 26649 net.cpp:165] Memory required for data: 250881888
I1205 15:31:44.614691 26649 layer_factory.hpp:77] Creating layer mbox_priorbox
I1205 15:31:44.614696 26649 net.cpp:100] Creating Layer mbox_priorbox
I1205 15:31:44.614698 26649 net.cpp:434] mbox_priorbox <- conv4_3_norm_mbox_priorbox
I1205 15:31:44.614702 26649 net.cpp:434] mbox_priorbox <- fc7_mbox_priorbox
I1205 15:31:44.614706 26649 net.cpp:434] mbox_priorbox <- conv6_2_mbox_priorbox
I1205 15:31:44.614708 26649 net.cpp:434] mbox_priorbox <- conv7_2_mbox_priorbox
I1205 15:31:44.614711 26649 net.cpp:434] mbox_priorbox <- conv8_2_mbox_priorbox
I1205 15:31:44.614713 26649 net.cpp:434] mbox_priorbox <- conv9_2_mbox_priorbox
I1205 15:31:44.614717 26649 net.cpp:408] mbox_priorbox -> mbox_priorbox
I1205 15:31:44.614737 26649 net.cpp:150] Setting up mbox_priorbox
I1205 15:31:44.614753 26649 net.cpp:157] Top shape: 1 2 34928 (69856)
I1205 15:31:44.614754 26649 net.cpp:165] Memory required for data: 251161312
I1205 15:31:44.614756 26649 layer_factory.hpp:77] Creating layer mbox_loss
I1205 15:31:44.614764 26649 net.cpp:100] Creating Layer mbox_loss
I1205 15:31:44.614766 26649 net.cpp:434] mbox_loss <- mbox_loc
I1205 15:31:44.614769 26649 net.cpp:434] mbox_loss <- mbox_conf
I1205 15:31:44.614773 26649 net.cpp:434] mbox_loss <- mbox_priorbox
…
state {
  phase: TEST
}
layer {
  name: "data"
  type: "AnnotatedData"
  top: "data"
  top: "label"
  include {
    phase: TEST
  }
  transform_param {
    mean_value: 104
    mean_value: 117
    mean_value: 123
    resize_param {
      prob: 1
      resize_mode: WARP
      height: 300
      width: 300
      interp_mode: LINEAR
    }
  }
  data_param {
    source: "examples/VOC0712/VOC0712_test_lmdb"
    batch_size: 8
    backend: LMDB
  }
  annotated_data_param {
    batch_sampler {
    }
    label_map_file: "data/VOC0712/labelmap_voc.prototxt"
  }
}
layer {
  name: "conv1_1"
  type: "Convolution"
  bottom: "data"
  top: "conv1_1"
  param {
    lr_mult: 1
    decay_mult: 1
  }
  param {
    lr_mult: 2
    decay_mult: 0
  }
  convolution_param {
    num_output: 64
    pad: 1
    kernel_size: 3
    weight_filler {
      type: "xavier"
    }
    bias_filler {
      type: "constant"
      value: 0
    }
  }
}
layer {
  name: "relu1_1"
  type: "ReLU"
  bottom: "conv1_1"
  top: "conv1_1"
}
layer {
  name: "conv1_2"
  type: "Convolution"
  bottom: "conv1_1"
  top: "conv1_2"
  param {
    lr_mult: 1
    decay_mult: 1
  }
  param {
    lr_mult: 2
    decay_mult: 0
  }
  convolution_param {
    num_output: 64
    pad: 1
    kernel_size: 3
    weight_filler {
      type: "xavier"
    }
    bias_filler {
      type: "constant"
      value: 0
    }
  }
}
layer {
  name: "relu1_2"
  type: "ReLU"
  bottom: "conv1_2"
  top: "conv1_2"
}
layer {
  name: "pool1"
  type: "Pooling"
  bottom: "conv1_2"
  top: "pool1"
  pooling_param {
    pool: MAX
    kernel_size: 2
    stride: 2
  }
}
layer {
  name: "conv2_1"
  type: "Convolution"
  bottom: "pool1"
  top: "conv2_1"
  param {
    lr_mult: 1
    decay_mult: 1
  }
  param {
    lr_mult: 2
    decay_mult: 0
  }
  convolution_param {
    num_output: 128
    pad: 1
    kernel_size: 3
    weight_filler {
      type: "xavier"
    }
    bias_filler {
      type: "constant"
      value: 0
    }
  }
}
layer {
  name: "relu2_1"
  type: "ReLU"
  bottom: "conv2_1"
  top: "conv2_1"
}
layer {
  name: "conv2_2"
  type: "Convolution"
  bottom: "conv2_1"
  top: "conv2_2"
  param {
    lr_mult: 1
    decay_mult: 1
  }
  param {
    lr_mult: 2
    decay_mult: 0
  }
  convolution_param {
    num_output: 128
    pad: 1
    kernel_size: 3
    weight_filler {
      type: "xavier"
    }
    bias_filler {
      type: "constant"
      value: 0
    }
  }
}
layer {
  name: "relu2_2"
  type: "ReLU"
  bottom: "conv2_2"
  top: "conv2_2"
}
layer {
  name: "pool2"
  type: "Pooling"
  bottom: "conv2_2"
  top: "pool2"
  pooling_param {
    pool: MAX
    kernel_size: 2
    stride: 2
  }
}
layer {
  name: "conv3_1"
  type: "Convolution"
  bottom: "pool2"
  top: "conv3_1"
  param {
    lr_mult: 1
    decay_mult: 1
  }
  param {
    lr_mult: 2
    decay_mult: 0
  }
  convolution_param {
    num_output: 256
    pad: 1
    kernel_size: 3
    weight_filler {
      type: "xavier"
    }
    bias_filler {
      type: "constant"
      value: 0
    }
  }
}
layer {
  name: "relu3_1"
  type: "ReLU"
  bottom: "conv3_1"
  top: "conv3_1"
}
layer {
  name: "conv3_2"
  type: "Convolution"
  bottom: "conv3_1"
  top: "conv3_2"
  param {
    lr_mult: 1
    decay_mult: 1
  }
  param {
    lr_mult: 2
    decay_mult: 0
  }
  convolution_param {
    num_output: 256
    pad: 1
    kernel_size: 3
    weight_filler {
      type: "xavier"
    }
    bias_filler {
      type: "constant"
      value: 0
    }
  }
}
layer {
  name: "relu3_2"
  type: "ReLU"
  bottom: "conv3_2"
  top: "conv3_2"
}
layer {
  name: "conv3_3"
  type: "Convolution"
  bottom: "conv3_2"
  top: "conv3_3"
  param {
    lr_mult: 1
    decay_mult: 1
  }
  param {
    lr_mult: 2
    decay_mult: 0
  }
  convolution_param {
    num_output: 256
    pad: 1
    kernel_size: 3
    weight_filler {
      type: "xavier"
    }
    bias_filler {
      type: "constant"
      value: 0
    }
  }
}
layer {
  name: "relu3_3"
  type: "ReLU"
  bottom: "conv3_3"
  top: "conv3_3"
}
layer {
  name: "pool3"
  type: "Pooling"
  bottom: "conv3_3"
  top: "pool3"
  pooling_param {
    pool: MAX
    kernel_size: 2
    stride: 2
  }
}
layer {
  name: "conv4_1"
  type: "Convolution"
  bottom: "pool3"
  top: "conv4_1"
  param {
    lr_mult: 1
    decay_mult: 1
  }
  param {
    lr_mult: 2
    decay_mult: 0
  }
  convolution_param {
    num_output: 512
    pad: 1
    kernel_size: 3
    weight_filler {
      type: "xavier"
    }
    bias_filler {
      type: "constant"
      value: 0
    }
  }
}
layer {
  name: "relu4_1"
  type: "ReLU"
  bottom: "conv4_1"
  top: "conv4_1"
}
layer {
  name: "conv4_2"
  type: "Convolution"
  bottom: "conv4_1"
  top: "conv4_2"
  param {
    lr_mult: 1
    decay_mult: 1
  }
  param {
    lr_mult: 2
    decay_mult: 0
  }
  convolution_param {
    num_output: 512
    pad: 1
    kernel_size: 3
    weight_filler {
      type: "xavier"
    }
    bias_filler {
      type: "constant"
      value: 0
    }
  }
}
layer {
  name: "relu4_2"
  type: "ReLU"
  bottom: "conv4_2"
  top: "conv4_2"
}
layer {
  name: "conv4_3"
  type: "Convolution"
  bottom: "conv4_2"
  top: "conv4_3"
  param {
    lr_mult: 1
    decay_mult: 1
  }
  param {
    lr_mult: 2
    decay_mult: 0
  }
  convolution_param {
    num_output: 512
    pad: 1
    kernel_size: 3
    weight_filler {
      type: "xavier"
    }
    bias_filler {
      type: "constant"
      value: 0
    }
  }
}
layer {
  name: "relu4_3"
  type: "ReLU"
  bottom: "conv4_3"
  top: "conv4_3"
}
layer {
  name: "pool4"
  type: "Pooling"
  bottom: "conv4_3"
  top: "pool4"
  pooling_param {
    pool: MAX
    kernel_size: 2
    stride: 2
  }
}
layer {
  name: "conv5_1"
  type: "Convolution"
  bottom: "pool4"
  top: "conv5_1"
  param {
    lr_mult: 1
    decay_mult: 1
  }
  param {
    lr_mult: 2
    decay_mult: 0
  }
  convolution_param {
    num_output: 512
    pad: 1
    kernel_size: 3
    weight_filler {
      type: "xavier"
    }
    bias_filler {
      type: "constant"
      value: 0
    }
    dilation: 1
  }
}
layer {
  name: "relu5_1"
  type: "ReLU"
  bottom: "conv5_1"
  top: "conv5_1"
}
layer {
  name: "conv5_2"
  type: "Convolution"
  bottom: "conv5_1"
  top: "conv5_2"
  param {
    lr_mult: 1
    decay_mult: 1
  }
  param {
    lr_mult: 2
    decay_mult: 0
  }
  convolution_param {
    num_output: 512
    pad: 1
    kernel_size: 3
    weight_filler {
      type: "xavier"
    }
    bias_filler {
      type: "constant"
      value: 0
    }
    dilation: 1
  }
}
layer {
  name: "relu5_2"
  type: "ReLU"
  bottom: "conv5_2"
  top: "conv5_2"
}
layer {
  name: "conv5_3"
  type: "Convolution"
  bottom: "conv5_2"
  top: "conv5_3"
  param {
    lr_mult: 1
    decay_mult: 1
  }
  param {
    lr_mult: 2
    decay_mult: 0
  }
  convolution_param {
    num_output: 512
    pad: 1
    kernel_size: 3
    weight_filler {
      type: "xavier"
    }
    bias_filler {
      type: "constant"
      value: 0
    }
    dilation: 1
  }
}
layer {
  name: "relu5_3"
  type: "ReLU"
  bottom: "conv5_3"
  top: "conv5_3"
}
layer {
  name: "pool5"
  type: "Pooling"
  bottom: "conv5_3"
  top: "pool5"
  pooling_param {
    pool: MAX
    kernel_size: 3
    stride: 1
    pad: 1
  }
}
layer {
  name: "fc6"
  type: "Convolution"
  bottom: "pool5"
  top: "fc6"
  param {
    lr_mult: 1
    decay_mult: 1
  }
  param {
    lr_mult: 2
    decay_mult: 0
  }
  convolution_param {
    num_output: 1024
    pad: 6
    kernel_size: 3
    weight_filler {
      type: "xavier"
    }
    bias_filler {
      type: "constant"
      value: 0
    }
    dilation: 6
  }
}
layer {
  name: "relu6"
  type: "ReLU"
  bottom: "fc6"
  top: "fc6"
}
layer {
  name: "fc7"
  type: "Convolution"
  bottom: "fc6"
  top: "fc7"
  param {
    lr_mult: 1
    decay_mult: 1
  }
  param {
    lr_mult: 2
    decay_mult: 0
  }
  convolution_param {
    num_output: 1024
    kernel_size: 1
    weight_filler {
      type: "xavier"
    }
    bias_filler {
      type: "constant"
      value: 0
    }
  }
}
layer {
  name: "relu7"
  type: "ReLU"
  bottom: "fc7"
  top: "fc7"
}
layer {
  name: "conv6_1"
  type: "Convolution"
  bottom: "fc7"
  top: "conv6_1"
  param {
    lr_mult: 1
    decay_mult: 1
  }
  param {
    lr_mult: 2
    decay_mult: 0
  }
  convolution_param {
    num_output: 256
    pad: 0
    kernel_size: 1
    stride: 1
    weight_filler {
      type: "xavier"
    }
    bias_filler {
      type: "constant"
      value: 0
    }
  }
}
layer {
  name: "conv6_1_relu"
  type: "ReLU"
  bottom: "conv6_1"
  top: "conv6_1"
}
layer {
  name: "conv6_2"
  type: "Convolution"
  bottom: "conv6_1"
  top: "conv6_2"
  param {
    lr_mult: 1
    decay_mult: 1
  }
  param {
    lr_mult: 2
    decay_mult: 0
  }
  convolution_param {
    num_output: 512
    pad: 1
    kernel_size: 3
    stride: 2
    weight_filler {
      type: "xavier"
    }
    bias_filler {
      type: "constant"
      value: 0
    }
  }
}
layer {
  name: "conv6_2_relu"
  type: "ReLU"
  bottom: "conv6_2"
  top: "conv6_2"
}
layer {
  name: "conv7_1"
  type: "Convolution"
  bottom: "conv6_2"
  top: "conv7_1"
  param {
    lr_mult: 1
    decay_mult: 1
  }
  param {
    lr_mult: 2
    decay_mult: 0
  }
  convolution_param {
    num_output: 128
    pad: 0
    kernel_size: 1
    stride: 1
    weight_filler {
      type: "xavier"
    }
    bias_filler {
      type: "constant"
      value: 0
    }
  }
}
layer {
  name: "conv7_1_relu"
  type: "ReLU"
  bottom: "conv7_1"
  top: "conv7_1"
}
layer {
  name: "conv7_2"
  type: "Convolution"
  bottom: "conv7_1"
  top: "conv7_2"
  param {
    lr_mult: 1
    decay_mult: 1
  }
  param {
    lr_mult: 2
    decay_mult: 0
  }
  convolution_param {
    num_output: 256
    pad: 1
    kernel_size: 3
    stride: 2
    weight_filler {
      type: "xavier"
    }
    bias_filler {
      type: "constant"
      value: 0
    }
  }
}
layer {
  name: "conv7_2_relu"
  type: "ReLU"
  bottom: "conv7_2"
  top: "conv7_2"
}
layer {
  name: "conv8_1"
  type: "Convolution"
  bottom: "conv7_2"
  top: "conv8_1"
  param {
    lr_mult: 1
    decay_mult: 1
  }
  param {
    lr_mult: 2
    decay_mult: 0
  }
  convolution_param {
    num_output: 128
    pad: 0
    kernel_size: 1
    stride: 1
    weight_filler {
      type: "xavier"
    }
    bias_filler {
      type: "constant"
      value: 0
    }
  }
}
layer {
  name: "conv8_1_relu"
  type: "ReLU"
  bottom: "conv8_1"
  top: "conv8_1"
}
layer {
  name: "conv8_2"
  type: "Convolution"
  bottom: "conv8_1"
  top: "conv8_2"
  param {
    lr_mult: 1
    decay_mult: 1
  }
  param {
    lr_mult: 2
    decay_mult: 0
  }
  convolution_param {
    num_output: 256
    pad: 0
    kernel_size: 3
    stride: 1
    weight_filler {
      type: "xavier"
    }
    bias_filler {
      type: "constant"
      value: 0
    }
  }
}
layer {
  name: "conv8_2_relu"
  type: "ReLU"
  bottom: "conv8_2"
  top: "conv8_2"
}
layer {
  name: "conv9_1"
  type: "Convolution"
  bottom: "conv8_2"
  top: "conv9_1"
  param {
    lr_mult: 1
    decay_mult: 1
  }
  param {
    lr_mult: 2
    decay_mult: 0
  }
  convolution_param {
    num_output: 128
    pad: 0
    kernel_size: 1
    stride: 1
    weight_filler {
      type: "xavier"
    }
    bias_filler {
      type: "constant"
      value: 0
    }
  }
}
layer {
  name: "conv9_1_relu"
  type: "ReLU"
  bottom: "conv9_1"
  top: "conv9_1"
}
layer {
  name: "conv9_2"
  type: "Convolution"
  bottom: "conv9_1"
  top: "conv9_2"
  param {
    lr_mult: 1
    decay_mult: 1
  }
  param {
    lr_mult: 2
    decay_mult: 0
  }
  convolution_param {
    num_output: 256
    pad: 0
    kernel_size: 3
    stride: 1
    weight_filler {
      type: "xavier"
    }
    bias_filler {
      type: "constant"
      value: 0
    }
  }
}
layer {
  name: "conv9_2_relu"
  type: "ReLU"
  bottom: "conv9_2"
  top: "conv9_2"
}
layer {
  name: "conv4_3_norm"
  type: "Normalize"
  bottom: "conv4_3"
  top: "conv4_3_norm"
  norm_param {
    across_spatial: false
    scale_filler {
      type: "constant"
      value: 20
    }
    channel_shared: false
  }
}
layer {
  name: "conv4_3_norm_mbox_loc"
  type: "Convolution"
  bottom: "conv4_3_norm"
  top: "conv4_3_norm_mbox_loc"
  param {
    lr_mult: 1
    decay_mult: 1
  }
  param {
    lr_mult: 2
    decay_mult: 0
  }
  convolution_param {
    num_output: 16
    pad: 1
    kernel_size: 3
    stride: 1
    weight_filler {
      type: "xavier"
    }
    bias_filler {
      type: "constant"
      value: 0
    }
  }
}
layer {
  name: "conv4_3_norm_mbox_loc_perm"
  type: "Permute"
  bottom: "conv4_3_norm_mbox_loc"
  top: "conv4_3_norm_mbox_loc_perm"
  permute_param {
    order: 0
    order: 2
    order: 3
    order: 1
  }
}
layer {
  name: "conv4_3_norm_mbox_loc_flat"
  type: "Flatten"
  bottom: "conv4_3_norm_mbox_loc_perm"
  top: "conv4_3_norm_mbox_loc_flat"
  flatten_param {
    axis: 1
  }
}
layer {
  name: "conv4_3_norm_mbox_conf"
  type: "Convolution"
  bottom: "conv4_3_norm"
  top: "conv4_3_norm_mbox_conf"
  param {
    lr_mult: 1
    decay_mult: 1
  }
  param {
    lr_mult: 2
    decay_mult: 0
  }
  convolution_param {
    num_output: 84
    pad: 1
    kernel_size: 3
    stride: 1
    weight_filler {
      type: "xavier"
    }
    bias_filler {
      type: "constant"
      value: 0
    }
  }
}
layer {
  name: "conv4_3_norm_mbox_conf_perm"
  type: "Permute"
  bottom: "conv4_3_norm_mbox_conf"
  top: "conv4_3_norm_mbox_conf_perm"
  permute_param {
    order: 0
    order: 2
    order: 3
    order: 1
  }
}
layer {
  name: "conv4_3_norm_mbox_conf_flat"
  type: "Flatten"
  bottom: "conv4_3_norm_mbox_conf_perm"
  top: "conv4_3_norm_mbox_conf_flat"
  flatten_param {
    axis: 1
  }
}
layer {
  name: "conv4_3_norm_mbox_priorbox"
  type: "PriorBox"
  bottom: "conv4_3_norm"
  bottom: "data"
  top: "conv4_3_norm_mbox_priorbox"
  prior_box_param {
    min_size: 30
    max_size: 60
    aspect_ratio: 2
    flip: true
    clip: false
    variance: 0.1
    variance: 0.1
    variance: 0.2
    variance: 0.2
    step: 8
    offset: 0.5
  }
}
layer {
  name: "fc7_mbox_loc"
  type: "Convolution"
  bottom: "fc7"
  top: "fc7_mbox_loc"
  param {
    lr_mult: 1
    decay_mult: 1
  }
  param {
    lr_mult: 2
    decay_mult: 0
  }
  convolution_param {
    num_output: 24
    pad: 1
    kernel_size: 3
    stride: 1
    weight_filler {
      type: "xavier"
    }
    bias_filler {
      type: "constant"
      value: 0
    }
  }
}
layer {
  name: "fc7_mbox_loc_perm"
  type: "Permute"
  bottom: "fc7_mbox_loc"
  top: "fc7_mbox_loc_perm"
  permute_param {
    order: 0
    order: 2
    order: 3
    order: 1
  }
}
layer {
  name: "fc7_mbox_loc_flat"
  type: "Flatten"
  bottom: "fc7_mbox_loc_perm"
  top: "fc7_mbox_loc_flat"
  flatten_param {
    axis: 1
  }
}
layer {
  name: "fc7_mbox_conf"
  type: "Convolution"
  bottom: "fc7"
  top: "fc7_mbox_conf"
  param {
    lr_mult: 1
    decay_mult: 1
  }
  param {
    lr_mult: 2
    decay_mult: 0
  }
  convolution_param {
    num_output: 126
    pad: 1
    kernel_size: 3
    stride: 1
    weight_filler {
      type: "xavier"
    }
    bias_filler {
      type: "constant"
      value: 0
    }
  }
}
layer {
  name: "fc7_mbox_conf_perm"
  type: "Permute"
  bottom: "fc7_mbox_conf"
  top: "fc7_mbox_conf_perm"
  permute_param {
    order: 0
    order: 2
    order: 3
    order: 1
  }
}
layer {
  name: "fc7_mbox_conf_flat"
  type: "Flatten"
  bottom: "fc7_mbox_conf_perm"
  top: "fc7_mbox_conf_flat"
  flatten_param {
    axis: 1
  }
}
layer {
  name: "fc7_mbox_priorbox"
  type: "PriorBox"
  bottom: "fc7"
  bottom: "data"
  top: "fc7_mbox_priorbox"
  prior_box_param {
    min_size: 60
    max_size: 111
    aspect_ratio: 2
    aspect_ratio: 3
    flip: true
    clip: false
    variance: 0.1
    variance: 0.1
    variance: 0.2
    variance: 0.2
    step: 16
    offset: 0.5
  }
}
layer {
  name: "conv6_2_mbox_loc"
  type: "Convolution"
  bottom: "conv6_2"
  top: "conv6_2_mbox_loc"
  param {
    lr_mult: 1
    decay_mult: 1
  }
  param {
    lr_mult: 2
    decay_mult: 0
  }
  convolution_param {
    num_output: 24
    pad: 1
    kernel_size: 3
    stride: 1
    weight_filler {
      type: "xavier"
    }
    bias_filler {
      type: "constant"
      value: 0
    }
  }
}
layer {
  name: "conv6_2_mbox_loc_perm"
  type: "Permute"
  bottom: "conv6_2_mbox_loc"
  top: "conv6_2_mbox_loc_perm"
  permute_param {
    order: 0
    order: 2
    order: 3
    order: 1
  }
}
layer {
  name: "conv6_2_mbox_loc_flat"
  type: "Flatten"
  bottom: "conv6_2_mbox_loc_perm"
  top: "conv6_2_mbox_loc_flat"
  flatten_param {
    axis: 1
  }
}
layer {
  name: "conv6_2_mbox_conf"
  type: "Convolution"
  bottom: "conv6_2"
  top: "conv6_2_mbox_conf"
  param {
    lr_mult: 1
    decay_mult: 1
  }
  param {
    lr_mult: 2
    decay_mult: 0
  }
  convolution_param {
    num_output: 126
    pad: 1
    kernel_size: 3
    stride: 1
    weight_filler {
      type: "xavier"
    }
    bias_filler {
      type: "constant"
      value: 0
    }
  }
}
layer {
  name: "conv6_2_mbox_conf_perm"
  type: "Permute"
  bottom: "conv6_2_mbox_conf"
  top: "conv6_2_mbox_conf_perm"
  permute_param {
    order: 0
    order: 2
    order: 3
    order: 1
  }
}
layer {
  name: "conv6_2_mbox_conf_flat"
  type: "Flatten"
  bottom: "conv6_2_mbox_conf_perm"
  top: "conv6_2_mbox_conf_flat"
  flatten_param {
    axis: 1
  }
}
layer {
  name: "conv6_2_mbox_priorbox"
  type: "PriorBox"
  bottom: "conv6_2"
  bottom: "data"
  top: "conv6_2_mbox_priorbox"
  prior_box_param {
    min_size: 111
    max_size: 162
    aspect_ratio: 2
    aspect_ratio: 3
    flip: true
    clip: false
    variance: 0.1
    variance: 0.1
    variance: 0.2
    variance: 0.2
    step: 32
    offset: 0.5
  }
}
layer {
  name: "conv7_2_mbox_loc"
  type: "Convolution"
  bottom: "conv7_2"
  top: "conv7_2_mbox_loc"
  param {
    lr_mult: 1
    decay_mult: 1
  }
  param {
    lr_mult: 2
    decay_mult: 0
  }
  convolution_param {
    num_output: 24
    pad: 1
    kernel_size: 3
    stride: 1
    weight_filler {
      type: "xavier"
    }
    bias_filler {
      type: "constant"
      value: 0
    }
  }
}
layer {
  name: "conv7_2_mbox_loc_perm"
  type: "Permute"
  bottom: "conv7_2_mbox_loc"
  top: "conv7_2_mbox_loc_perm"
  permute_param {
    order: 0
    order: 2
    order: 3
    order: 1
  }
}
layer {
  name: "conv7_2_mbox_loc_flat"
  type: "Flatten"
  bottom: "conv7_2_mbox_loc_perm"
  top: "conv7_2_mbox_loc_flat"
  flatten_param {
    axis: 1
  }
}
layer {
  name: "conv7_2_mbox_conf"
  type: "Convolution"
  bottom: "conv7_2"
  top: "conv7_2_mbox_conf"
  param {
    lr_mult: 1
    decay_mult: 1
  }
  param {
    lr_mult: 2
    decay_mult: 0
  }
  convolution_param {
    num_output: 126
    pad: 1
    kernel_size: 3
    stride: 1
    weight_filler {
      type: "xavier"
    }
    bias_filler {
      type: "constant"
      value: 0
    }
  }
}
layer {
  name: "conv7_2_mbox_conf_perm"
  type: "Permute"
  bottom: "conv7_2_mbox_conf"
  top: "conv7_2_mbox_conf_perm"
  permute_param {
    order: 0
    order: 2
    order: 3
    order: 1
  }
}
layer {
  name: "conv7_2_mbox_conf_flat"
  type: "Flatten"
  bottom: "conv7_2_mbox_conf_perm"
  top: "conv7_2_mbox_conf_flat"
  flatten_param {
    axis: 1
  }
}
layer {
  name: "conv7_2_mbox_priorbox"
  type: "PriorBox"
  bottom: "conv7_2"
  bottom: "data"
  top: "conv7_2_mbox_priorbox"
  prior_box_param {
    min_size: 162
    max_size: 213
    aspect_ratio: 2
    aspect_ratio: 3
    flip: true
    clip: false
    variance: 0.1
    variance: 0.1
    variance: 0.2
    variance: 0.2
    step: 64
    offset: 0.5
  }
}
layer {
  name: "conv8_2_mbox_loc"
  type: "Convolution"
  bottom: "conv8_2"
  top: "conv8_2_mbox_loc"
  param {
    lr_mult: 1
    decay_mult: 1
  }
  param {
    lr_mult: 2
    decay_mult: 0
  }
  convolution_param {
    num_output: 16
    pad: 1
    kernel_size: 3
    stride: 1
    weight_filler {
      type: "xavier"
    }
    bias_filler {
      type: "constant"
      value: 0
    }
  }
}
layer {
  name: "conv8_2_mbox_loc_perm"
  type: "Permute"
  bottom: "conv8_2_mbox_loc"
  top: "conv8_2_mbox_loc_perm"
  permute_param {
    order: 0
    order: 2
    order: 3
    order: 1
  }
}
layer {
  name: "conv8_2_mbox_loc_flat"
  type: "Flatten"
  bottom: "conv8_2_mbox_loc_perm"
  top: "conv8_2_mbox_loc_flat"
  flatten_param {
    axis: 1
  }
}
layer {
  name: "conv8_2_mbox_conf"
  type: "Convolution"
  bottom: "conv8_2"
  top: "conv8_2_mbox_conf"
  param {
    lr_mult: 1
    decay_mult: 1
  }
  param {
    lr_mult: 2
    decay_mult: 0
  }
  convolution_param {
    num_output: 84
    pad: 1
    kernel_size: 3
    stride: 1
    weight_filler {
      type: "xavier"
    }
    bias_filler {
      type: "constant"
      value: 0
    }
  }
}
layer {
  name: "conv8_2_mbox_conf_perm"
  type: "Permute"
  bottom: "conv8_2_mbox_conf"
  top: "conv8_2_mbox_conf_perm"
  permute_param {
    order: 0
    order: 2
    order: 3
    order: 1
  }
}
layer {
  name: "conv8_2_mbox_conf_flat"
  type: "Flatten"
  bottom: "conv8_2_mbox_conf_perm"
  top: "conv8_2_mbox_conf_flat"
  flatten_param {
    axis: 1
  }
}
layer {
  name: "conv8_2_mbox_priorbox"
  type: "PriorBox"
  bottom: "conv8_2"
  bottom: "data"
  top: "conv8_2_mbox_priorbox"
  prior_box_param {
    min_size: 213
    max_size: 264
    aspect_ratio: 2
    flip: true
    clip: false
    variance: 0.1
    variance: 0.1
    variance: 0.2
    variance: 0.2
    step: 100
    offset: 0.5
  }
}
layer {
  name: "conv9_2_mbox_loc"
  type: "Convolution"
  bottom: "conv9_2"
  top: "conv9_2_mbox_loc"
  param {
    lr_mult: 1
    decay_mult: 1
  }
  param {
    lr_mult: 2
    decay_mult: 0
  }
  convolution_param {
    num_output: 16
    pad: 1
    kernel_size: 3
    stride: 1
    weight_filler {
      type: "xavier"
    }
    bias_filler {
      type: "constant"
      value: 0
    }
  }
}
layer {
  name: "conv9_2_mbox_loc_perm"
  type: "Permute"
  bottom: "conv9_2_mbox_loc"
  top: "conv9_2_mbox_loc_perm"
  permute_param {
    order: 0
    order: 2
    order: 3
    order: 1
  }
}
layer {
  name: "conv9_2_mbox_loc_flat"
  type: "Flatten"
  bottom: "conv9_2_mbox_loc_perm"
  top: "conv9_2_mbox_loc_flat"
  flatten_param {
    axis: 1
  }
}
layer {
  name: "conv9_2_mbox_conf"
  type: "Convolution"
  bottom: "conv9_2"
  top: "conv9_2_mbox_conf"
  param {
    lr_mult: 1
    decay_mult: 1
  }
  param {
    lr_mult: 2
    decay_mult: 0
  }
  convolution_param {
    num_output: 84
    pad: 1
    kernel_size: 3
    stride: 1
    weight_filler {
      type: "xavier"
    }
    bias_filler {
      type: "constant"
      value: 0
    }
  }
}
layer {
  name: "conv9_2_mbox_conf_perm"
  type: "Permute"
  bottom: "conv9_2_mbox_conf"
  top: "conv9_2_mbox_conf_perm"
  permute_param {
    order: 0
    order: 2
    order: 3
    order: 1
  }
}
layer {
  name: "conv9_2_mbox_conf_flat"
  type: "Flatten"
  bottom: "conv9_2_mbox_conf_perm"
  top: "conv9_2_mbox_conf_flat"
  flatten_param {
    axis: 1
  }
}
layer {
  name: "conv9_2_mbox_priorbox"
  type: "PriorBox"
  bottom: "conv9_2"
  bottom: "data"
  top: "conv9_2_mbox_priorbox"
  prior_box_param {
    min_size: 264
    max_size: 315
    aspect_ratio: 2
    flip: true
    clip: false
    variance: 0.1
    variance: 0.1
    variance: 0.2
    variance: 0.2
    step: 300
    offset: 0.5
  }
}
layer {
  name: "mbox_loc"
  type: "Concat"
  bottom: "conv4_3_norm_mbox_loc_flat"
  bottom: "fc7_mbox_loc_flat"
  bottom: "conv6_2_mbox_loc_flat"
  bottom: "conv7_2_mbox_loc_flat"
  bottom: "conv8_2_mbox_loc_flat"
  bottom: "conv9_2_mbox_loc_flat"
  top: "mbox_loc"
  concat_param {
    axis: 1
  }
}
layer {
  name: "mbox_conf"
  type: "Concat"
  bottom: "conv4_3_norm_mbox_conf_flat"
  bottom: "fc7_mbox_conf_flat"
  bottom: "conv6_2_mbox_conf_flat"
  bottom: "conv7_2_mbox_conf_flat"
  bottom: "conv8_2_mbox_conf_flat"
  bottom: "conv9_2_mbox_conf_flat"
  top: "mbox_conf"
  concat_param {
    axis: 1
  }
}
layer {
  name: "mbox_priorbox"
  type: "Concat"
  bottom: "conv4_3_norm_mbox_priorbox"
  bottom: "fc7_mbox_priorbox"
  bottom: "conv6_2_mbox_priorbox"
  bottom: "conv7_2_mbox_priorbox"
  bottom: "conv8_2_mbox_priorbox"
  bottom: "conv9_2_mbox_priorbox"
  top: "mbox_priorbox"
  concat_param {
    axis: 2
  }
}
layer {
  name: "mbox_conf_reshape"
  type: "Reshape"
  bottom: "mbox_conf"
  top: "mbox_conf_reshape"
  reshape_param {
    shape {
      dim: 0
      dim: -1
      dim: 21
    }
  }
}
layer {
  name: "mbox_conf_softmax"
  type: "Softmax"
  bottom: "mbox_conf_reshape"
  top: "mbox_conf_softmax"
  softmax_param {
    axis: 2
  }
}
layer {
  name: "mbox_conf_flatten"
  type: "Flatten"
  bottom: "mbox_conf_softmax"
  top: "mbox_conf_flatten"
  flatten_param {
    axis: 1
  }
}
layer {
  name: "detection_out"
  type: "DetectionOutput"
  bottom: "mbox_loc"
  bottom: "mbox_conf_flatten"
  bottom: "mbox_priorbox"
  top: "detection_out"
  include {
    phase: TEST
  }
  detection_output_param {
    num_classes: 21
    share_location: true
    background_label_id: 0
    nms_param {
      nms_threshold: 0.45
      top_k: 400
    }
    save_output_param {
      output_directory: "/home/yyc/data/VOCdevkit/results/VOC2007/SSD_300x300_score/Main"
      output_name_prefix: "comp4_det_test_"
      output_format: "VOC"
      label_map_file: "data/VOC0712/labelmap_voc.prototxt"
      name_size_file: "data/VOC0712/test_name_size.txt"
      num_test_image: 4952
    }
    code_type: CENTER_SIZE
    keep_top_k: 200
    confidence_threshold: 0.01
  }
}
layer {
  name: "detection_eval"
  type: "DetectionEvaluate"
  bottom: "detection_out"
  bottom: "label"
  top: "detection_eval"
  include {
    phase: TEST
  }
  detection_evaluate_param {
    num_classes: 21
    background_label_id: 0
    overlap_threshold: 0.5
    evaluate_difficult_gt: false
    name_size_file: "data/VOC0712/test_name_size.txt"
  }
}
I1205 15:31:44.618088 26649 layer_factory.hpp:77] Creating layer data
I1205 15:31:44.618129 26649 net.cpp:100] Creating Layer data
I1205 15:31:44.618134 26649 net.cpp:408] data -> data
I1205 15:31:44.618160 26649 net.cpp:408] data -> label
I1205 15:31:44.618835 26656 db_lmdb.cpp:35] Opened lmdb examples/VOC0712/VOC0712_test_lmdb
I1205 15:31:44.621877 26649 annotated_data_layer.cpp:62] output data size: 8,3,300,300
I1205 15:31:44.631047 26649 net.cpp:150] Setting up data
I1205 15:31:44.631069 26649 net.cpp:157] Top shape: 8 3 300 300 (2160000)
I1205 15:31:44.631073 26649 net.cpp:157] Top shape: 1 1 2 8 (16)
I1205 15:31:44.631077 26649 net.cpp:165] Memory required for data: 8640064
I1205 15:31:44.631094 26649 layer_factory.hpp:77] Creating layer data_data_0_split
I1205 15:31:44.631103 26649 net.cpp:100] Creating Layer data_data_0_split
I1205 15:31:44.631108 26649 net.cpp:434] data_data_0_split <- data
I1205 15:31:44.631112 26649 net.cpp:408] data_data_0_split -> data_data_0_split_0
I1205 15:31:44.631119 26649 net.cpp:408] data_data_0_split -> data_data_0_split_1
I1205 15:31:44.631124 26649 net.cpp:408] data_data_0_split -> data_data_0_split_2
I1205 15:31:44.631129 26649 net.cpp:408] data_data_0_split -> data_data_0_split_3
I1205 15:31:44.631134 26649 net.cpp:408] data_data_0_split -> data_data_0_split_4
I1205 15:31:44.631137 26649 net.cpp:408] data_data_0_split -> data_data_0_split_5
I1205 15:31:44.631142 26649 net.cpp:408] data_data_0_split -> data_data_0_split_6
I1205 15:31:44.631302 26649 net.cpp:150] Setting up data_data_0_split
I1205 15:31:44.631322 26649 net.cpp:157] Top shape: 8 3 300 300 (2160000)
I1205 15:31:44.631325 26649 net.cpp:157] Top shape: 8 3 300 300 (2160000)
I1205 15:31:44.631347 26649 net.cpp:157] Top shape: 8 3 300 300 (2160000)
I1205 15:31:44.631350 26649 net.cpp:157] Top shape: 8 3 300 300 (2160000)
I1205 15:31:44.631353 26649 net.cpp:157] Top shape: 8 3 300 300 (2160000)
I1205 15:31:44.631356 26649 net.cpp:157] Top shape: 8 3 300 300 (2160000)
I1205 15:31:44.631359 26649 net.cpp:157] Top shape: 8 3 300 300 (2160000)
I1205 15:31:44.631361 26649 net.cpp:165] Memory required for data: 69120064
I1205 15:31:44.631364 26649 layer_factory.hpp:77] Creating layer conv1_1
I1205 15:31:44.631386 26649 net.cpp:100] Creating Layer conv1_1
I1205 15:31:44.631388 26649 net.cpp:434] conv1_1 <- data_data_0_split_0
I1205 15:31:44.631392 26649 net.cpp:408] conv1_1 -> conv1_1
I1205 15:31:44.632809 26649 net.cpp:150] Setting up conv1_1
I1205 15:31:44.632822 26649 net.cpp:157] Top shape: 8 64 300 300 (46080000)
I1205 15:31:44.632824 26649 net.cpp:165] Memory required for data: 253440064
I1205 15:31:44.632833 26649 layer_factory.hpp:77] Creating layer relu1_1
I1205 15:31:44.632838 26649 net.cpp:100] Creating Layer relu1_1
I1205 15:31:44.632841 26649 net.cpp:434] relu1_1 <- conv1_1
I1205 15:31:44.632845 26649 net.cpp:395] relu1_1 -> conv1_1 (in-place)
I1205 15:31:44.633142 26649 net.cpp:150] Setting up relu1_1
I1205 15:31:44.633148 26649 net.cpp:157] Top shape: 8 64 300 300 (46080000)
I1205 15:31:44.633152 26649 net.cpp:165] Memory required for data: 437760064
I1205 15:31:44.633154 26649 layer_factory.hpp:77] Creating layer conv1_2
I1205 15:31:44.633162 26649 net.cpp:100] Creating Layer conv1_2
I1205 15:31:44.633165 26649 net.cpp:434] conv1_2 <- conv1_1
I1205 15:31:44.633169 26649 net.cpp:408] conv1_2 -> conv1_2
I1205 15:31:44.634742 26649 net.cpp:150] Setting up conv1_2
I1205 15:31:44.634750 26649 net.cpp:157] Top shape: 8 64 300 300 (46080000)
I1205 15:31:44.634753 26649 net.cpp:165] Memory required for data: 622080064
I1205 15:31:44.634760 26649 layer_factory.hpp:77] Creating layer relu1_2
I1205 15:31:44.634765 26649 net.cpp:100] Creating Layer relu1_2
I1205 15:31:44.634768 26649 net.cpp:434] relu1_2 <- conv1_2
I1205 15:31:44.634771 26649 net.cpp:395] relu1_2 -> conv1_2 (in-place)
I1205 15:31:44.634999 26649 net.cpp:150] Setting up relu1_2
I1205 15:31:44.635007 26649 net.cpp:157] Top shape: 8 64 300 300 (46080000)
I1205 15:31:44.635010 26649 net.cpp:165] Memory required for data: 806400064
I1205 15:31:44.635012 26649 layer_factory.hpp:77] Creating layer pool1
I1205 15:31:44.635017 26649 net.cpp:100] Creating Layer pool1
I1205 15:31:44.635020 26649 net.cpp:434] pool1 <- conv1_2
I1205 15:31:44.635023 26649 net.cpp:408] pool1 -> pool1
I1205 15:31:44.635064 26649 net.cpp:150] Setting up pool1
I1205 15:31:44.635069 26649 net.cpp:157] Top shape: 8 64 150 150 (11520000)
I1205 15:31:44.635071 26649 net.cpp:165] Memory required for data: 852480064
I1205 15:31:44.635073 26649 layer_factory.hpp:77] Creating layer conv2_1
I1205 15:31:44.635079 26649 net.cpp:100] Creating Layer conv2_1
I1205 15:31:44.635082 26649 net.cpp:434] conv2_1 <- pool1
I1205 15:31:44.635087 26649 net.cpp:408] conv2_1 -> conv2_1
I1205 15:31:44.636956 26649 net.cpp:150] Setting up conv2_1
I1205 15:31:44.636967 26649 net.cpp:157] Top shape: 8 128 150 150 (23040000)
I1205 15:31:44.636970 26649 net.cpp:165] Memory required for data: 944640064
I1205 15:31:44.636977 26649 layer_factory.hpp:77] Creating layer relu2_1
I1205 15:31:44.636983 26649 net.cpp:100] Creating Layer relu2_1
I1205 15:31:44.636986 26649 net.cpp:434] relu2_1 <- conv2_1
I1205 15:31:44.636991 26649 net.cpp:395] relu2_1 -> conv2_1 (in-place)
I1205 15:31:44.637209 26649 net.cpp:150] Setting up relu2_1
I1205 15:31:44.637217 26649 net.cpp:157] Top shape: 8 128 150 150 (23040000)
I1205 15:31:44.637219 26649 net.cpp:165] Memory required for data: 1036800064
I1205 15:31:44.637223 26649 layer_factory.hpp:77] Creating layer conv2_2
I1205 15:31:44.637229 26649 net.cpp:100] Creating Layer conv2_2
I1205 15:31:44.637233 26649 net.cpp:434] conv2_2 <- conv2_1
I1205 15:31:44.637238 26649 net.cpp:408] conv2_2 -> conv2_2
I1205 15:31:44.639272 26649 net.cpp:150] Setting up conv2_2
I1205 15:31:44.639282 26649 net.cpp:157] Top shape: 8 128 150 150 (23040000)
I1205 15:31:44.639286 26649 net.cpp:165] Memory required for data: 1128960064
I1205 15:31:44.639291 26649 layer_factory.hpp:77] Creating layer relu2_2
I1205 15:31:44.639295 26649 net.cpp:100] Creating Layer relu2_2
I1205 15:31:44.639298 26649 net.cpp:434] relu2_2 <- conv2_2
I1205 15:31:44.639302 26649 net.cpp:395] relu2_2 -> conv2_2 (in-place)
I1205 15:31:44.639448 26649 net.cpp:150] Setting up relu2_2
I1205 15:31:44.639454 26649 net.cpp:157] Top shape: 8 128 150 150 (23040000)
I1205 15:31:44.639456 26649 net.cpp:165] Memory required for data: 1221120064
I1205 15:31:44.639459 26649 layer_factory.hpp:77] Creating layer pool2
I1205 15:31:44.639477 26649 net.cpp:100] Creating Layer pool2
I1205 15:31:44.639479 26649 net.cpp:434] pool2 <- conv2_2
I1205 15:31:44.639483 26649 net.cpp:408] pool2 -> pool2
I1205 15:31:44.639525 26649 net.cpp:150] Setting up pool2
I1205 15:31:44.639530 26649 net.cpp:157] Top shape: 8 128 75 75 (5760000)
I1205 15:31:44.639533 26649 net.cpp:165] Memory required for data: 1244160064
I1205 15:31:44.639534 26649 layer_factory.hpp:77] Creating layer conv3_1
I1205 15:31:44.639541 26649 net.cpp:100] Creating Layer conv3_1
I1205 15:31:44.639544 26649 net.cpp:434] conv3_1 <- pool2
I1205 15:31:44.639549 26649 net.cpp:408] conv3_1 -> conv3_1
I1205 15:31:44.642266 26649 net.cpp:150] Setting up conv3_1
I1205 15:31:44.642277 26649 net.cpp:157] Top shape: 8 256 75 75 (11520000)
I1205 15:31:44.642278 26649 net.cpp:165] Memory required for data: 1290240064
I1205 15:31:44.642287 26649 layer_factory.hpp:77] Creating layer relu3_1
I1205 15:31:44.642290 26649 net.cpp:100] Creating Layer relu3_1
I1205 15:31:44.642293 26649 net.cpp:434] relu3_1 <- conv3_1
I1205 15:31:44.642297 26649 net.cpp:395] relu3_1 -> conv3_1 (in-place)
I1205 15:31:44.642537 26649 net.cpp:150] Setting up relu3_1
I1205 15:31:44.642545 26649 net.cpp:157] Top shape: 8 256 75 75 (11520000)
I1205 15:31:44.642549 26649 net.cpp:165] Memory required for data: 1336320064
I1205 15:31:44.642551 26649 layer_factory.hpp:77] Creating layer conv3_2
I1205 15:31:44.642559 26649 net.cpp:100] Creating Layer conv3_2
I1205 15:31:44.642561 26649 net.cpp:434] conv3_2 <- conv3_1
I1205 15:31:44.642566 26649 net.cpp:408] conv3_2 -> conv3_2
I1205 15:31:44.647048 26649 net.cpp:150] Setting up conv3_2
I1205 15:31:44.647059 26649 net.cpp:157] Top shape: 8 256 75 75 (11520000)
I1205 15:31:44.647063 26649 net.cpp:165] Memory required for data: 1382400064
I1205 15:31:44.647069 26649 layer_factory.hpp:77] Creating layer relu3_2
I1205 15:31:44.647073 26649 net.cpp:100] Creating Layer relu3_2
I1205 15:31:44.647076 26649 net.cpp:434] relu3_2 <- conv3_2
I1205 15:31:44.647080 26649 net.cpp:395] relu3_2 -> conv3_2 (in-place)
I1205 15:31:44.647300 26649 net.cpp:150] Setting up relu3_2
I1205 15:31:44.647307 26649 net.cpp:157] Top shape: 8 256 75 75 (11520000)
I1205 15:31:44.647310 26649 net.cpp:165] Memory required for data: 1428480064
I1205 15:31:44.647313 26649 layer_factory.hpp:77] Creating layer conv3_3
I1205 15:31:44.647322 26649 net.cpp:100] Creating Layer conv3_3
I1205 15:31:44.647325 26649 net.cpp:434] conv3_3 <- conv3_2
I1205 15:31:44.647331 26649 net.cpp:408] conv3_3 -> conv3_3
I1205 15:31:44.651790 26649 net.cpp:150] Setting up conv3_3
I1205 15:31:44.651800 26649 net.cpp:157] Top shape: 8 256 75 75 (11520000)
I1205 15:31:44.651803 26649 net.cpp:165] Memory required for data: 1474560064
I1205 15:31:44.651809 26649 layer_factory.hpp:77] Creating layer relu3_3
I1205 15:31:44.651814 26649 net.cpp:100] Creating Layer relu3_3
I1205 15:31:44.651818 26649 net.cpp:434] relu3_3 <- conv3_3
I1205 15:31:44.651823 26649 net.cpp:395] relu3_3 -> conv3_3 (in-place)
I1205 15:31:44.652052 26649 net.cpp:150] Setting up relu3_3
I1205 15:31:44.652060 26649 net.cpp:157] Top shape: 8 256 75 75 (11520000)
I1205 15:31:44.652061 26649 net.cpp:165] Memory required for data: 1520640064
I1205 15:31:44.652065 26649 layer_factory.hpp:77] Creating layer pool3
I1205 15:31:44.652070 26649 net.cpp:100] Creating Layer pool3
I1205 15:31:44.652072 26649 net.cpp:434] pool3 <- conv3_3
I1205 15:31:44.652076 26649 net.cpp:408] pool3 -> pool3
I1205 15:31:44.652119 26649 net.cpp:150] Setting up pool3
I1205 15:31:44.652123 26649 net.cpp:157] Top shape: 8 256 38 38 (2957312)
I1205 15:31:44.652127 26649 net.cpp:165] Memory required for data: 1532469312
I1205 15:31:44.652128 26649 layer_factory.hpp:77] Creating layer conv4_1
I1205 15:31:44.652135 26649 net.cpp:100] Creating Layer conv4_1
I1205 15:31:44.652138 26649 net.cpp:434] conv4_1 <- pool3
I1205 15:31:44.652143 26649 net.cpp:408] conv4_1 -> conv4_1
I1205 15:31:44.660389 26649 net.cpp:150] Setting up conv4_1
I1205 15:31:44.660403 26649 net.cpp:157] Top shape: 8 512 38 38 (5914624)
I1205 15:31:44.660415 26649 net.cpp:165] Memory required for data: 1556127808
I1205 15:31:44.660423 26649 layer_factory.hpp:77] Creating layer relu4_1
I1205 15:31:44.660429 26649 net.cpp:100] Creating Layer relu4_1
I1205 15:31:44.660432 26649 net.cpp:434] relu4_1 <- conv4_1
I1205 15:31:44.660436 26649 net.cpp:395] relu4_1 -> conv4_1 (in-place)
I1205 15:31:44.660675 26649 net.cpp:150] Setting up relu4_1
I1205 15:31:44.660682 26649 net.cpp:157] Top shape: 8 512 38 38 (5914624)
I1205 15:31:44.660686 26649 net.cpp:165] Memory required for data: 1579786304
I1205 15:31:44.660688 26649 layer_factory.hpp:77] Creating layer conv4_2
I1205 15:31:44.660696 26649 net.cpp:100] Creating Layer conv4_2
I1205 15:31:44.660699 26649 net.cpp:434] conv4_2 <- conv4_1
I1205 15:31:44.660704 26649 net.cpp:408] conv4_2 -> conv4_2
I1205 15:31:44.676573 26649 net.cpp:150] Setting up conv4_2
I1205 15:31:44.676589 26649 net.cpp:157] Top shape: 8 512 38 38 (5914624)
I1205 15:31:44.676594 26649 net.cpp:165] Memory required for data: 1603444800
I1205 15:31:44.676602 26649 layer_factory.hpp:77] Creating layer relu4_2
I1205 15:31:44.676609 26649 net.cpp:100] Creating Layer relu4_2
I1205 15:31:44.676614 26649 net.cpp:434] relu4_2 <- conv4_2
I1205 15:31:44.676618 26649 net.cpp:395] relu4_2 -> conv4_2 (in-place)
I1205 15:31:44.676898 26649 net.cpp:150] Setting up relu4_2
I1205 15:31:44.676905 26649 net.cpp:157] Top shape: 8 512 38 38 (5914624)
I1205 15:31:44.676908 26649 net.cpp:165] Memory required for data: 1627103296
I1205 15:31:44.676911 26649 layer_factory.hpp:77] Creating layer conv4_3
I1205 15:31:44.676919 26649 net.cpp:100] Creating Layer conv4_3
I1205 15:31:44.676923 26649 net.cpp:434] conv4_3 <- conv4_2
I1205 15:31:44.676928 26649 net.cpp:408] conv4_3 -> conv4_3
I1205 15:31:44.692533 26649 net.cpp:150] Setting up conv4_3
I1205 15:31:44.692559 26649 net.cpp:157] Top shape: 8 512 38 38 (5914624)
I1205 15:31:44.692561 26649 net.cpp:165] Memory required for data: 1650761792
I1205 15:31:44.692569 26649 layer_factory.hpp:77] Creating layer relu4_3
I1205 15:31:44.692575 26649 net.cpp:100] Creating Layer relu4_3
I1205 15:31:44.692579 26649 net.cpp:434] relu4_3 <- conv4_3
I1205 15:31:44.692584 26649 net.cpp:395] relu4_3 -> conv4_3 (in-place)
I1205 15:31:44.692821 26649 net.cpp:150] Setting up relu4_3
I1205 15:31:44.692827 26649 net.cpp:157] Top shape: 8 512 38 38 (5914624)
I1205 15:31:44.692831 26649 net.cpp:165] Memory required for data: 1674420288
I1205 15:31:44.692833 26649 layer_factory.hpp:77] Creating layer conv4_3_relu4_3_0_split
I1205 15:31:44.692838 26649 net.cpp:100] Creating Layer conv4_3_relu4_3_0_split
I1205 15:31:44.692842 26649 net.cpp:434] conv4_3_relu4_3_0_split <- conv4_3
I1205 15:31:44.692845 26649 net.cpp:408] conv4_3_relu4_3_0_split -> conv4_3_relu4_3_0_split_0
I1205 15:31:44.692850 26649 net.cpp:408] conv4_3_relu4_3_0_split -> conv4_3_relu4_3_0_split_1
I1205 15:31:44.692894 26649 net.cpp:150] Setting up conv4_3_relu4_3_0_split
I1205 15:31:44.692898 26649 net.cpp:157] Top shape: 8 512 38 38 (5914624)
I1205 15:31:44.692901 26649 net.cpp:157] Top shape: 8 512 38 38 (5914624)
I1205 15:31:44.692904 26649 net.cpp:165] Memory required for data: 1721737280
I1205 15:31:44.692906 26649 layer_factory.hpp:77] Creating layer pool4
I1205 15:31:44.692911 26649 net.cpp:100] Creating Layer pool4
I1205 15:31:44.692914 26649 net.cpp:434] pool4 <- conv4_3_relu4_3_0_split_0
I1205 15:31:44.692919 26649 net.cpp:408] pool4 -> pool4
I1205 15:31:44.692956 26649 net.cpp:150] Setting up pool4
I1205 15:31:44.692961 26649 net.cpp:157] Top shape: 8 512 19 19 (1478656)
I1205 15:31:44.692963 26649 net.cpp:165] Memory required for data: 1727651904
I1205 15:31:44.692966 26649 layer_factory.hpp:77] Creating layer conv5_1
I1205 15:31:44.692975 26649 net.cpp:100] Creating Layer conv5_1
I1205 15:31:44.692978 26649 net.cpp:434] conv5_1 <- pool4
I1205 15:31:44.692983 26649 net.cpp:408] conv5_1 -> conv5_1
I1205 15:31:44.708546 26649 net.cpp:150] Setting up conv5_1
I1205 15:31:44.708565 26649 net.cpp:157] Top shape: 8 512 19 19 (1478656)
I1205 15:31:44.708569 26649 net.cpp:165] Memory required for data: 1733566528
I1205 15:31:44.708590 26649 layer_factory.hpp:77] Creating layer relu5_1
I1205 15:31:44.708598 26649 net.cpp:100] Creating Layer relu5_1
I1205 15:31:44.708602 26649 net.cpp:434] relu5_1 <- conv5_1
I1205 15:31:44.708606 26649 net.cpp:395] relu5_1 -> conv5_1 (in-place)
I1205 15:31:44.708851 26649 net.cpp:150] Setting up relu5_1
I1205 15:31:44.708859 26649 net.cpp:157] Top shape: 8 512 19 19 (1478656)
I1205 15:31:44.708863 26649 net.cpp:165] Memory required for data: 1739481152
I1205 15:31:44.708865 26649 layer_factory.hpp:77] Creating layer conv5_2
I1205 15:31:44.708873 26649 net.cpp:100] Creating Layer conv5_2
I1205 15:31:44.708876 26649 net.cpp:434] conv5_2 <- conv5_1
I1205 15:31:44.708883 26649 net.cpp:408] conv5_2 -> conv5_2
I1205 15:31:44.724652 26649 net.cpp:150] Setting up conv5_2
I1205 15:31:44.724673 26649 net.cpp:157] Top shape: 8 512 19 19 (1478656)
I1205 15:31:44.724676 26649 net.cpp:165] Memory required for data: 1745395776
I1205 15:31:44.724685 26649 layer_factory.hpp:77] Creating layer relu5_2
I1205 15:31:44.724694 26649 net.cpp:100] Creating Layer relu5_2
I1205 15:31:44.724699 26649 net.cpp:434] relu5_2 <- conv5_2
I1205 15:31:44.724704 26649 net.cpp:395] relu5_2 -> conv5_2 (in-place)
I1205 15:31:44.724952 26649 net.cpp:150] Setting up relu5_2
I1205 15:31:44.724961 26649 net.cpp:157] Top shape: 8 512 19 19 (1478656)
I1205 15:31:44.724962 26649 net.cpp:165] Memory required for data: 1751310400
I1205 15:31:44.724966 26649 layer_factory.hpp:77] Creating layer conv5_3
I1205 15:31:44.724974 26649 net.cpp:100] Creating Layer conv5_3
I1205 15:31:44.724977 26649 net.cpp:434] conv5_3 <- conv5_2
I1205 15:31:44.724982 26649 net.cpp:408] conv5_3 -> conv5_3
I1205 15:31:44.740362 26649 net.cpp:150] Setting up conv5_3
I1205 15:31:44.740380 26649 net.cpp:157] Top shape: 8 512 19 19 (1478656)
I1205 15:31:44.740382 26649 net.cpp:165] Memory required for data: 1757225024
I1205 15:31:44.740389 26649 layer_factory.hpp:77] Creating layer relu5_3
I1205 15:31:44.740398 26649 net.cpp:100] Creating Layer relu5_3
I1205 15:31:44.740402 26649 net.cpp:434] relu5_3 <- conv5_3
I1205 15:31:44.740407 26649 net.cpp:395] relu5_3 -> conv5_3 (in-place)
I1205 15:31:44.740550 26649 net.cpp:150] Setting up relu5_3
I1205 15:31:44.740556 26649 net.cpp:157] Top shape: 8 512 19 19 (1478656)
I1205 15:31:44.740559 26649 net.cpp:165] Memory required for data: 1763139648
I1205 15:31:44.740561 26649 layer_factory.hpp:77] Creating layer pool5
I1205 15:31:44.740566 26649 net.cpp:100] Creating Layer pool5
I1205 15:31:44.740568 26649 net.cpp:434] pool5 <- conv5_3
I1205 15:31:44.740572 26649 net.cpp:408] pool5 -> pool5
I1205 15:31:44.740617 26649 net.cpp:150] Setting up pool5
I1205 15:31:44.740622 26649 net.cpp:157] Top shape: 8 512 19 19 (1478656)
I1205 15:31:44.740623 26649 net.cpp:165] Memory required for data: 1769054272
I1205 15:31:44.740627 26649 layer_factory.hpp:77] Creating layer fc6
I1205 15:31:44.740633 26649 net.cpp:100] Creating Layer fc6
I1205 15:31:44.740636 26649 net.cpp:434] fc6 <- pool5
I1205 15:31:44.740641 26649 net.cpp:408] fc6 -> fc6
I1205 15:31:44.769785 26649 net.cpp:150] Setting up fc6
I1205 15:31:44.769805 26649 net.cpp:157] Top shape: 8 1024 19 19 (2957312)
I1205 15:31:44.769809 26649 net.cpp:165] Memory required for data: 1780883520
I1205 15:31:44.769834 26649 layer_factory.hpp:77] Creating layer relu6
I1205 15:31:44.769842 26649 net.cpp:100] Creating Layer relu6
I1205 15:31:44.769846 26649 net.cpp:434] relu6 <- fc6
I1205 15:31:44.769851 26649 net.cpp:395] relu6 -> fc6 (in-place)
I1205 15:31:44.770267 26649 net.cpp:150] Setting up relu6
I1205 15:31:44.770288 26649 net.cpp:157] Top shape: 8 1024 19 19 (2957312)
I1205 15:31:44.770292 26649 net.cpp:165] Memory required for data: 1792712768
I1205 15:31:44.770294 26649 layer_factory.hpp:77] Creating layer fc7
I1205 15:31:44.770321 26649 net.cpp:100] Creating Layer fc7
I1205 15:31:44.770337 26649 net.cpp:434] fc7 <- fc6
I1205 15:31:44.770344 26649 net.cpp:408] fc7 -> fc7
I1205 15:31:44.777655 26649 net.cpp:150] Setting up fc7
I1205 15:31:44.777673 26649 net.cpp:157] Top shape: 8 1024 19 19 (2957312)
I1205 15:31:44.777707 26649 net.cpp:165] Memory required for data: 1804542016
I1205 15:31:44.777714 26649 layer_factory.hpp:77] Creating layer relu7
I1205 15:31:44.777721 26649 net.cpp:100] Creating Layer relu7
I1205 15:31:44.777740 26649 net.cpp:434] relu7 <- fc7
I1205 15:31:44.777743 26649 net.cpp:395] relu7 -> fc7 (in-place)
I1205 15:31:44.777896 26649 net.cpp:150] Setting up relu7
I1205 15:31:44.777904 26649 net.cpp:157] Top shape: 8 1024 19 19 (2957312)
I1205 15:31:44.777906 26649 net.cpp:165] Memory required for data: 1816371264
I1205 15:31:44.777909 26649 layer_factory.hpp:77] Creating layer fc7_relu7_0_split
I1205 15:31:44.777931 26649 net.cpp:100] Creating Layer fc7_relu7_0_split
I1205 15:31:44.777935 26649 net.cpp:434] fc7_relu7_0_split <- fc7
I1205 15:31:44.777940 26649 net.cpp:408] fc7_relu7_0_split -> fc7_relu7_0_split_0
I1205 15:31:44.777945 26649 net.cpp:408] fc7_relu7_0_split -> fc7_relu7_0_split_1
I1205 15:31:44.777952 26649 net.cpp:408] fc7_relu7_0_split -> fc7_relu7_0_split_2
I1205 15:31:44.777957 26649 net.cpp:408] fc7_relu7_0_split -> fc7_relu7_0_split_3
I1205 15:31:44.778046 26649 net.cpp:150] Setting up fc7_relu7_0_split
I1205 15:31:44.778053 26649 net.cpp:157] Top shape: 8 1024 19 19 (2957312)
I1205 15:31:44.778055 26649 net.cpp:157] Top shape: 8 1024 19 19 (2957312)
I1205 15:31:44.778059 26649 net.cpp:157] Top shape: 8 1024 19 19 (2957312)
I1205 15:31:44.778080 26649 net.cpp:157] Top shape: 8 1024 19 19 (2957312)
I1205 15:31:44.778082 26649 net.cpp:165] Memory required for data: 1863688256
I1205 15:31:44.778085 26649 layer_factory.hpp:77] Creating layer conv6_1
I1205 15:31:44.778093 26649 net.cpp:100] Creating Layer conv6_1
I1205 15:31:44.778096 26649 net.cpp:434] conv6_1 <- fc7_relu7_0_split_0
I1205 15:31:44.778102 26649 net.cpp:408] conv6_1 -> conv6_1
I1205 15:31:44.780818 26649 net.cpp:150] Setting up conv6_1
I1205 15:31:44.780829 26649 net.cpp:157] Top shape: 8 256 19 19 (739328)
I1205 15:31:44.780833 26649 net.cpp:165] Memory required for data: 1866645568
I1205 15:31:44.780856 26649 layer_factory.hpp:77] Creating layer conv6_1_relu
I1205 15:31:44.780863 26649 net.cpp:100] Creating Layer conv6_1_relu
I1205 15:31:44.780865 26649 net.cpp:434] conv6_1_relu <- conv6_1
I1205 15:31:44.780871 26649 net.cpp:395] conv6_1_relu -> conv6_1 (in-place)
I1205 15:31:44.781122 26649 net.cpp:150] Setting up conv6_1_relu
I1205 15:31:44.781131 26649 net.cpp:157] Top shape: 8 256 19 19 (739328)
I1205 15:31:44.781134 26649 net.cpp:165] Memory required for data: 1869602880
I1205 15:31:44.781136 26649 layer_factory.hpp:77] Creating layer conv6_2
I1205 15:31:44.781162 26649 net.cpp:100] Creating Layer conv6_2
I1205 15:31:44.781167 26649 net.cpp:434] conv6_2 <- conv6_1
I1205 15:31:44.781172 26649 net.cpp:408] conv6_2 -> conv6_2
I1205 15:31:44.790166 26649 net.cpp:150] Setting up conv6_2
I1205 15:31:44.790184 26649 net.cpp:157] Top shape: 8 512 10 10 (409600)
I1205 15:31:44.790187 26649 net.cpp:165] Memory required for data: 1871241280
I1205 15:31:44.790231 26649 layer_factory.hpp:77] Creating layer conv6_2_relu
I1205 15:31:44.790241 26649 net.cpp:100] Creating Layer conv6_2_relu
I1205 15:31:44.790244 26649 net.cpp:434] conv6_2_relu <- conv6_2
I1205 15:31:44.790249 26649 net.cpp:395] conv6_2_relu -> conv6_2 (in-place)
I1205 15:31:44.790524 26649 net.cpp:150] Setting up conv6_2_relu
I1205 15:31:44.790532 26649 net.cpp:157] Top shape: 8 512 10 10 (409600)
I1205 15:31:44.790535 26649 net.cpp:165] Memory required for data: 1872879680
I1205 15:31:44.790539 26649 layer_factory.hpp:77] Creating layer conv6_2_conv6_2_relu_0_split
I1205 15:31:44.790563 26649 net.cpp:100] Creating Layer conv6_2_conv6_2_relu_0_split
I1205 15:31:44.790566 26649 net.cpp:434] conv6_2_conv6_2_relu_0_split <- conv6_2
I1205 15:31:44.790570 26649 net.cpp:408] conv6_2_conv6_2_relu_0_split -> conv6_2_conv6_2_relu_0_split_0
I1205 15:31:44.790576 26649 net.cpp:408] conv6_2_conv6_2_relu_0_split -> conv6_2_conv6_2_relu_0_split_1
I1205 15:31:44.790580 26649 net.cpp:408] conv6_2_conv6_2_relu_0_split -> conv6_2_conv6_2_relu_0_split_2
I1205 15:31:44.790599 26649 net.cpp:408] conv6_2_conv6_2_relu_0_split -> conv6_2_conv6_2_relu_0_split_3
I1205 15:31:44.790704 26649 net.cpp:150] Setting up conv6_2_conv6_2_relu_0_split
I1205 15:31:44.790709 26649 net.cpp:157] Top shape: 8 512 10 10 (409600)
I1205 15:31:44.790712 26649 net.cpp:157] Top shape: 8 512 10 10 (409600)
I1205 15:31:44.790715 26649 net.cpp:157] Top shape: 8 512 10 10 (409600)
I1205 15:31:44.790719 26649 net.cpp:157] Top shape: 8 512 10 10 (409600)
I1205 15:31:44.790738 26649 net.cpp:165] Memory required for data: 1879433280
I1205 15:31:44.790741 26649 layer_factory.hpp:77] Creating layer conv7_1
I1205 15:31:44.790750 26649 net.cpp:100] Creating Layer conv7_1
I1205 15:31:44.790752 26649 net.cpp:434] conv7_1 <- conv6_2_conv6_2_relu_0_split_0
I1205 15:31:44.790758 26649 net.cpp:408] conv7_1 -> conv7_1
I1205 15:31:44.792320 26649 net.cpp:150] Setting up conv7_1
I1205 15:31:44.792331 26649 net.cpp:157] Top shape: 8 128 10 10 (102400)
I1205 15:31:44.792335 26649 net.cpp:165] Memory required for data: 1879842880
I1205 15:31:44.792357 26649 layer_factory.hpp:77] Creating layer conv7_1_relu
I1205 15:31:44.792364 26649 net.cpp:100] Creating Layer conv7_1_relu
I1205 15:31:44.792367 26649 net.cpp:434] conv7_1_relu <- conv7_1
I1205 15:31:44.792371 26649 net.cpp:395] conv7_1_relu -> conv7_1 (in-place)
I1205 15:31:44.792541 26649 net.cpp:150] Setting up conv7_1_relu
I1205 15:31:44.792547 26649 net.cpp:157] Top shape: 8 128 10 10 (102400)
I1205 15:31:44.792549 26649 net.cpp:165] Memory required for data: 1880252480
I1205 15:31:44.792552 26649 layer_factory.hpp:77] Creating layer conv7_2
I1205 15:31:44.792578 26649 net.cpp:100] Creating Layer conv7_2
I1205 15:31:44.792582 26649 net.cpp:434] conv7_2 <- conv7_1
I1205 15:31:44.792587 26649 net.cpp:408] conv7_2 -> conv7_2
I1205 15:31:44.795464 26649 net.cpp:150] Setting up conv7_2
I1205 15:31:44.795475 26649 net.cpp:157] Top shape: 8 256 5 5 (51200)
I1205 15:31:44.795478 26649 net.cpp:165] Memory required for data: 1880457280
I1205 15:31:44.795502 26649 layer_factory.hpp:77] Creating layer conv7_2_relu
I1205 15:31:44.795506 26649 net.cpp:100] Creating Layer conv7_2_relu
I1205 15:31:44.795523 26649 net.cpp:434] conv7_2_relu <- conv7_2
I1205 15:31:44.795528 26649 net.cpp:395] conv7_2_relu -> conv7_2 (in-place)
I1205 15:31:44.795796 26649 net.cpp:150] Setting up conv7_2_relu
I1205 15:31:44.795805 26649 net.cpp:157] Top shape: 8 256 5 5 (51200)
I1205 15:31:44.795807 26649 net.cpp:165] Memory required for data: 1880662080
I1205 15:31:44.795810 26649 layer_factory.hpp:77] Creating layer conv7_2_conv7_2_relu_0_split
I1205 15:31:44.795835 26649 net.cpp:100] Creating Layer conv7_2_conv7_2_relu_0_split
I1205 15:31:44.795837 26649 net.cpp:434] conv7_2_conv7_2_relu_0_split <- conv7_2
I1205 15:31:44.795841 26649 net.cpp:408] conv7_2_conv7_2_relu_0_split -> conv7_2_conv7_2_relu_0_split_0
I1205 15:31:44.795846 26649 net.cpp:408] conv7_2_conv7_2_relu_0_split -> conv7_2_conv7_2_relu_0_split_1
I1205 15:31:44.795866 26649 net.cpp:408] conv7_2_conv7_2_relu_0_split -> conv7_2_conv7_2_relu_0_split_2
I1205 15:31:44.795871 26649 net.cpp:408] conv7_2_conv7_2_relu_0_split -> conv7_2_conv7_2_relu_0_split_3
I1205 15:31:44.795960 26649 net.cpp:150] Setting up conv7_2_conv7_2_relu_0_split
I1205 15:31:44.795965 26649 net.cpp:157] Top shape: 8 256 5 5 (51200)
I1205 15:31:44.795969 26649 net.cpp:157] Top shape: 8 256 5 5 (51200)
I1205 15:31:44.795971 26649 net.cpp:157] Top shape: 8 256 5 5 (51200)
I1205 15:31:44.795974 26649 net.cpp:157] Top shape: 8 256 5 5 (51200)
I1205 15:31:44.795995 26649 net.cpp:165] Memory required for data: 1881481280
I1205 15:31:44.795997 26649 layer_factory.hpp:77] Creating layer conv8_1
I1205 15:31:44.796005 26649 net.cpp:100] Creating Layer conv8_1
I1205 15:31:44.796008 26649 net.cpp:434] conv8_1 <- conv7_2_conv7_2_relu_0_split_0
I1205 15:31:44.796015 26649 net.cpp:408] conv8_1 -> conv8_1
I1205 15:31:44.797076 26649 net.cpp:150] Setting up conv8_1
I1205 15:31:44.797086 26649 net.cpp:157] Top shape: 8 128 5 5 (25600)
I1205 15:31:44.797089 26649 net.cpp:165] Memory required for data: 1881583680
I1205 15:31:44.797121 26649 layer_factory.hpp:77] Creating layer conv8_1_relu
I1205 15:31:44.797127 26649 net.cpp:100] Creating Layer conv8_1_relu
I1205 15:31:44.797130 26649 net.cpp:434] conv8_1_relu <- conv8_1
I1205 15:31:44.797134 26649 net.cpp:395] conv8_1_relu -> conv8_1 (in-place)
I1205 15:31:44.797394 26649 net.cpp:150] Setting up conv8_1_relu
I1205 15:31:44.797402 26649 net.cpp:157] Top shape: 8 128 5 5 (25600)
I1205 15:31:44.797405 26649 net.cpp:165] Memory required for data: 1881686080
I1205 15:31:44.797408 26649 layer_factory.hpp:77] Creating layer conv8_2
I1205 15:31:44.797433 26649 net.cpp:100] Creating Layer conv8_2
I1205 15:31:44.797437 26649 net.cpp:434] conv8_2 <- conv8_1
I1205 15:31:44.797442 26649 net.cpp:408] conv8_2 -> conv8_2
I1205 15:31:44.800215 26649 net.cpp:150] Setting up conv8_2
I1205 15:31:44.800226 26649 net.cpp:157] Top shape: 8 256 3 3 (18432)
I1205 15:31:44.800230 26649 net.cpp:165] Memory required for data: 1881759808
I1205 15:31:44.800252 26649 layer_factory.hpp:77] Creating layer conv8_2_relu
I1205 15:31:44.800258 26649 net.cpp:100] Creating Layer conv8_2_relu
I1205 15:31:44.800261 26649 net.cpp:434] conv8_2_relu <- conv8_2
I1205 15:31:44.800266 26649 net.cpp:395] conv8_2_relu -> conv8_2 (in-place)
I1205 15:31:44.800462 26649 net.cpp:150] Setting up conv8_2_relu
I1205 15:31:44.800467 26649 net.cpp:157] Top shape: 8 256 3 3 (18432)
I1205 15:31:44.800470 26649 net.cpp:165] Memory required for data: 1881833536
I1205 15:31:44.800472 26649 layer_factory.hpp:77] Creating layer conv8_2_conv8_2_relu_0_split
I1205 15:31:44.800477 26649 net.cpp:100] Creating Layer conv8_2_conv8_2_relu_0_split
I1205 15:31:44.800498 26649 net.cpp:434] conv8_2_conv8_2_relu_0_split <- conv8_2
I1205 15:31:44.800501 26649 net.cpp:408] conv8_2_conv8_2_relu_0_split -> conv8_2_conv8_2_relu_0_split_0
I1205 15:31:44.800508 26649 net.cpp:408] conv8_2_conv8_2_relu_0_split -> conv8_2_conv8_2_relu_0_split_1
I1205 15:31:44.800513 26649 net.cpp:408] conv8_2_conv8_2_relu_0_split -> conv8_2_conv8_2_relu_0_split_2
I1205 15:31:44.800518 26649 net.cpp:408] conv8_2_conv8_2_relu_0_split -> conv8_2_conv8_2_relu_0_split_3
I1205 15:31:44.800623 26649 net.cpp:150] Setting up conv8_2_conv8_2_relu_0_split
I1205 15:31:44.800628 26649 net.cpp:157] Top shape: 8 256 3 3 (18432)
I1205 15:31:44.800631 26649 net.cpp:157] Top shape: 8 256 3 3 (18432)
I1205 15:31:44.800634 26649 net.cpp:157] Top shape: 8 256 3 3 (18432)
I1205 15:31:44.800637 26649 net.cpp:157] Top shape: 8 256 3 3 (18432)
I1205 15:31:44.800657 26649 net.cpp:165] Memory required for data: 1882128448
I1205 15:31:44.800660 26649 layer_factory.hpp:77] Creating layer conv9_1
I1205 15:31:44.800668 26649 net.cpp:100] Creating Layer conv9_1
I1205 15:31:44.800673 26649 net.cpp:434] conv9_1 <- conv8_2_conv8_2_relu_0_split_0
I1205 15:31:44.800676 26649 net.cpp:408] conv9_1 -> conv9_1
I1205 15:31:44.801789 26649 net.cpp:150] Setting up conv9_1
I1205 15:31:44.801800 26649 net.cpp:157] Top shape: 8 128 3 3 (9216)
I1205 15:31:44.801802 26649 net.cpp:165] Memory required for data: 1882165312
I1205 15:31:44.801807 26649 layer_factory.hpp:77] Creating layer conv9_1_relu
I1205 15:31:44.801831 26649 net.cpp:100] Creating Layer conv9_1_relu
I1205 15:31:44.801834 26649 net.cpp:434] conv9_1_relu <- conv9_1
I1205 15:31:44.801838 26649 net.cpp:395] conv9_1_relu -> conv9_1 (in-place)
I1205 15:31:44.802103 26649 net.cpp:150] Setting up conv9_1_relu
I1205 15:31:44.802111 26649 net.cpp:157] Top shape: 8 128 3 3 (9216)
I1205 15:31:44.802114 26649 net.cpp:165] Memory required for data: 1882202176
I1205 15:31:44.802117 26649 layer_factory.hpp:77] Creating layer conv9_2
I1205 15:31:44.802142 26649 net.cpp:100] Creating Layer conv9_2
I1205 15:31:44.802146 26649 net.cpp:434] conv9_2 <- conv9_1
I1205 15:31:44.802151 26649 net.cpp:408] conv9_2 -> conv9_2
I1205 15:31:44.804798 26649 net.cpp:150] Setting up conv9_2
I1205 15:31:44.804808 26649 net.cpp:157] Top shape: 8 256 1 1 (2048)
I1205 15:31:44.804811 26649 net.cpp:165] Memory required for data: 1882210368
I1205 15:31:44.804836 26649 layer_factory.hpp:77] Creating layer conv9_2_relu
I1205 15:31:44.804848 26649 net.cpp:100] Creating Layer conv9_2_relu
I1205 15:31:44.804852 26649 net.cpp:434] conv9_2_relu <- conv9_2
I1205 15:31:44.804857 26649 net.cpp:395] conv9_2_relu -> conv9_2 (in-place)
I1205 15:31:44.805124 26649 net.cpp:150] Setting up conv9_2_relu
I1205 15:31:44.805132 26649 net.cpp:157] Top shape: 8 256 1 1 (2048)
I1205 15:31:44.805135 26649 net.cpp:165] Memory required for data: 1882218560
I1205 15:31:44.805138 26649 layer_factory.hpp:77] Creating layer conv9_2_conv9_2_relu_0_split
I1205 15:31:44.805160 26649 net.cpp:100] Creating Layer conv9_2_conv9_2_relu_0_split
I1205 15:31:44.805163 26649 net.cpp:434] conv9_2_conv9_2_relu_0_split <- conv9_2
I1205 15:31:44.805181 26649 net.cpp:408] conv9_2_conv9_2_relu_0_split -> conv9_2_conv9_2_relu_0_split_0
I1205 15:31:44.805187 26649 net.cpp:408] conv9_2_conv9_2_relu_0_split -> conv9_2_conv9_2_relu_0_split_1
I1205 15:31:44.805191 26649 net.cpp:408] conv9_2_conv9_2_relu_0_split -> conv9_2_conv9_2_relu_0_split_2
I1205 15:31:44.805284 26649 net.cpp:150] Setting up conv9_2_conv9_2_relu_0_split
I1205 15:31:44.805289 26649 net.cpp:157] Top shape: 8 256 1 1 (2048)
I1205 15:31:44.805292 26649 net.cpp:157] Top shape: 8 256 1 1 (2048)
I1205 15:31:44.805295 26649 net.cpp:157] Top shape: 8 256 1 1 (2048)
I1205 15:31:44.805316 26649 net.cpp:165] Memory required for data: 1882243136
I1205 15:31:44.805320 26649 layer_factory.hpp:77] Creating layer conv4_3_norm
I1205 15:31:44.805337 26649 net.cpp:100] Creating Layer conv4_3_norm
I1205 15:31:44.805341 26649 net.cpp:434] conv4_3_norm <- conv4_3_relu4_3_0_split_1
I1205 15:31:44.805346 26649 net.cpp:408] conv4_3_norm -> conv4_3_norm
I1205 15:31:44.805557 26649 net.cpp:150] Setting up conv4_3_norm
I1205 15:31:44.805562 26649 net.cpp:157] Top shape: 8 512 38 38 (5914624)
I1205 15:31:44.805564 26649 net.cpp:165] Memory required for data: 1905901632
I1205 15:31:44.805568 26649 layer_factory.hpp:77] Creating layer conv4_3_norm_conv4_3_norm_0_split
I1205 15:31:44.805572 26649 net.cpp:100] Creating Layer conv4_3_norm_conv4_3_norm_0_split
I1205 15:31:44.805593 26649 net.cpp:434] conv4_3_norm_conv4_3_norm_0_split <- conv4_3_norm
I1205 15:31:44.805596 26649 net.cpp:408] conv4_3_norm_conv4_3_norm_0_split -> conv4_3_norm_conv4_3_norm_0_split_0
I1205 15:31:44.805601 26649 net.cpp:408] conv4_3_norm_conv4_3_norm_0_split -> conv4_3_norm_conv4_3_norm_0_split_1
I1205 15:31:44.805606 26649 net.cpp:408] conv4_3_norm_conv4_3_norm_0_split -> conv4_3_norm_conv4_3_norm_0_split_2
I1205 15:31:44.805673 26649 net.cpp:150] Setting up conv4_3_norm_conv4_3_norm_0_split
I1205 15:31:44.805678 26649 net.cpp:157] Top shape: 8 512 38 38 (5914624)
I1205 15:31:44.805682 26649 net.cpp:157] Top shape: 8 512 38 38 (5914624)
I1205 15:31:44.805685 26649 net.cpp:157] Top shape: 8 512 38 38 (5914624)
I1205 15:31:44.805699 26649 net.cpp:165] Memory required for data: 1976877120
I1205 15:31:44.805702 26649 layer_factory.hpp:77] Creating layer conv4_3_norm_mbox_loc
I1205 15:31:44.805727 26649 net.cpp:100] Creating Layer conv4_3_norm_mbox_loc
I1205 15:31:44.805730 26649 net.cpp:434] conv4_3_norm_mbox_loc <- conv4_3_norm_conv4_3_norm_0_split_0
I1205 15:31:44.805735 26649 net.cpp:408] conv4_3_norm_mbox_loc -> conv4_3_norm_mbox_loc
I1205 15:31:44.807260 26649 net.cpp:150] Setting up conv4_3_norm_mbox_loc
I1205 15:31:44.807268 26649 net.cpp:157] Top shape: 8 16 38 38 (184832)
I1205 15:31:44.807271 26649 net.cpp:165] Memory required for data: 1977616448
I1205 15:31:44.807277 26649 layer_factory.hpp:77] Creating layer conv4_3_norm_mbox_loc_perm
I1205 15:31:44.807282 26649 net.cpp:100] Creating Layer conv4_3_norm_mbox_loc_perm
I1205 15:31:44.807286 26649 net.cpp:434] conv4_3_norm_mbox_loc_perm <- conv4_3_norm_mbox_loc
I1205 15:31:44.807289 26649 net.cpp:408] conv4_3_norm_mbox_loc_perm -> conv4_3_norm_mbox_loc_perm
I1205 15:31:44.807413 26649 net.cpp:150] Setting up conv4_3_norm_mbox_loc_perm
I1205 15:31:44.807418 26649 net.cpp:157] Top shape: 8 38 38 16 (184832)
I1205 15:31:44.807420 26649 net.cpp:165] Memory required for data: 1978355776
I1205 15:31:44.807430 26649 layer_factory.hpp:77] Creating layer conv4_3_norm_mbox_loc_flat
I1205 15:31:44.807435 26649 net.cpp:100] Creating Layer conv4_3_norm_mbox_loc_flat
I1205 15:31:44.807438 26649 net.cpp:434] conv4_3_norm_mbox_loc_flat <- conv4_3_norm_mbox_loc_perm
I1205 15:31:44.807442 26649 net.cpp:408] conv4_3_norm_mbox_loc_flat -> conv4_3_norm_mbox_loc_flat
I1205 15:31:44.807471 26649 net.cpp:150] Setting up conv4_3_norm_mbox_loc_flat
I1205 15:31:44.807477 26649 net.cpp:157] Top shape: 8 23104 (184832)
I1205 15:31:44.807481 26649 net.cpp:165] Memory required for data: 1979095104
I1205 15:31:44.807482 26649 layer_factory.hpp:77] Creating layer conv4_3_norm_mbox_conf
I1205 15:31:44.807494 26649 net.cpp:100] Creating Layer conv4_3_norm_mbox_conf
I1205 15:31:44.807497 26649 net.cpp:434] conv4_3_norm_mbox_conf <- conv4_3_norm_conv4_3_norm_0_split_1
I1205 15:31:44.807503 26649 net.cpp:408] conv4_3_norm_mbox_conf -> conv4_3_norm_mbox_conf
I1205 15:31:44.810794 26649 net.cpp:150] Setting up conv4_3_norm_mbox_conf
I1205 15:31:44.810803 26649 net.cpp:157] Top shape: 8 84 38 38 (970368)
I1205 15:31:44.810806 26649 net.cpp:165] Memory required for data: 1982976576
I1205 15:31:44.810812 26649 layer_factory.hpp:77] Creating layer conv4_3_norm_mbox_conf_perm
I1205 15:31:44.810817 26649 net.cpp:100] Creating Layer conv4_3_norm_mbox_conf_perm
I1205 15:31:44.810822 26649 net.cpp:434] conv4_3_norm_mbox_conf_perm <- conv4_3_norm_mbox_conf
I1205 15:31:44.810827 26649 net.cpp:408] conv4_3_norm_mbox_conf_perm -> conv4_3_norm_mbox_conf_perm
I1205 15:31:44.811005 26649 net.cpp:150] Setting up conv4_3_norm_mbox_conf_perm
I1205 15:31:44.811010 26649 net.cpp:157] Top shape: 8 38 38 84 (970368)
I1205 15:31:44.811013 26649 net.cpp:165] Memory required for data: 1986858048
I1205 15:31:44.811017 26649 layer_factory.hpp:77] Creating layer conv4_3_norm_mbox_conf_flat
I1205 15:31:44.811020 26649 net.cpp:100] Creating Layer conv4_3_norm_mbox_conf_flat
I1205 15:31:44.811023 26649 net.cpp:434] conv4_3_norm_mbox_conf_flat <- conv4_3_norm_mbox_conf_perm
I1205 15:31:44.811028 26649 net.cpp:408] conv4_3_norm_mbox_conf_flat -> conv4_3_norm_mbox_conf_flat
I1205 15:31:44.811065 26649 net.cpp:150] Setting up conv4_3_norm_mbox_conf_flat
I1205 15:31:44.811070 26649 net.cpp:157] Top shape: 8 121296 (970368)
I1205 15:31:44.811072 26649 net.cpp:165] Memory required for data: 1990739520
I1205 15:31:44.811075 26649 layer_factory.hpp:77] Creating layer conv4_3_norm_mbox_priorbox
I1205 15:31:44.811081 26649 net.cpp:100] Creating Layer conv4_3_norm_mbox_priorbox
I1205 15:31:44.811084 26649 net.cpp:434] conv4_3_norm_mbox_priorbox <- conv4_3_norm_conv4_3_norm_0_split_2
I1205 15:31:44.811089 26649 net.cpp:434] conv4_3_norm_mbox_priorbox <- data_data_0_split_1
I1205 15:31:44.811092 26649 net.cpp:408] conv4_3_norm_mbox_priorbox -> conv4_3_norm_mbox_priorbox
I1205 15:31:44.811120 26649 net.cpp:150] Setting up conv4_3_norm_mbox_priorbox
I1205 15:31:44.811125 26649 net.cpp:157] Top shape: 1 2 23104 (46208)
I1205 15:31:44.811126 26649 net.cpp:165] Memory required for data: 1990924352
I1205 15:31:44.811130 26649 layer_factory.hpp:77] Creating layer fc7_mbox_loc
I1205 15:31:44.811136 26649 net.cpp:100] Creating Layer fc7_mbox_loc
I1205 15:31:44.811139 26649 net.cpp:434] fc7_mbox_loc <- fc7_relu7_0_split_1
I1205 15:31:44.811146 26649 net.cpp:408] fc7_mbox_loc -> fc7_mbox_loc
I1205 15:31:44.813979 26649 net.cpp:150] Setting up fc7_mbox_loc
I1205 15:31:44.813995 26649 net.cpp:157] Top shape: 8 24 19 19 (69312)
I1205 15:31:44.814000 26649 net.cpp:165] Memory required for data: 1991201600
I1205 15:31:44.814010 26649 layer_factory.hpp:77] Creating layer fc7_mbox_loc_perm
I1205 15:31:44.814019 26649 net.cpp:100] Creating Layer fc7_mbox_loc_perm
I1205 15:31:44.814026 26649 net.cpp:434] fc7_mbox_loc_perm <- fc7_mbox_loc
I1205 15:31:44.814034 26649 net.cpp:408] fc7_mbox_loc_perm -> fc7_mbox_loc_perm
I1205 15:31:44.814216 26649 net.cpp:150] Setting up fc7_mbox_loc_perm
I1205 15:31:44.814224 26649 net.cpp:157] Top shape: 8 19 19 24 (69312)
I1205 15:31:44.814229 26649 net.cpp:165] Memory required for data: 1991478848
I1205 15:31:44.814244 26649 layer_factory.hpp:77] Creating layer fc7_mbox_loc_flat
I1205 15:31:44.814265 26649 net.cpp:100] Creating Layer fc7_mbox_loc_flat
I1205 15:31:44.814270 26649 net.cpp:434] fc7_mbox_loc_flat <- fc7_mbox_loc_perm
I1205 15:31:44.814276 26649 net.cpp:408] fc7_mbox_loc_flat -> fc7_mbox_loc_flat
I1205 15:31:44.814333 26649 net.cpp:150] Setting up fc7_mbox_loc_flat
I1205 15:31:44.814357 26649 net.cpp:157] Top shape: 8 8664 (69312)
I1205 15:31:44.814360 26649 net.cpp:165] Memory required for data: 1991756096
I1205 15:31:44.814378 26649 layer_factory.hpp:77] Creating layer fc7_mbox_conf
I1205 15:31:44.814409 26649 net.cpp:100] Creating Layer fc7_mbox_conf
I1205 15:31:44.814414 26649 net.cpp:434] fc7_mbox_conf <- fc7_relu7_0_split_2
I1205 15:31:44.814424 26649 net.cpp:408] fc7_mbox_conf -> fc7_mbox_conf
I1205 15:31:44.823117 26649 net.cpp:150] Setting up fc7_mbox_conf
I1205 15:31:44.823135 26649 net.cpp:157] Top shape: 8 126 19 19 (363888)
I1205 15:31:44.823139 26649 net.cpp:165] Memory required for data: 1993211648
I1205 15:31:44.823164 26649 layer_factory.hpp:77] Creating layer fc7_mbox_conf_perm
I1205 15:31:44.823173 26649 net.cpp:100] Creating Layer fc7_mbox_conf_perm
I1205 15:31:44.823179 26649 net.cpp:434] fc7_mbox_conf_perm <- fc7_mbox_conf
I1205 15:31:44.823184 26649 net.cpp:408] fc7_mbox_conf_perm -> fc7_mbox_conf_perm
I1205 15:31:44.823340 26649 net.cpp:150] Setting up fc7_mbox_conf_perm
I1205 15:31:44.823346 26649 net.cpp:157] Top shape: 8 19 19 126 (363888)
I1205 15:31:44.823349 26649 net.cpp:165] Memory required for data: 1994667200
I1205 15:31:44.823351 26649 layer_factory.hpp:77] Creating layer fc7_mbox_conf_flat
I1205 15:31:44.823375 26649 net.cpp:100] Creating Layer fc7_mbox_conf_flat
I1205 15:31:44.823379 26649 net.cpp:434] fc7_mbox_conf_flat <- fc7_mbox_conf_perm
I1205 15:31:44.823382 26649 net.cpp:408] fc7_mbox_conf_flat -> fc7_mbox_conf_flat
I1205 15:31:44.823408 26649 net.cpp:150] Setting up fc7_mbox_conf_flat
I1205 15:31:44.823413 26649 net.cpp:157] Top shape: 8 45486 (363888)
I1205 15:31:44.823415 26649 net.cpp:165] Memory required for data: 1996122752
I1205 15:31:44.823434 26649 layer_factory.hpp:77] Creating layer fc7_mbox_priorbox
I1205 15:31:44.823439 26649 net.cpp:100] Creating Layer fc7_mbox_priorbox
I1205 15:31:44.823460 26649 net.cpp:434] fc7_mbox_priorbox <- fc7_relu7_0_split_3
I1205 15:31:44.823464 26649 net.cpp:434] fc7_mbox_priorbox <- data_data_0_split_2
I1205 15:31:44.823483 26649 net.cpp:408] fc7_mbox_priorbox -> fc7_mbox_priorbox
I1205 15:31:44.823511 26649 net.cpp:150] Setting up fc7_mbox_priorbox
I1205 15:31:44.823516 26649 net.cpp:157] Top shape: 1 2 8664 (17328)
I1205 15:31:44.823519 26649 net.cpp:165] Memory required for data: 1996192064
I1205 15:31:44.823521 26649 layer_factory.hpp:77] Creating layer conv6_2_mbox_loc
I1205 15:31:44.823530 26649 net.cpp:100] Creating Layer conv6_2_mbox_loc
I1205 15:31:44.823534 26649 net.cpp:434] conv6_2_mbox_loc <- conv6_2_conv6_2_relu_0_split_1
I1205 15:31:44.823557 26649 net.cpp:408] conv6_2_mbox_loc -> conv6_2_mbox_loc
I1205 15:31:44.825461 26649 net.cpp:150] Setting up conv6_2_mbox_loc
I1205 15:31:44.825472 26649 net.cpp:157] Top shape: 8 24 10 10 (19200)
I1205 15:31:44.825475 26649 net.cpp:165] Memory required for data: 1996268864
I1205 15:31:44.825498 26649 layer_factory.hpp:77] Creating layer conv6_2_mbox_loc_perm
I1205 15:31:44.825505 26649 net.cpp:100] Creating Layer conv6_2_mbox_loc_perm
I1205 15:31:44.825508 26649 net.cpp:434] conv6_2_mbox_loc_perm <- conv6_2_mbox_loc
I1205 15:31:44.825512 26649 net.cpp:408] conv6_2_mbox_loc_perm -> conv6_2_mbox_loc_perm
I1205 15:31:44.825654 26649 net.cpp:150] Setting up conv6_2_mbox_loc_perm
I1205 15:31:44.825660 26649 net.cpp:157] Top shape: 8 10 10 24 (19200)
I1205 15:31:44.825662 26649 net.cpp:165] Memory required for data: 1996345664
I1205 15:31:44.825665 26649 layer_factory.hpp:77] Creating layer conv6_2_mbox_loc_flat
I1205 15:31:44.825687 26649 net.cpp:100] Creating Layer conv6_2_mbox_loc_flat
I1205 15:31:44.825690 26649 net.cpp:434] conv6_2_mbox_loc_flat <- conv6_2_mbox_loc_perm
I1205 15:31:44.825718 26649 net.cpp:408] conv6_2_mbox_loc_flat -> conv6_2_mbox_loc_flat
I1205 15:31:44.825744 26649 net.cpp:150] Setting up conv6_2_mbox_loc_flat
I1205 15:31:44.825749 26649 net.cpp:157] Top shape: 8 2400 (19200)
I1205 15:31:44.825752 26649 net.cpp:165] Memory required for data: 1996422464
I1205 15:31:44.825754 26649 layer_factory.hpp:77] Creating layer conv6_2_mbox_conf
I1205 15:31:44.825762 26649 net.cpp:100] Creating Layer conv6_2_mbox_conf
I1205 15:31:44.825767 26649 net.cpp:434] conv6_2_mbox_conf <- conv6_2_conv6_2_relu_0_split_2
I1205 15:31:44.825770 26649 net.cpp:408] conv6_2_mbox_conf -> conv6_2_mbox_conf
I1205 15:31:44.830476 26649 net.cpp:150] Setting up conv6_2_mbox_conf
I1205 15:31:44.830488 26649 net.cpp:157] Top shape: 8 126 10 10 (100800)
I1205 15:31:44.830492 26649 net.cpp:165] Memory required for data: 1996825664
I1205 15:31:44.830516 26649 layer_factory.hpp:77] Creating layer conv6_2_mbox_conf_perm
I1205 15:31:44.830535 26649 net.cpp:100] Creating Layer conv6_2_mbox_conf_perm
I1205 15:31:44.830539 26649 net.cpp:434] conv6_2_mbox_conf_perm <- conv6_2_mbox_conf
I1205 15:31:44.830544 26649 net.cpp:408] conv6_2_mbox_conf_perm -> conv6_2_mbox_conf_perm
I1205 15:31:44.830687 26649 net.cpp:150] Setting up conv6_2_mbox_conf_perm
I1205 15:31:44.830693 26649 net.cpp:157] Top shape: 8 10 10 126 (100800)
I1205 15:31:44.830695 26649 net.cpp:165] Memory required for data: 1997228864
I1205 15:31:44.830698 26649 layer_factory.hpp:77] Creating layer conv6_2_mbox_conf_flat
I1205 15:31:44.830721 26649 net.cpp:100] Creating Layer conv6_2_mbox_conf_flat
I1205 15:31:44.830724 26649 net.cpp:434] conv6_2_mbox_conf_flat <- conv6_2_mbox_conf_perm
I1205 15:31:44.830729 26649 net.cpp:408] conv6_2_mbox_conf_flat -> conv6_2_mbox_conf_flat
I1205 15:31:44.830754 26649 net.cpp:150] Setting up conv6_2_mbox_conf_flat
I1205 15:31:44.830775 26649 net.cpp:157] Top shape: 8 12600 (100800)
I1205 15:31:44.830778 26649 net.cpp:165] Memory required for data: 1997632064
I1205 15:31:44.830780 26649 layer_factory.hpp:77] Creating layer conv6_2_mbox_priorbox
I1205 15:31:44.830804 26649 net.cpp:100] Creating Layer conv6_2_mbox_priorbox
I1205 15:31:44.830807 26649 net.cpp:434] conv6_2_mbox_priorbox <- conv6_2_conv6_2_relu_0_split_3
I1205 15:31:44.830811 26649 net.cpp:434] conv6_2_mbox_priorbox <- data_data_0_split_3
I1205 15:31:44.830816 26649 net.cpp:408] conv6_2_mbox_priorbox -> conv6_2_mbox_priorbox
I1205 15:31:44.830875 26649 net.cpp:150] Setting up conv6_2_mbox_priorbox
I1205 15:31:44.830881 26649 net.cpp:157] Top shape: 1 2 2400 (4800)
I1205 15:31:44.830900 26649 net.cpp:165] Memory required for data: 1997651264
I1205 15:31:44.830902 26649 layer_factory.hpp:77] Creating layer conv7_2_mbox_loc
I1205 15:31:44.830929 26649 net.cpp:100] Creating Layer conv7_2_mbox_loc
I1205 15:31:44.830932 26649 net.cpp:434] conv7_2_mbox_loc <- conv7_2_conv7_2_relu_0_split_1
I1205 15:31:44.830955 26649 net.cpp:408] conv7_2_mbox_loc -> conv7_2_mbox_loc
I1205 15:31:44.832217 26649 net.cpp:150] Setting up conv7_2_mbox_loc
I1205 15:31:44.832226 26649 net.cpp:157] Top shape: 8 24 5 5 (4800)
I1205 15:31:44.832229 26649 net.cpp:165] Memory required for data: 1997670464
I1205 15:31:44.832236 26649 layer_factory.hpp:77] Creating layer conv7_2_mbox_loc_perm
I1205 15:31:44.832240 26649 net.cpp:100] Creating Layer conv7_2_mbox_loc_perm
I1205 15:31:44.832243 26649 net.cpp:434] conv7_2_mbox_loc_perm <- conv7_2_mbox_loc
I1205 15:31:44.832247 26649 net.cpp:408] conv7_2_mbox_loc_perm -> conv7_2_mbox_loc_perm
I1205 15:31:44.832382 26649 net.cpp:150] Setting up conv7_2_mbox_loc_perm
I1205 15:31:44.832387 26649 net.cpp:157] Top shape: 8 5 5 24 (4800)
I1205 15:31:44.832389 26649 net.cpp:165] Memory required for data: 1997689664
I1205 15:31:44.832392 26649 layer_factory.hpp:77] Creating layer conv7_2_mbox_loc_flat
I1205 15:31:44.832397 26649 net.cpp:100] Creating Layer conv7_2_mbox_loc_flat
I1205 15:31:44.832401 26649 net.cpp:434] conv7_2_mbox_loc_flat <- conv7_2_mbox_loc_perm
I1205 15:31:44.832403 26649 net.cpp:408] conv7_2_mbox_loc_flat -> conv7_2_mbox_loc_flat
I1205 15:31:44.832437 26649 net.cpp:150] Setting up conv7_2_mbox_loc_flat
I1205 15:31:44.832442 26649 net.cpp:157] Top shape: 8 600 (4800)
I1205 15:31:44.832444 26649 net.cpp:165] Memory required for data: 1997708864
I1205 15:31:44.832448 26649 layer_factory.hpp:77] Creating layer conv7_2_mbox_conf
I1205 15:31:44.832454 26649 net.cpp:100] Creating Layer conv7_2_mbox_conf
I1205 15:31:44.832456 26649 net.cpp:434] conv7_2_mbox_conf <- conv7_2_conv7_2_relu_0_split_2
I1205 15:31:44.832463 26649 net.cpp:408] conv7_2_mbox_conf -> conv7_2_mbox_conf
I1205 15:31:44.835268 26649 net.cpp:150] Setting up conv7_2_mbox_conf
I1205 15:31:44.835278 26649 net.cpp:157] Top shape: 8 126 5 5 (25200)
I1205 15:31:44.835280 26649 net.cpp:165] Memory required for data: 1997809664
I1205 15:31:44.835285 26649 layer_factory.hpp:77] Creating layer conv7_2_mbox_conf_perm
I1205 15:31:44.835292 26649 net.cpp:100] Creating Layer conv7_2_mbox_conf_perm
I1205 15:31:44.835295 26649 net.cpp:434] conv7_2_mbox_conf_perm <- conv7_2_mbox_conf
I1205 15:31:44.835300 26649 net.cpp:408] conv7_2_mbox_conf_perm -> conv7_2_mbox_conf_perm
I1205 15:31:44.835425 26649 net.cpp:150] Setting up conv7_2_mbox_conf_perm
I1205 15:31:44.835429 26649 net.cpp:157] Top shape: 8 5 5 126 (25200)
I1205 15:31:44.835433 26649 net.cpp:165] Memory required for data: 1997910464
I1205 15:31:44.835434 26649 layer_factory.hpp:77] Creating layer conv7_2_mbox_conf_flat
I1205 15:31:44.835439 26649 net.cpp:100] Creating Layer conv7_2_mbox_conf_flat
I1205 15:31:44.835443 26649 net.cpp:434] conv7_2_mbox_conf_flat <- conv7_2_mbox_conf_perm
I1205 15:31:44.835446 26649 net.cpp:408] conv7_2_mbox_conf_flat -> conv7_2_mbox_conf_flat
I1205 15:31:44.835470 26649 net.cpp:150] Setting up conv7_2_mbox_conf_flat
I1205 15:31:44.835474 26649 net.cpp:157] Top shape: 8 3150 (25200)
I1205 15:31:44.835476 26649 net.cpp:165] Memory required for data: 1998011264
I1205 15:31:44.835479 26649 layer_factory.hpp:77] Creating layer conv7_2_mbox_priorbox
I1205 15:31:44.835484 26649 net.cpp:100] Creating Layer conv7_2_mbox_priorbox
I1205 15:31:44.835486 26649 net.cpp:434] conv7_2_mbox_priorbox <- conv7_2_conv7_2_relu_0_split_3
I1205 15:31:44.835490 26649 net.cpp:434] conv7_2_mbox_priorbox <- data_data_0_split_4
I1205 15:31:44.835495 26649 net.cpp:408] conv7_2_mbox_priorbox -> conv7_2_mbox_priorbox
I1205 15:31:44.835520 26649 net.cpp:150] Setting up conv7_2_mbox_priorbox
I1205 15:31:44.835525 26649 net.cpp:157] Top shape: 1 2 600 (1200)
I1205 15:31:44.835526 26649 net.cpp:165] Memory required for data: 1998016064
I1205 15:31:44.835528 26649 layer_factory.hpp:77] Creating layer conv8_2_mbox_loc
I1205 15:31:44.835537 26649 net.cpp:100] Creating Layer conv8_2_mbox_loc
I1205 15:31:44.835541 26649 net.cpp:434] conv8_2_mbox_loc <- conv8_2_conv8_2_relu_0_split_1
I1205 15:31:44.835546 26649 net.cpp:408] conv8_2_mbox_loc -> conv8_2_mbox_loc
I1205 15:31:44.836822 26649 net.cpp:150] Setting up conv8_2_mbox_loc
I1205 15:31:44.836832 26649 net.cpp:157] Top shape: 8 16 3 3 (1152)
I1205 15:31:44.836834 26649 net.cpp:165] Memory required for data: 1998020672
I1205 15:31:44.836850 26649 layer_factory.hpp:77] Creating layer conv8_2_mbox_loc_perm
I1205 15:31:44.836855 26649 net.cpp:100] Creating Layer conv8_2_mbox_loc_perm
I1205 15:31:44.836859 26649 net.cpp:434] conv8_2_mbox_loc_perm <- conv8_2_mbox_loc
I1205 15:31:44.836863 26649 net.cpp:408] conv8_2_mbox_loc_perm -> conv8_2_mbox_loc_perm
I1205 15:31:44.837009 26649 net.cpp:150] Setting up conv8_2_mbox_loc_perm
I1205 15:31:44.837014 26649 net.cpp:157] Top shape: 8 3 3 16 (1152)
I1205 15:31:44.837016 26649 net.cpp:165] Memory required for data: 1998025280
I1205 15:31:44.837019 26649 layer_factory.hpp:77] Creating layer conv8_2_mbox_loc_flat
I1205 15:31:44.837023 26649 net.cpp:100] Creating Layer conv8_2_mbox_loc_flat
I1205 15:31:44.837025 26649 net.cpp:434] conv8_2_mbox_loc_flat <- conv8_2_mbox_loc_perm
I1205 15:31:44.837030 26649 net.cpp:408] conv8_2_mbox_loc_flat -> conv8_2_mbox_loc_flat
I1205 15:31:44.837056 26649 net.cpp:150] Setting up conv8_2_mbox_loc_flat
I1205 15:31:44.837069 26649 net.cpp:157] Top shape: 8 144 (1152)
I1205 15:31:44.837071 26649 net.cpp:165] Memory required for data: 1998029888
I1205 15:31:44.837074 26649 layer_factory.hpp:77] Creating layer conv8_2_mbox_conf
I1205 15:31:44.837081 26649 net.cpp:100] Creating Layer conv8_2_mbox_conf
I1205 15:31:44.837085 26649 net.cpp:434] conv8_2_mbox_conf <- conv8_2_conv8_2_relu_0_split_2
I1205 15:31:44.837090 26649 net.cpp:408] conv8_2_mbox_conf -> conv8_2_mbox_conf
I1205 15:31:44.839426 26649 net.cpp:150] Setting up conv8_2_mbox_conf
I1205 15:31:44.839434 26649 net.cpp:157] Top shape: 8 84 3 3 (6048)
I1205 15:31:44.839437 26649 net.cpp:165] Memory required for data: 1998054080
I1205 15:31:44.839443 26649 layer_factory.hpp:77] Creating layer conv8_2_mbox_conf_perm
I1205 15:31:44.839448 26649 net.cpp:100] Creating Layer conv8_2_mbox_conf_perm
I1205 15:31:44.839452 26649 net.cpp:434] conv8_2_mbox_conf_perm <- conv8_2_mbox_conf
I1205 15:31:44.839457 26649 net.cpp:408] conv8_2_mbox_conf_perm -> conv8_2_mbox_conf_perm
I1205 15:31:44.839586 26649 net.cpp:150] Setting up conv8_2_mbox_conf_perm
I1205 15:31:44.839591 26649 net.cpp:157] Top shape: 8 3 3 84 (6048)
I1205 15:31:44.839592 26649 net.cpp:165] Memory required for data: 1998078272
I1205 15:31:44.839596 26649 layer_factory.hpp:77] Creating layer conv8_2_mbox_conf_flat
I1205 15:31:44.839599 26649 net.cpp:100] Creating Layer conv8_2_mbox_conf_flat
I1205 15:31:44.839602 26649 net.cpp:434] conv8_2_mbox_conf_flat <- conv8_2_mbox_conf_perm
I1205 15:31:44.839607 26649 net.cpp:408] conv8_2_mbox_conf_flat -> conv8_2_mbox_conf_flat
I1205 15:31:44.839630 26649 net.cpp:150] Setting up conv8_2_mbox_conf_flat
I1205 15:31:44.839634 26649 net.cpp:157] Top shape: 8 756 (6048)
I1205 15:31:44.839637 26649 net.cpp:165] Memory required for data: 1998102464
I1205 15:31:44.839639 26649 layer_factory.hpp:77] Creating layer conv8_2_mbox_priorbox
I1205 15:31:44.839644 26649 net.cpp:100] Creating Layer conv8_2_mbox_priorbox
I1205 15:31:44.839648 26649 net.cpp:434] conv8_2_mbox_priorbox <- conv8_2_conv8_2_relu_0_split_3
I1205 15:31:44.839650 26649 net.cpp:434] conv8_2_mbox_priorbox <- data_data_0_split_5
I1205 15:31:44.839655 26649 net.cpp:408] conv8_2_mbox_priorbox -> conv8_2_mbox_priorbox
I1205 15:31:44.839681 26649 net.cpp:150] Setting up conv8_2_mbox_priorbox
I1205 15:31:44.839685 26649 net.cpp:157] Top shape: 1 2 144 (288)
I1205 15:31:44.839689 26649 net.cpp:165] Memory required for data: 1998103616
I1205 15:31:44.839690 26649 layer_factory.hpp:77] Creating layer conv9_2_mbox_loc
I1205 15:31:44.839699 26649 net.cpp:100] Creating Layer conv9_2_mbox_loc
I1205 15:31:44.839702 26649 net.cpp:434] conv9_2_mbox_loc <- conv9_2_conv9_2_relu_0_split_0
I1205 15:31:44.839706 26649 net.cpp:408] conv9_2_mbox_loc -> conv9_2_mbox_loc
I1205 15:31:44.841050 26649 net.cpp:150] Setting up conv9_2_mbox_loc
I1205 15:31:44.841059 26649 net.cpp:157] Top shape: 8 16 1 1 (128)
I1205 15:31:44.841063 26649 net.cpp:165] Memory required for data: 1998104128
I1205 15:31:44.841068 26649 layer_factory.hpp:77] Creating layer conv9_2_mbox_loc_perm
I1205 15:31:44.841073 26649 net.cpp:100] Creating Layer conv9_2_mbox_loc_perm
I1205 15:31:44.841075 26649 net.cpp:434] conv9_2_mbox_loc_perm <- conv9_2_mbox_loc
I1205 15:31:44.841080 26649 net.cpp:408] conv9_2_mbox_loc_perm -> conv9_2_mbox_loc_perm
I1205 15:31:44.841209 26649 net.cpp:150] Setting up conv9_2_mbox_loc_perm
I1205 15:31:44.841214 26649 net.cpp:157] Top shape: 8 1 1 16 (128)
I1205 15:31:44.841217 26649 net.cpp:165] Memory required for data: 1998104640
I1205 15:31:44.841219 26649 layer_factory.hpp:77] Creating layer conv9_2_mbox_loc_flat
I1205 15:31:44.841223 26649 net.cpp:100] Creating Layer conv9_2_mbox_loc_flat
I1205 15:31:44.841226 26649 net.cpp:434] conv9_2_mbox_loc_flat <- conv9_2_mbox_loc_perm
I1205 15:31:44.841230 26649 net.cpp:408] conv9_2_mbox_loc_flat -> conv9_2_mbox_loc_flat
I1205 15:31:44.841254 26649 net.cpp:150] Setting up conv9_2_mbox_loc_flat
I1205 15:31:44.841259 26649 net.cpp:157] Top shape: 8 16 (128)
I1205 15:31:44.841261 26649 net.cpp:165] Memory required for data: 1998105152
I1205 15:31:44.841272 26649 layer_factory.hpp:77] Creating layer conv9_2_mbox_conf
I1205 15:31:44.841280 26649 net.cpp:100] Creating Layer conv9_2_mbox_conf
I1205 15:31:44.841284 26649 net.cpp:434] conv9_2_mbox_conf <- conv9_2_conv9_2_relu_0_split_1
I1205 15:31:44.841287 26649 net.cpp:408] conv9_2_mbox_conf -> conv9_2_mbox_conf
I1205 15:31:44.843559 26649 net.cpp:150] Setting up conv9_2_mbox_conf
I1205 15:31:44.843569 26649 net.cpp:157] Top shape: 8 84 1 1 (672)
I1205 15:31:44.843571 26649 net.cpp:165] Memory required for data: 1998107840
I1205 15:31:44.843576 26649 layer_factory.hpp:77] Creating layer conv9_2_mbox_conf_perm
I1205 15:31:44.843582 26649 net.cpp:100] Creating Layer conv9_2_mbox_conf_perm
I1205 15:31:44.843585 26649 net.cpp:434] conv9_2_mbox_conf_perm <- conv9_2_mbox_conf
I1205 15:31:44.843590 26649 net.cpp:408] conv9_2_mbox_conf_perm -> conv9_2_mbox_conf_perm
I1205 15:31:44.843755 26649 net.cpp:150] Setting up conv9_2_mbox_conf_perm
I1205 15:31:44.843760 26649 net.cpp:157] Top shape: 8 1 1 84 (672)
I1205 15:31:44.843762 26649 net.cpp:165] Memory required for data: 1998110528
I1205 15:31:44.843765 26649 layer_factory.hpp:77] Creating layer conv9_2_mbox_conf_flat
I1205 15:31:44.843770 26649 net.cpp:100] Creating Layer conv9_2_mbox_conf_flat
I1205 15:31:44.843772 26649 net.cpp:434] conv9_2_mbox_conf_flat <- conv9_2_mbox_conf_perm
I1205 15:31:44.843777 26649 net.cpp:408] conv9_2_mbox_conf_flat -> conv9_2_mbox_conf_flat
I1205 15:31:44.843816 26649 net.cpp:150] Setting up conv9_2_mbox_conf_flat
I1205 15:31:44.843819 26649 net.cpp:157] Top shape: 8 84 (672)
I1205 15:31:44.843839 26649 net.cpp:165] Memory required for data: 1998113216
I1205 15:31:44.843842 26649 layer_factory.hpp:77] Creating layer conv9_2_mbox_priorbox
I1205 15:31:44.843860 26649 net.cpp:100] Creating Layer conv9_2_mbox_priorbox
I1205 15:31:44.843863 26649 net.cpp:434] conv9_2_mbox_priorbox <- conv9_2_conv9_2_relu_0_split_2
I1205 15:31:44.843868 26649 net.cpp:434] conv9_2_mbox_priorbox <- data_data_0_split_6
I1205 15:31:44.843873 26649 net.cpp:408] conv9_2_mbox_priorbox -> conv9_2_mbox_priorbox
I1205 15:31:44.843919 26649 net.cpp:150] Setting up conv9_2_mbox_priorbox
I1205 15:31:44.843942 26649 net.cpp:157] Top shape: 1 2 16 (32)
I1205 15:31:44.843946 26649 net.cpp:165] Memory required for data: 1998113344
I1205 15:31:44.843950 26649 layer_factory.hpp:77] Creating layer mbox_loc
I1205 15:31:44.843961 26649 net.cpp:100] Creating Layer mbox_loc
I1205 15:31:44.843967 26649 net.cpp:434] mbox_loc <- conv4_3_norm_mbox_loc_flat
I1205 15:31:44.843974 26649 net.cpp:434] mbox_loc <- fc7_mbox_loc_flat
I1205 15:31:44.843979 26649 net.cpp:434] mbox_loc <- conv6_2_mbox_loc_flat
I1205 15:31:44.843984 26649 net.cpp:434] mbox_loc <- conv7_2_mbox_loc_flat
I1205 15:31:44.843991 26649 net.cpp:434] mbox_loc <- conv8_2_mbox_loc_flat
I1205 15:31:44.843994 26649 net.cpp:434] mbox_loc <- conv9_2_mbox_loc_flat
I1205 15:31:44.844000 26649 net.cpp:408] mbox_loc -> mbox_loc
I1205 15:31:44.844058 26649 net.cpp:150] Setting up mbox_loc
I1205 15:31:44.844066 26649 net.cpp:157] Top shape: 8 34928 (279424)
I1205 15:31:44.844070 26649 net.cpp:165] Memory required for data: 1999231040
I1205 15:31:44.844074 26649 layer_factory.hpp:77] Creating layer mbox_conf
I1205 15:31:44.844079 26649 net.cpp:100] Creating Layer mbox_conf
I1205 15:31:44.844096 26649 net.cpp:434] mbox_conf <- conv4_3_norm_mbox_conf_flat
I1205 15:31:44.844101 26649 net.cpp:434] mbox_conf <- fc7_mbox_conf_flat
I1205 15:31:44.844105 26649 net.cpp:434] mbox_conf <- conv6_2_mbox_conf_flat
I1205 15:31:44.844110 26649 net.cpp:434] mbox_conf <- conv7_2_mbox_conf_flat
I1205 15:31:44.844112 26649 net.cpp:434] mbox_conf <- conv8_2_mbox_conf_flat
I1205 15:31:44.844115 26649 net.cpp:434] mbox_conf <- conv9_2_mbox_conf_flat
I1205 15:31:44.844121 26649 net.cpp:408] mbox_conf -> mbox_conf
I1205 15:31:44.844158 26649 net.cpp:150] Setting up mbox_conf
I1205 15:31:44.844184 26649 net.cpp:157] Top shape: 8 183372 (1466976)
I1205 15:31:44.844189 26649 net.cpp:165] Memory required for data: 2005098944
I1205 15:31:44.844216 26649 layer_factory.hpp:77] Creating layer mbox_priorbox
I1205 15:31:44.844224 26649 net.cpp:100] Creating Layer mbox_priorbox
I1205 15:31:44.844230 26649 net.cpp:434] mbox_priorbox <- conv4_3_norm_mbox_priorbox
I1205 15:31:44.844235 26649 net.cpp:434] mbox_priorbox <- fc7_mbox_priorbox
I1205 15:31:44.844241 26649 net.cpp:434] mbox_priorbox <- conv6_2_mbox_priorbox
I1205 15:31:44.844246 26649 net.cpp:434] mbox_priorbox <- conv7_2_mbox_priorbox
I1205 15:31:44.844250 26649 net.cpp:434] mbox_priorbox <- conv8_2_mbox_priorbox
I1205 15:31:44.844255 26649 net.cpp:434] mbox_priorbox <- conv9_2_mbox_priorbox
I1205 15:31:44.844282 26649 net.cpp:408] mbox_priorbox -> mbox_priorbox
I1205 15:31:44.844336 26649 net.cpp:150] Setting up mbox_priorbox
I1205 15:31:44.844343 26649 net.cpp:157] Top shape: 1 2 34928 (69856)
I1205 15:31:44.844347 26649 net.cpp:165] Memory required for data: 2005378368
I1205 15:31:44.844349 26649 layer_factory.hpp:77] Creating layer mbox_conf_reshape
I1205 15:31:44.844355 26649 net.cpp:100] Creating Layer mbox_conf_reshape
I1205 15:31:44.844358 26649 net.cpp:434] mbox_conf_reshape <- mbox_conf
I1205 15:31:44.844362 26649 net.cpp:408] mbox_conf_reshape -> mbox_conf_reshape
I1205 15:31:44.844404 26649 net.cpp:150] Setting up mbox_conf_reshape
I1205 15:31:44.844409 26649 net.cpp:157] Top shape: 8 8732 21 (1466976)
I1205 15:31:44.844411 26649 net.cpp:165] Memory required for data: 2011246272
I1205 15:31:44.844414 26649 layer_factory.hpp:77] Creating layer mbox_conf_softmax
I1205 15:31:44.844419 26649 net.cpp:100] Creating Layer mbox_conf_softmax
I1205 15:31:44.844424 26649 net.cpp:434] mbox_conf_softmax <- mbox_conf_reshape
I1205 15:31:44.844429 26649 net.cpp:408] mbox_conf_softmax -> mbox_conf_softmax
I1205 15:31:44.844821 26649 net.cpp:150] Setting up mbox_conf_softmax
I1205 15:31:44.844830 26649 net.cpp:157] Top shape: 8 8732 21 (1466976)
I1205 15:31:44.844832 26649 net.cpp:165] Memory required for data: 2017114176
I1205 15:31:44.844835 26649 layer_factory.hpp:77] Creating layer mbox_conf_flatten
I1205 15:31:44.844841 26649 net.cpp:100] Creating Layer mbox_conf_flatten
I1205 15:31:44.844843 26649 net.cpp:434] mbox_conf_flatten <- mbox_conf_softmax
I1205 15:31:44.844848 26649 net.cpp:408] mbox_conf_flatten -> mbox_conf_flatten
I1205 15:31:44.844876 26649 net.cpp:150] Setting up mbox_conf_flatten
I1205 15:31:44.844879 26649 net.cpp:157] Top shape: 8 183372 (1466976)
I1205 15:31:44.844882 26649 net.cpp:165] Memory required for data: 2022982080
I1205 15:31:44.844884 26649 layer_factory.hpp:77] Creating layer detection_out
I1205 15:31:44.844897 26649 net.cpp:100] Creating Layer detection_out
I1205 15:31:44.844902 26649 net.cpp:434] detection_out <- mbox_loc
I1205 15:31:44.844905 26649 net.cpp:434] detection_out <- mbox_conf_flatten
I1205 15:31:44.844908 26649 net.cpp:434] detection_out <- mbox_priorbox
I1205 15:31:44.844913 26649 net.cpp:408] detection_out -> detection_out
I1205 15:31:44.849112 26649 net.cpp:150] Setting up detection_out
I1205 15:31:44.849124 26649 net.cpp:157] Top shape: 1 1 1 7 (7)
I1205 15:31:44.849128 26649 net.cpp:165] Memory required for data: 2022982108
I1205 15:31:44.849131 26649 layer_factory.hpp:77] Creating layer detection_eval
I1205 15:31:44.849138 26649 net.cpp:100] Creating Layer detection_eval
I1205 15:31:44.849140 26649 net.cpp:434] detection_eval <- detection_out
I1205 15:31:44.849144 26649 net.cpp:434] detection_eval <- label
I1205 15:31:44.849148 26649 net.cpp:408] detection_eval -> detection_eval
I1205 15:31:44.849974 26649 net.cpp:150] Setting up detection_eval
I1205 15:31:44.849980 26649 net.cpp:157] Top shape: 1 1 21 5 (105)
I1205 15:31:44.849982 26649 net.cpp:165] Memory required for data: 2022982528
I1205 15:31:44.849985 26649 net.cpp:228] detection_eval does not need backward computation.
I1205 15:31:44.849988 26649 net.cpp:228] detection_out does not need backward computation.
I1205 15:31:44.849992 26649 net.cpp:228] mbox_conf_flatten does not need backward computation.
I1205 15:31:44.849994 26649 net.cpp:228] mbox_conf_softmax does not need backward computation.
…
