…
      sampler {
        min_scale: 0.3
        max_scale: 1
        min_aspect_ratio: 0.5
        max_aspect_ratio: 2
      }
      sample_constraint {
        min_jaccard_overlap: 0.9
      }
      max_sample: 1
      max_trials: 50
    }
    batch_sampler {
      sampler {
        min_scale: 0.3
        max_scale: 1
        min_aspect_ratio: 0.5
        max_aspect_ratio: 2
      }
      sample_constraint {
        max_jaccard_overlap: 1
      }
      max_sample: 1
      max_trials: 50
    }
    label_map_file: "data/GTSDB/labelmap_voc.prototxt"
  }
}
layer {
  name: "conv1_1"
  type: "Convolution"
  bottom: "data"
  top: "conv1_1"
  param {
    lr_mult: 1
    decay_mult: 1
  }
  param {
    lr_mult: 2
    decay_mult: 0
  }
  convolution_param {
    num_output: 64
    pad: 1
    kernel_size: 3
    weight_filler {
      type: "xavier"
    }
    bias_filler {
      type: "constant"
      value: 0
    }
  }
}
layer {
  name: "relu1_1"
  type: "ReLU"
  bottom: "conv1_1"
  top: "conv1_1"
}
layer {
  name: "conv1_2"
  type: "Convolution"
  bottom: "conv1_1"
  top: "conv1_2"
  param {
    lr_mult: 1
    decay_mult: 1
  }
  param {
    lr_mult: 2
    decay_mult: 0
  }
  convolution_param {
    num_output: 64
    pad: 1
    kernel_size: 3
    weight_filler {
      type: "xavier"
    }
    bias_filler {
      type: "constant"
      value: 0
    }
  }
}
layer {
  name: "relu1_2"
  type: "ReLU"
  bottom: "conv1_2"
  top: "conv1_2"
}
layer {
  name: "pool1"
  type: "Pooling"
  bottom: "conv1_2"
  top: "pool1"
  pooling_param {
    pool: MAX
    kernel_size: 2
    stride: 2
  }
}
layer {
  name: "conv2_1"
  type: "Convolution"
  bottom: "pool1"
  top: "conv2_1"
  param {
    lr_mult: 1
    decay_mult: 1
  }
  param {
    lr_mult: 2
    decay_mult: 0
  }
  convolution_param {
    num_output: 128
    pad: 1
    kernel_size: 3
    weight_filler {
      type: "xavier"
    }
    bias_filler {
      type: "constant"
      value: 0
    }
  }
}
layer {
  name: "relu2_1"
  type: "ReLU"
  bottom: "conv2_1"
  top: "conv2_1"
}
layer {
  name: "conv2_2"
  type: "Convolution"
  bottom: "conv2_1"
  top: "conv2_2"
  param {
    lr_mult: 1
    decay_mult: 1
  }
  param {
    lr_mult: 2
    decay_mult: 0
  }
  convolution_param {
    num_output: 128
    pad: 1
    kernel_size: 3
    weight_filler {
      type: "xavier"
    }
    bias_filler {
      type: "constant"
      value: 0
    }
  }
}
layer {
  name: "relu2_2"
  type: "ReLU"
  bottom: "conv2_2"
  top: "conv2_2"
}
layer {
  name: "pool2"
  type: "Pooling"
  bottom: "conv2_2"
  top: "pool2"
  pooling_param {
    pool: MAX
    kernel_size: 2
    stride: 2
  }
}
layer {
  name: "conv3_1"
  type: "Convolution"
  bottom: "pool2"
  top: "conv3_1"
  param {
    lr_mult: 1
    decay_mult: 1
  }
  param {
    lr_mult: 2
    decay_mult: 0
  }
  convolution_param {
    num_output: 256
    pad: 1
    kernel_size: 3
    weight_filler {
      type: "xavier"
    }
    bias_filler {
      type: "constant"
      value: 0
    }
  }
}
layer {
  name: "relu3_1"
  type: "ReLU"
  bottom: "conv3_1"
  top: "conv3_1"
}
layer {
  name: "conv3_2"
  type: "Convolution"
  bottom: "conv3_1"
  top: "conv3_2"
  param {
    lr_mult: 1
    decay_mult: 1
  }
  param {
    lr_mult: 2
    decay_mult: 0
  }
  convolution_param {
    num_output: 256
    pad: 1
    kernel_size: 3
    weight_filler {
      type: "xavier"
    }
    bias_filler {
      type: "constant"
      value: 0
    }
  }
}
layer {
  name: "relu3_2"
  type: "ReLU"
  bottom: "conv3_2"
  top: "conv3_2"
}
layer {
  name: "conv3_3"
  type: "Convolution"
  bottom: "conv3_2"
  top: "conv3_3"
  param {
    lr_mult: 1
    decay_mult: 1
  }
  param {
    lr_mult: 2
    decay_mult: 0
  }
  convolution_param {
    num_output: 256
    pad: 1
    kernel_size: 3
    weight_filler {
      type: "xavier"
    }
    bias_filler {
      type: "constant"
      value: 0
    }
  }
}
layer {
  name: "relu3_3"
  type: "ReLU"
  bottom: "conv3_3"
  top: "conv3_3"
}
layer {
  name: "pool3"
  type: "Pooling"
  bottom: "conv3_3"
  top: "pool3"
  pooling_param {
    pool: MAX
    kernel_size: 2
    stride: 2
  }
}
layer {
  name: "conv4_1"
  type: "Convolution"
  bottom: "pool3"
  top: "conv4_1"
  param {
    lr_mult: 1
    decay_mult: 1
  }
  param {
    lr_mult: 2
    decay_mult: 0
  }
  convolution_param {
    num_output: 512
    pad: 1
    kernel_size: 3
    weight_filler {
      type: "xavier"
    }
    bias_filler {
      type: "constant"
      value: 0
    }
  }
}
layer {
  name: "relu4_1"
  type: "ReLU"
  bottom: "conv4_1"
  top: "conv4_1"
}
layer {
  name: "conv4_2"
  type: "Convolution"
  bottom: "conv4_1"
  top: "conv4_2"
  param {
    lr_mult: 1
    decay_mult: 1
  }
  param {
    lr_mult: 2
    decay_mult: 0
  }
  convolution_param {
    num_output: 512
    pad: 1
    kernel_size: 3
    weight_filler {
      type: "xavier"
    }
    bias_filler {
      type: "constant"
      value: 0
    }
  }
}
layer {
  name: "relu4_2"
  type: "ReLU"
  bottom: "conv4_2"
  top: "conv4_2"
}
layer {
  name: "conv4_3"
  type: "Convolution"
  bottom: "conv4_2"
  top: "conv4_3"
  param {
    lr_mult: 1
    decay_mult: 1
  }
  param {
    lr_mult: 2
    decay_mult: 0
  }
  convolution_param {
    num_output: 512
    pad: 1
    kernel_size: 3
    weight_filler {
      type: "xavier"
    }
    bias_filler {
      type: "constant"
      value: 0
    }
  }
}
layer {
  name: "relu4_3"
  type: "ReLU"
  bottom: "conv4_3"
  top: "conv4_3"
}
layer {
  name: "pool4"
  type: "Pooling"
  bottom: "conv4_3"
  top: "pool4"
  pooling_param {
    pool: MAX
    kernel_size: 2
    stride: 2
  }
}
layer {
  name: "conv5_1"
  type: "Convolution"
  bottom: "pool4"
  top: "conv5_1"
  param {
    lr_mult: 1
    decay_mult: 1
  }
  param {
    lr_mult: 2
    decay_mult: 0
  }
  convolution_param {
    num_output: 512
    pad: 1
    kernel_size: 3
    weight_filler {
      type: "xavier"
    }
    bias_filler {
      type: "constant"
      value: 0
    }
    dilation: 1
  }
}
layer {
  name: "relu5_1"
  type: "ReLU"
  bottom: "conv5_1"
  top: "conv5_1"
}
layer {
  name: "conv5_2"
  type: "Convolution"
  bottom: "conv5_1"
  top: "conv5_2"
  param {
    lr_mult: 1
    decay_mult: 1
  }
  param {
    lr_mult: 2
    decay_mult: 0
  }
  convolution_param {
    num_output: 512
    pad: 1
    kernel_size: 3
    weight_filler {
      type: "xavier"
    }
    bias_filler {
      type: "constant"
      value: 0
    }
    dilation: 1
  }
}
layer {
  name: "relu5_2"
  type: "ReLU"
  bottom: "conv5_2"
  top: "conv5_2"
}
layer {
  name: "conv5_3"
  type: "Convolution"
  bottom: "conv5_2"
  top: "conv5_3"
  param {
    lr_mult: 1
    decay_mult: 1
  }
  param {
    lr_mult: 2
    decay_mult: 0
  }
  convolution_param {
    num_output: 512
    pad: 1
    kernel_size: 3
    weight_filler {
      type: "xavier"
    }
    bias_filler {
      type: "constant"
      value: 0
    }
    dilation: 1
  }
}
layer {
  name: "relu5_3"
  type: "ReLU"
  bottom: "conv5_3"
  top: "conv5_3"
}
layer {
  name: "pool5"
  type: "Pooling"
  bottom: "conv5_3"
  top: "pool5"
  pooling_param {
    pool: MAX
    kernel_size: 3
    stride: 1
    pad: 1
  }
}
layer {
  name: "fc6"
  type: "Convolution"
  bottom: "pool5"
  top: "fc6"
  param {
    lr_mult: 1
    decay_mult: 1
  }
  param {
    lr_mult: 2
    decay_mult: 0
  }
  convolution_param {
    num_output: 1024
    pad: 6
    kernel_size: 3
    weight_filler {
      type: "xavier"
    }
    bias_filler {
      type: "constant"
      value: 0
    }
    dilation: 6
  }
}
layer {
  name: "relu6"
  type: "ReLU"
  bottom: "fc6"
  top: "fc6"
}
layer {
  name: "fc7"
  type: "Convolution"
  bottom: "fc6"
  top: "fc7"
  param {
    lr_mult: 1
    decay_mult: 1
  }
  param {
    lr_mult: 2
    decay_mult: 0
  }
  convolution_param {
    num_output: 1024
    kernel_size: 1
    weight_filler {
      type: "xavier"
    }
    bias_filler {
      type: "constant"
      value: 0
    }
  }
}
layer {
  name: "relu7"
  type: "ReLU"
  bottom: "fc7"
  top: "fc7"
}
layer {
  name: "conv6_1"
  type: "Convolution"
  bottom: "fc7"
  top: "conv6_1"
  param {
    lr_mult: 1
    decay_mult: 1
  }
  param {
    lr_mult: 2
    decay_mult: 0
  }
  convolution_param {
    num_output: 256
    pad: 0
    kernel_size: 1
    stride: 1
    weight_filler {
      type: "xavier"
    }
    bias_filler {
      type: "constant"
      value: 0
    }
  }
}
layer {
  name: "conv6_1_relu"
  type: "ReLU"
  bottom: "conv6_1"
  top: "conv6_1"
}
layer {
  name: "conv6_2"
  type: "Convolution"
  bottom: "conv6_1"
  top: "conv6_2"
  param {
    lr_mult: 1
    decay_mult: 1
  }
  param {
    lr_mult: 2
    decay_mult: 0
  }
  convolution_param {
    num_output: 512
    pad: 1
    kernel_size: 3
    stride: 2
    weight_filler {
      type: "xavier"
    }
    bias_filler {
      type: "constant"
      value: 0
    }
  }
}
layer {
  name: "conv6_2_relu"
  type: "ReLU"
  bottom: "conv6_2"
  top: "conv6_2"
}
layer {
  name: "conv7_1"
  type: "Convolution"
  bottom: "conv6_2"
  top: "conv7_1"
  param {
    lr_mult: 1
    decay_mult: 1
  }
  param {
    lr_mult: 2
    decay_mult: 0
  }
  convolution_param {
    num_output: 128
    pad: 0
    kernel_size: 1
    stride: 1
    weight_filler {
      type: "xavier"
    }
    bias_filler {
      type: "constant"
      value: 0
    }
  }
}
layer {
  name: "conv7_1_relu"
  type: "ReLU"
  bottom: "conv7_1"
  top: "conv7_1"
}
layer {
  name: "conv7_2"
  type: "Convolution"
  bottom: "conv7_1"
  top: "conv7_2"
  param {
    lr_mult: 1
    decay_mult: 1
  }
  param {
    lr_mult: 2
    decay_mult: 0
  }
  convolution_param {
    num_output: 256
    pad: 1
    kernel_size: 3
    stride: 2
    weight_filler {
      type: "xavier"
    }
    bias_filler {
      type: "constant"
      value: 0
    }
  }
}
layer {
  name: "conv7_2_relu"
  type: "ReLU"
  bottom: "conv7_2"
  top: "conv7_2"
}
layer {
  name: "conv8_1"
  type: "Convolution"
  bottom: "conv7_2"
  top: "conv8_1"
  param {
    lr_mult: 1
    decay_mult: 1
  }
  param {
    lr_mult: 2
    decay_mult: 0
  }
  convolution_param {
    num_output: 128
    pad: 0
    kernel_size: 1
    stride: 1
    weight_filler {
      type: "xavier"
    }
    bias_filler {
      type: "constant"
      value: 0
    }
  }
}
layer {
  name: "conv8_1_relu"
  type: "ReLU"
  bottom: "conv8_1"
  top: "conv8_1"
}
layer {
  name: "conv8_2"
  type: "Convolution"
  bottom: "conv8_1"
  top: "conv8_2"
  param {
    lr_mult: 1
    decay_mult: 1
  }
  param {
    lr_mult: 2
    decay_mult: 0
  }
  convolution_param {
    num_output: 256
    pad: 0
    kernel_size: 3
    stride: 1
    weight_filler {
      type: "xavier"
    }
    bias_filler {
      type: "constant"
      value: 0
    }
  }
}
layer {
  name: "conv8_2_relu"
  type: "ReLU"
  bottom: "conv8_2"
  top: "conv8_2"
}
layer {
  name: "conv9_1"
  type: "Convolution"
  bottom: "conv8_2"
  top: "conv9_1"
  param {
    lr_mult: 1
    decay_mult: 1
  }
  param {
    lr_mult: 2
    decay_mult: 0
  }
  convolution_param {
    num_output: 128
    pad: 0
    kernel_size: 1
    stride: 1
    weight_filler {
      type: "xavier"
    }
    bias_filler {
      type: "constant"
      value: 0
    }
  }
}
layer {
  name: "conv9_1_relu"
  type: "ReLU"
  bottom: "conv9_1"
  top: "conv9_1"
}
layer {
  name: "conv9_2"
  type: "Convolution"
  bottom: "conv9_1"
  top: "conv9_2"
  param {
    lr_mult: 1
    decay_mult: 1
  }
  param {
    lr_mult: 2
    decay_mult: 0
  }
  convolution_param {
    num_output: 256
    pad: 0
    kernel_size: 3
    stride: 1
    weight_filler {
      type: "xavier"
    }
    bias_filler {
      type: "constant"
      value: 0
    }
  }
}
layer {
  name: "conv9_2_relu"
  type: "ReLU"
  bottom: "conv9_2"
  top: "conv9_2"
}
layer {
  name: "conv4_3_norm"
  type: "Normalize"
  bottom: "conv4_3"
  top: "conv4_3_norm"
  norm_param {
    across_spatial: false
    scale_filler {
      type: "constant"
      value: 20
    }
    channel_shared: false
  }
}
layer {
  name: "conv4_3_norm_mbox_loc"
  type: "Convolution"
  bottom: "conv4_3_norm"
  top: "conv4_3_norm_mbox_loc"
  param {
    lr_mult: 1
    decay_mult: 1
  }
  param {
    lr_mult: 2
    decay_mult: 0
  }
  convolution_param {
    num_output: 12
    pad: 1
    kernel_size: 3
    stride: 1
    weight_filler {
      type: "xavier"
    }
    bias_filler {
      type: "constant"
      value: 0
    }
  }
}
layer {
  name: "conv4_3_norm_mbox_loc_perm"
  type: "Permute"
  bottom: "conv4_3_norm_mbox_loc"
  top: "conv4_3_norm_mbox_loc_perm"
  permute_param {
    order: 0
    order: 2
    order: 3
    order: 1
  }
}
layer {
  name: "conv4_3_norm_mbox_loc_flat"
  type: "Flatten"
  bottom: "conv4_3_norm_mbox_loc_perm"
  top: "conv4_3_norm_mbox_loc_flat"
  flatten_param {
    axis: 1
  }
}
layer {
  name: "conv4_3_norm_mbox_conf"
  type: "Convolution"
  bottom: "conv4_3_norm"
  top: "conv4_3_norm_mbox_conf"
  param {
    lr_mult: 1
    decay_mult: 1
  }
  param {
    lr_mult: 2
    decay_mult: 0
  }
  convolution_param {
    num_output: 6
    pad: 1
    kernel_size: 3
    stride: 1
    weight_filler {
      type: "xavier"
    }
    bias_filler {
      type: "constant"
      value: 0
    }
  }
}
layer {
  name: "conv4_3_norm_mbox_conf_perm"
  type: "Permute"
  bottom: "conv4_3_norm_mbox_conf"
  top: "conv4_3_norm_mbox_conf_perm"
  permute_param {
    order: 0
    order: 2
    order: 3
    order: 1
  }
}
layer {
  name: "conv4_3_norm_mbox_conf_flat"
  type: "Flatten"
  bottom: "conv4_3_norm_mbox_conf_perm"
  top: "conv4_3_norm_mbox_conf_flat"
  flatten_param {
    axis: 1
  }
}
layer {
  name: "conv4_3_norm_mbox_priorbox"
  type: "PriorBox"
  bottom: "conv4_3_norm"
  bottom: "data"
  top: "conv4_3_norm_mbox_priorbox"
  prior_box_param {
    min_size: 30
    max_size: 60
    aspect_ratio: 2
    flip: false
    clip: false
    variance: 0.1
    variance: 0.1
    variance: 0.2
    variance: 0.2
    step: 8
    offset: 0.5
  }
}
layer {
  name: "fc7_mbox_loc"
  type: "Convolution"
  bottom: "fc7"
  top: "fc7_mbox_loc"
  param {
    lr_mult: 1
    decay_mult: 1
  }
  param {
    lr_mult: 2
    decay_mult: 0
  }
  convolution_param {
    num_output: 16
    pad: 1
    kernel_size: 3
    stride: 1
    weight_filler {
      type: "xavier"
    }
    bias_filler {
      type: "constant"
      value: 0
    }
  }
}
layer {
  name: "fc7_mbox_loc_perm"
  type: "Permute"
  bottom: "fc7_mbox_loc"
  top: "fc7_mbox_loc_perm"
  permute_param {
    order: 0
    order: 2
    order: 3
    order: 1
  }
}
layer {
  name: "fc7_mbox_loc_flat"
  type: "Flatten"
  bottom: "fc7_mbox_loc_perm"
  top: "fc7_mbox_loc_flat"
  flatten_param {
    axis: 1
  }
}
layer {
  name: "fc7_mbox_conf"
  type: "Convolution"
  bottom: "fc7"
  top: "fc7_mbox_conf"
  param {
    lr_mult: 1
    decay_mult: 1
  }
  param {
    lr_mult: 2
    decay_mult: 0
  }
  convolution_param {
    num_output: 8
    pad: 1
    kernel_size: 3
    stride: 1
    weight_filler {
      type: "xavier"
    }
    bias_filler {
      type: "constant"
      value: 0
    }
  }
}
layer {
  name: "fc7_mbox_conf_perm"
  type: "Permute"
  bottom: "fc7_mbox_conf"
  top: "fc7_mbox_conf_perm"
  permute_param {
    order: 0
    order: 2
    order: 3
    order: 1
  }
}
layer {
  name: "fc7_mbox_conf_flat"
  type: "Flatten"
  bottom: "fc7_mbox_conf_perm"
  top: "fc7_mbox_conf_flat"
  flatten_param {
    axis: 1
  }
}
layer {
  name: "fc7_mbox_priorbox"
  type: "PriorBox"
  bottom: "fc7"
  bottom: "data"
  top: "fc7_mbox_priorbox"
  prior_box_param {
    min_size: 60
    max_size: 111
    aspect_ratio: 2
    aspect_ratio: 3
    flip: false
    clip: false
    variance: 0.1
    variance: 0.1
    variance: 0.2
    variance: 0.2
    step: 16
    offset: 0.5
  }
}
layer {
  name: "conv6_2_mbox_loc"
  type: "Convolution"
  bottom: "conv6_2"
  top: "conv6_2_mbox_loc"
  param {
    lr_mult: 1
    decay_mult: 1
  }
  param {
    lr_mult: 2
    decay_mult: 0
  }
  convolution_param {
    num_output: 16
    pad: 1
    kernel_size: 3
    stride: 1
    weight_filler {
      type: "xavier"
    }
    bias_filler {
      type: "constant"
      value: 0
    }
  }
}
layer {
  name: "conv6_2_mbox_loc_perm"
  type: "Permute"
  bottom: "conv6_2_mbox_loc"
  top: "conv6_2_mbox_loc_perm"
  permute_param {
    order: 0
    order: 2
    order: 3
    order: 1
  }
}
layer {
  name: "conv6_2_mbox_loc_flat"
  type: "Flatten"
  bottom: "conv6_2_mbox_loc_perm"
  top: "conv6_2_mbox_loc_flat"
  flatten_param {
    axis: 1
  }
}
layer {
  name: "conv6_2_mbox_conf"
  type: "Convolution"
  bottom: "conv6_2"
  top: "conv6_2_mbox_conf"
  param {
    lr_mult: 1
    decay_mult: 1
  }
  param {
    lr_mult: 2
    decay_mult: 0
  }
  convolution_param {
    num_output: 8
    pad: 1
    kernel_size: 3
    stride: 1
    weight_filler {
      type: "xavier"
    }
    bias_filler {
      type: "constant"
      value: 0
    }
  }
}
layer {
  name: "conv6_2_mbox_conf_perm"
  type: "Permute"
  bottom: "conv6_2_mbox_conf"
  top: "conv6_2_mbox_conf_perm"
  permute_param {
    order: 0
    order: 2
    order: 3
    order: 1
  }
}
layer {
  name: "conv6_2_mbox_conf_flat"
  type: "Flatten"
  bottom: "conv6_2_mbox_conf_perm"
  top: "conv6_2_mbox_conf_flat"
  flatten_param {
    axis: 1
  }
}
layer {
  name: "conv6_2_mbox_priorbox"
  type: "PriorBox"
  bottom: "conv6_2"
  bottom: "data"
  top: "conv6_2_mbox_priorbox"
  prior_box_param {
    min_size: 111
    max_size: 162
    aspect_ratio: 2
    aspect_ratio: 3
    flip: false
    clip: false
    variance: 0.1
    variance: 0.1
    variance: 0.2
    variance: 0.2
    step: 32
    offset: 0.5
  }
}
layer {
  name: "conv7_2_mbox_loc"
  type: "Convolution"
  bottom: "conv7_2"
  top: "conv7_2_mbox_loc"
  param {
    lr_mult: 1
    decay_mult: 1
  }
  param {
    lr_mult: 2
    decay_mult: 0
  }
  convolution_param {
    num_output: 16
    pad: 1
    kernel_size: 3
    stride: 1
    weight_filler {
      type: "xavier"
    }
    bias_filler {
      type: "constant"
      value: 0
    }
  }
}
layer {
  name: "conv7_2_mbox_loc_perm"
  type: "Permute"
  bottom: "conv7_2_mbox_loc"
  top: "conv7_2_mbox_loc_perm"
  permute_param {
    order: 0
    order: 2
    order: 3
    order: 1
  }
}
layer {
  name: "conv7_2_mbox_loc_flat"
  type: "Flatten"
  bottom: "conv7_2_mbox_loc_perm"
  top: "conv7_2_mbox_loc_flat"
  flatten_param {
    axis: 1
  }
}
layer {
  name: "conv7_2_mbox_conf"
  type: "Convolution"
  bottom: "conv7_2"
  top: "conv7_2_mbox_conf"
  param {
    lr_mult: 1
    decay_mult: 1
  }
  param {
    lr_mult: 2
    decay_mult: 0
  }
  convolution_param {
    num_output: 8
    pad: 1
    kernel_size: 3
    stride: 1
    weight_filler {
      type: "xavier"
    }
    bias_filler {
      type: "constant"
      value: 0
    }
  }
}
layer {
  name: "conv7_2_mbox_conf_perm"
  type: "Permute"
  bottom: "conv7_2_mbox_conf"
  top: "conv7_2_mbox_conf_perm"
  permute_param {
    order: 0
    order: 2
    order: 3
    order: 1
  }
}
layer {
  name: "conv7_2_mbox_conf_flat"
  type: "Flatten"
  bottom: "conv7_2_mbox_conf_perm"
  top: "conv7_2_mbox_conf_flat"
  flatten_param {
    axis: 1
  }
}
layer {
  name: "conv7_2_mbox_priorbox"
  type: "PriorBox"
  bottom: "conv7_2"
  bottom: "data"
  top: "conv7_2_mbox_priorbox"
  prior_box_param {
    min_size: 162
    max_size: 213
    aspect_ratio: 2
    aspect_ratio: 3
    flip: false
    clip: false
    variance: 0.1
    variance: 0.1
    variance: 0.2
    variance: 0.2
    step: 64
    offset: 0.5
  }
}
layer {
  name: "conv8_2_mbox_loc"
  type: "Convolution"
  bottom: "conv8_2"
  top: "conv8_2_mbox_loc"
  param {
    lr_mult: 1
    decay_mult: 1
  }
  param {
    lr_mult: 2
    decay_mult: 0
  }
  convolution_param {
    num_output: 12
    pad: 1
    kernel_size: 3
    stride: 1
    weight_filler {
      type: "xavier"
    }
    bias_filler {
      type: "constant"
      value: 0
    }
  }
}
layer {
  name: "conv8_2_mbox_loc_perm"
  type: "Permute"
  bottom: "conv8_2_mbox_loc"
  top: "conv8_2_mbox_loc_perm"
  permute_param {
    order: 0
    order: 2
    order: 3
    order: 1
  }
}
layer {
  name: "conv8_2_mbox_loc_flat"
  type: "Flatten"
  bottom: "conv8_2_mbox_loc_perm"
  top: "conv8_2_mbox_loc_flat"
  flatten_param {
    axis: 1
  }
}
layer {
  name: "conv8_2_mbox_conf"
  type: "Convolution"
  bottom: "conv8_2"
  top: "conv8_2_mbox_conf"
  param {
    lr_mult: 1
    decay_mult: 1
  }
  param {
    lr_mult: 2
    decay_mult: 0
  }
  convolution_param {
    num_output: 6
    pad: 1
    kernel_size: 3
    stride: 1
    weight_filler {
      type: "xavier"
    }
    bias_filler {
      type: "constant"
      value: 0
    }
  }
}
layer {
  name: "conv8_2_mbox_conf_perm"
  type: "Permute"
  bottom: "conv8_2_mbox_conf"
  top: "conv8_2_mbox_conf_perm"
  permute_param {
    order: 0
    order: 2
    order: 3
    order: 1
  }
}
layer {
  name: "conv8_2_mbox_conf_flat"
  type: "Flatten"
  bottom: "conv8_2_mbox_conf_perm"
  top: "conv8_2_mbox_conf_flat"
  flatten_param {
    axis: 1
  }
}
layer {
  name: "conv8_2_mbox_priorbox"
  type: "PriorBox"
  bottom: "conv8_2"
  bottom: "data"
  top: "conv8_2_mbox_priorbox"
  prior_box_param {
    min_size: 213
    max_size: 264
    aspect_ratio: 2
    flip: false
    clip: false
    variance: 0.1
    variance: 0.1
    variance: 0.2
    variance: 0.2
    step: 100
    offset: 0.5
  }
}
layer {
  name: "conv9_2_mbox_loc"
  type: "Convolution"
  bottom: "conv9_2"
  top: "conv9_2_mbox_loc"
  param {
    lr_mult: 1
    decay_mult: 1
  }
  param {
    lr_mult: 2
    decay_mult: 0
  }
  convolution_param {
    num_output: 12
    pad: 1
    kernel_size: 3
    stride: 1
    weight_filler {
      type: "xavier"
    }
    bias_filler {
      type: "constant"
      value: 0
    }
  }
}
layer {
  name: "conv9_2_mbox_loc_perm"
  type: "Permute"
  bottom: "conv9_2_mbox_loc"
  top: "conv9_2_mbox_loc_perm"
  permute_param {
    order: 0
    order: 2
    order: 3
    order: 1
  }
}
layer {
  name: "conv9_2_mbox_loc_flat"
  type: "Flatten"
  bottom: "conv9_2_mbox_loc_perm"
  top: "conv9_2_mbox_loc_flat"
  flatten_param {
    axis: 1
  }
}
layer {
  name: "conv9_2_mbox_conf"
  type: "Convolution"
  bottom: "conv9_2"
  top: "conv9_2_mbox_conf"
  param {
    lr_mult: 1
    decay_mult: 1
  }
  param {
    lr_mult: 2
    decay_mult: 0
  }
  convolution_param {
    num_output: 6
    pad: 1
    kernel_size: 3
    stride: 1
    weight_filler {
      type: "xavier"
    }
    bias_filler {
      type: "constant"
      value: 0
    }
  }
}
layer {
  name: "conv9_2_mbox_conf_perm"
  type: "Permute"
  bottom: "conv9_2_mbox_conf"
  top: "conv9_2_mbox_conf_perm"
  permute_param {
    order: 0
    order: 2
    order: 3
    order: 1
  }
}
layer {
  name: "conv9_2_mbox_conf_flat"
  type: "Flatten"
  bottom: "conv9_2_mbox_conf_perm"
  top: "conv9_2_mbox_conf_flat"
  flatten_param {
    axis: 1
  }
}
layer {
  name: "conv9_2_mbox_priorbox"
  type: "PriorBox"
  bottom: "conv9_2"
  bottom: "data"
  top: "conv9_2_mbox_priorbox"
  prior_box_param {
    min_size: 264
    max_size: 315
    aspect_ratio: 2
    flip: false
    clip: false
    variance: 0.1
    variance: 0.1
    variance: 0.2
    variance: 0.2
    step: 300
    offset: 0.5
  }
}
layer {
  name: "mbox_loc"
  type: "Concat"
  bottom: "conv4_3_norm_mbox_loc_flat"
  bottom: "fc7_mbox_loc_flat"
  bottom: "conv6_2_mbox_loc_flat"
  bottom: "conv7_2_mbox_loc_flat"
  bottom: "conv8_2_mbox_loc_flat"
  bottom: "conv9_2_mbox_loc_flat"
  top: "mbox_loc"
  concat_param {
    axis: 1
  }
}
layer {
  name: "mbox_conf"
  type: "Concat"
  bottom: "conv4_3_norm_mbox_conf_flat"
  bottom: "fc7_mbox_conf_flat"
  bottom: "conv6_2_mbox_conf_flat"
  bottom: "conv7_2_mbox_conf_flat"
  bottom: "conv8_2_mbox_conf_flat"
  bottom: "conv9_2_mbox_conf_flat"
  top: "mbox_conf"
  concat_param {
    axis: 1
  }
}
layer {
  name: "mbox_priorbox"
  type: "Concat"
  bottom: "conv4_3_norm_mbox_priorbox"
  bottom: "fc7_mbox_priorbox"
  bottom: "conv6_2_mbox_priorbox"
  bottom: "conv7_2_mbox_priorbox"
  bottom: "conv8_2_mbox_priorbox"
  bottom: "conv9_2_mbox_priorbox"
  top: "mbox_priorbox"
  concat_param {
    axis: 2
  }
}
layer {
  name: "mbox_loss"
  type: "MultiBoxLoss"
  bottom: "mbox_loc"
  bottom: "mbox_conf"
  bottom: "mbox_priorbox"
  bottom: "label"
  top: "mbox_loss"
  include {
    phase: TRAIN
  }
  propagate_down: true
  propagate_down: true
  propagate_down: false
  propagate_down: false
  loss_param {
    normalization: VALID
  }
  multibox_loss_param {
    loc_loss_type: SMOOTH_L1
    conf_loss_type: SOFTMAX
    loc_weight: 1
    num_classes: 2
    share_location: true
    match_type: PER_PREDICTION
    overlap_threshold: 0.5
    use_prior_for_matching: true
    background_label_id: 0
    use_difficult_gt: true
    neg_pos_ratio: 3
    neg_overlap: 0.5
    code_type: CENTER_SIZE
    ignore_cross_boundary_bbox: false
    mining_type: MAX_NEGATIVE
  }
}
I1206 23:48:17.771080 14420 layer_factory.hpp:77] Creating layer data
I1206 23:48:17.771476 14420 net.cpp:100] Creating Layer data
I1206 23:48:17.771498 14420 net.cpp:408] data -> data
I1206 23:48:17.771525 14420 net.cpp:408] data -> label
I1206 23:48:17.772240 14426 db_lmdb.cpp:35] Opened lmdb examples/GTSDB/GTSDB_trainval_lmdb
I1206 23:48:18.114480 14420 annotated_data_layer.cpp:62] output data size: 1,3,300,300
I1206 23:48:18.116123 14420 net.cpp:150] Setting up data
I1206 23:48:18.116179 14420 net.cpp:157] Top shape: 1 3 300 300 (270000)
I1206 23:48:18.116185 14420 net.cpp:157] Top shape: 1 1 3 8 (24)
I1206 23:48:18.116189 14420 net.cpp:165] Memory required for data: 1080096
I1206 23:48:18.116241 14420 layer_factory.hpp:77] Creating layer data_data_0_split
I1206 23:48:18.116261 14420 net.cpp:100] Creating Layer data_data_0_split
I1206 23:48:18.116271 14420 net.cpp:434] data_data_0_split <- data
I1206 23:48:18.116284 14420 net.cpp:408] data_data_0_split -> data_data_0_split_0
I1206 23:48:18.116312 14420 net.cpp:408] data_data_0_split -> data_data_0_split_1
I1206 23:48:18.116320 14420 net.cpp:408] data_data_0_split -> data_data_0_split_2
I1206 23:48:18.116329 14420 net.cpp:408] data_data_0_split -> data_data_0_split_3
I1206 23:48:18.116336 14420 net.cpp:408] data_data_0_split -> data_data_0_split_4
I1206 23:48:18.116345 14420 net.cpp:408] data_data_0_split -> data_data_0_split_5
I1206 23:48:18.116354 14420 net.cpp:408] data_data_0_split -> data_data_0_split_6
I1206 23:48:18.116423 14420 net.cpp:150] Setting up data_data_0_split
I1206 23:48:18.116432 14420 net.cpp:157] Top shape: 1 3 300 300 (270000)
I1206 23:48:18.116438 14420 net.cpp:157] Top shape: 1 3 300 300 (270000)
I1206 23:48:18.116444 14420 net.cpp:157] Top shape: 1 3 300 300 (270000)
I1206 23:48:18.116449 14420 net.cpp:157] Top shape: 1 3 300 300 (270000)
I1206 23:48:18.116456 14420 net.cpp:157] Top shape: 1 3 300 300 (270000)
I1206 23:48:18.116461 14420 net.cpp:157] Top shape: 1 3 300 300 (270000)
I1206 23:48:18.116467 14420 net.cpp:157] Top shape: 1 3 300 300 (270000)
I1206 23:48:18.116472 14420 net.cpp:165] Memory required for data: 8640096
I1206 23:48:18.116477 14420 layer_factory.hpp:77] Creating layer conv1_1
I1206 23:48:18.116492 14420 net.cpp:100] Creating Layer conv1_1
I1206 23:48:18.116498 14420 net.cpp:434] conv1_1 <- data_data_0_split_0
I1206 23:48:18.116505 14420 net.cpp:408] conv1_1 -> conv1_1
I1206 23:48:18.765313 14420 net.cpp:150] Setting up conv1_1
I1206 23:48:18.765341 14420 net.cpp:157] Top shape: 1 64 300 300 (5760000)
I1206 23:48:18.765347 14420 net.cpp:165] Memory required for data: 31680096
I1206 23:48:18.765365 14420 layer_factory.hpp:77] Creating layer relu1_1
I1206 23:48:18.765380 14420 net.cpp:100] Creating Layer relu1_1
I1206 23:48:18.765388 14420 net.cpp:434] relu1_1 <- conv1_1
I1206 23:48:18.765403 14420 net.cpp:395] relu1_1 -> conv1_1 (in-place)
I1206 23:48:18.765563 14420 net.cpp:150] Setting up relu1_1
I1206 23:48:18.765573 14420 net.cpp:157] Top shape: 1 64 300 300 (5760000)
I1206 23:48:18.765578 14420 net.cpp:165] Memory required for data: 54720096
I1206 23:48:18.765583 14420 layer_factory.hpp:77] Creating layer conv1_2
I1206 23:48:18.765599 14420 net.cpp:100] Creating Layer conv1_2
I1206 23:48:18.765605 14420 net.cpp:434] conv1_2 <- conv1_1
I1206 23:48:18.765614 14420 net.cpp:408] conv1_2 -> conv1_2
I1206 23:48:18.767006 14420 net.cpp:150] Setting up conv1_2
I1206 23:48:18.767019 14420 net.cpp:157] Top shape: 1 64 300 300 (5760000)
I1206 23:48:18.767024 14420 net.cpp:165] Memory required for data: 77760096
I1206 23:48:18.767035 14420 layer_factory.hpp:77] Creating layer relu1_2
I1206 23:48:18.767062 14420 net.cpp:100] Creating Layer relu1_2
I1206 23:48:18.767071 14420 net.cpp:434] relu1_2 <- conv1_2
I1206 23:48:18.767079 14420 net.cpp:395] relu1_2 -> conv1_2 (in-place)
I1206 23:48:18.767323 14420 net.cpp:150] Setting up relu1_2
I1206 23:48:18.767333 14420 net.cpp:157] Top shape: 1 64 300 300 (5760000)
I1206 23:48:18.767338 14420 net.cpp:165] Memory required for data: 100800096
I1206 23:48:18.767343 14420 layer_factory.hpp:77] Creating layer pool1
I1206 23:48:18.767369 14420 net.cpp:100] Creating Layer pool1
I1206 23:48:18.767374 14420 net.cpp:434] pool1 <- conv1_2
I1206 23:48:18.767381 14420 net.cpp:408] pool1 -> pool1
I1206 23:48:18.767457 14420 net.cpp:150] Setting up pool1
I1206 23:48:18.767464 14420 net.cpp:157] Top shape: 1 64 150 150 (1440000)
I1206 23:48:18.767469 14420 net.cpp:165] Memory required for data: 106560096
I1206 23:48:18.767473 14420 layer_factory.hpp:77] Creating layer conv2_1
I1206 23:48:18.767503 14420 net.cpp:100] Creating Layer conv2_1
I1206 23:48:18.767508 14420 net.cpp:434] conv2_1 <- pool1
I1206 23:48:18.767516 14420 net.cpp:408] conv2_1 -> conv2_1
I1206 23:48:18.768669 14420 net.cpp:150] Setting up conv2_1
I1206 23:48:18.768681 14420 net.cpp:157] Top shape: 1 128 150 150 (2880000)
I1206 23:48:18.768685 14420 net.cpp:165] Memory required for data: 118080096
I1206 23:48:18.768697 14420 layer_factory.hpp:77] Creating layer relu2_1
I1206 23:48:18.768723 14420 net.cpp:100] Creating Layer relu2_1
I1206 23:48:18.768729 14420 net.cpp:434] relu2_1 <- conv2_1
I1206 23:48:18.768736 14420 net.cpp:395] relu2_1 -> conv2_1 (in-place)
I1206 23:48:18.769006 14420 net.cpp:150] Setting up relu2_1
I1206 23:48:18.769016 14420 net.cpp:157] Top shape: 1 128 150 150 (2880000)
I1206 23:48:18.769021 14420 net.cpp:165] Memory required for data: 129600096
I1206 23:48:18.769026 14420 layer_factory.hpp:77] Creating layer conv2_2
I1206 23:48:18.769054 14420 net.cpp:100] Creating Layer conv2_2
I1206 23:48:18.769059 14420 net.cpp:434] conv2_2 <- conv2_1
I1206 23:48:18.769068 14420 net.cpp:408] conv2_2 -> conv2_2
I1206 23:48:18.770880 14420 net.cpp:150] Setting up conv2_2
I1206 23:48:18.770892 14420 net.cpp:157] Top shape: 1 128 150 150 (2880000)
I1206 23:48:18.770897 14420 net.cpp:165] Memory required for data: 141120096
I1206 23:48:18.770906 14420 layer_factory.hpp:77] Creating layer relu2_2
I1206 23:48:18.770932 14420 net.cpp:100] Creating Layer relu2_2
I1206 23:48:18.770941 14420 net.cpp:434] relu2_2 <- conv2_2
I1206 23:48:18.770949 14420 net.cpp:395] relu2_2 -> conv2_2 (in-place)
I1206 23:48:18.771106 14420 net.cpp:150] Setting up relu2_2
I1206 23:48:18.771114 14420 net.cpp:157] Top shape: 1 128 150 150 (2880000)
I1206 23:48:18.771119 14420 net.cpp:165] Memory required for data: 152640096
I1206 23:48:18.771124 14420 layer_factory.hpp:77] Creating layer pool2
I1206 23:48:18.771149 14420 net.cpp:100] Creating Layer pool2
I1206 23:48:18.771154 14420 net.cpp:434] pool2 <- conv2_2
I1206 23:48:18.771160 14420 net.cpp:408] pool2 -> pool2
I1206 23:48:18.771212 14420 net.cpp:150] Setting up pool2
I1206 23:48:18.771219 14420 net.cpp:157] Top shape: 1 128 75 75 (720000)
I1206 23:48:18.771224 14420 net.cpp:165] Memory required for data: 155520096
I1206 23:48:18.771229 14420 layer_factory.hpp:77] Creating layer conv3_1
I1206 23:48:18.771237 14420 net.cpp:100] Creating Layer conv3_1
I1206 23:48:18.771244 14420 net.cpp:434] conv3_1 <- pool2
I1206 23:48:18.771250 14420 net.cpp:408] conv3_1 -> conv3_1
I1206 23:48:18.774117 14420 net.cpp:150] Setting up conv3_1
I1206 23:48:18.774128 14420 net.cpp:157] Top shape: 1 256 75 75 (1440000)
I1206 23:48:18.774133 14420 net.cpp:165] Memory required for data: 161280096
I1206 23:48:18.774145 14420 layer_factory.hpp:77] Creating layer relu3_1
I1206 23:48:18.774155 14420 net.cpp:100] Creating Layer relu3_1
I1206 23:48:18.774163 14420 net.cpp:434] relu3_1 <- conv3_1
I1206 23:48:18.774169 14420 net.cpp:395] relu3_1 -> conv3_1 (in-place)
I1206 23:48:18.774381 14420 net.cpp:150] Setting up relu3_1
I1206 23:48:18.774391 14420 net.cpp:157] Top shape: 1 256 75 75 (1440000)
I1206 23:48:18.774396 14420 net.cpp:165] Memory required for data: 167040096
I1206 23:48:18.774401 14420 layer_factory.hpp:77] Creating layer conv3_2
I1206 23:48:18.774411 14420 net.cpp:100] Creating Layer conv3_2
I1206 23:48:18.774417 14420 net.cpp:434] conv3_2 <- conv3_1
I1206 23:48:18.774425 14420 net.cpp:408] conv3_2 -> conv3_2
I1206 23:48:18.779072 14420 net.cpp:150] Setting up conv3_2
I1206 23:48:18.779093 14420 net.cpp:157] Top shape: 1 256 75 75 (1440000)
I1206 23:48:18.779098 14420 net.cpp:165] Memory required for data: 172800096
I1206 23:48:18.779108 14420 layer_factory.hpp:77] Creating layer relu3_2
I1206 23:48:18.779137 14420 net.cpp:100] Creating Layer relu3_2
I1206 23:48:18.779144 14420 net.cpp:434] relu3_2 <- conv3_2
I1206 23:48:18.779152 14420 net.cpp:395] relu3_2 -> conv3_2 (in-place)
I1206 23:48:18.779436 14420 net.cpp:150] Setting up relu3_2
I1206 23:48:18.779448 14420 net.cpp:157] Top shape: 1 256 75 75 (1440000)
I1206 23:48:18.779451 14420 net.cpp:165] Memory required for data: 178560096
I1206 23:48:18.779475 14420 layer_factory.hpp:77] Creating layer conv3_3
I1206 23:48:18.779490 14420 net.cpp:100] Creating Layer conv3_3
I1206 23:48:18.779506 14420 net.cpp:434] conv3_3 <- conv3_2
I1206 23:48:18.779531 14420 net.cpp:408] conv3_3 -> conv3_3
I1206 23:48:18.784023 14420 net.cpp:150] Setting up conv3_3
I1206 23:48:18.784036 14420 net.cpp:157] Top shape: 1 256 75 75 (1440000)
I1206 23:48:18.784041 14420 net.cpp:165] Memory required for data: 184320096
I1206 23:48:18.784050 14420 layer_factory.hpp:77] Creating layer relu3_3
I1206 23:48:18.784076 14420 net.cpp:100] Creating Layer relu3_3
I1206 23:48:18.784082 14420 net.cpp:434] relu3_3 <- conv3_3
I1206 23:48:18.784090 14420 net.cpp:395] relu3_3 -> conv3_3 (in-place)
I1206 23:48:18.784251 14420 net.cpp:150] Setting up relu3_3
I1206 23:48:18.784260 14420 net.cpp:157] Top shape: 1 256 75 75 (1440000)
I1206 23:48:18.784265 14420 net.cpp:165] Memory required for data: 190080096
I1206 23:48:18.784270 14420 layer_factory.hpp:77] Creating layer pool3
I1206 23:48:18.784296 14420 net.cpp:100] Creating Layer pool3
I1206 23:48:18.784301 14420 net.cpp:434] pool3 <- conv3_3
I1206 23:48:18.784320 14420 net.cpp:408] pool3 -> pool3
I1206 23:48:18.784359 14420 net.cpp:150] Setting up pool3
I1206 23:48:18.784368 14420 net.cpp:157] Top shape: 1 256 38 38 (369664)
I1206 23:48:18.784384 14420 net.cpp:165] Memory required for data: 191558752
I1206 23:48:18.784389 14420 layer_factory.hpp:77] Creating layer conv4_1
I1206 23:48:18.784416 14420 net.cpp:100] Creating Layer conv4_1
I1206 23:48:18.784423 14420 net.cpp:434] conv4_1 <- pool3
I1206 23:48:18.784431 14420 net.cpp:408] conv4_1 -> conv4_1
I1206 23:48:18.792824 14420 net.cpp:150] Setting up conv4_1
I1206 23:48:18.792861 14420 net.cpp:157] Top shape: 1 512 38 38 (739328)
I1206 23:48:18.792866 14420 net.cpp:165] Memory required for data: 194516064
I1206 23:48:18.792876 14420 layer_factory.hpp:77] Creating layer relu4_1
I1206 23:48:18.792886 14420 net.cpp:100] Creating Layer relu4_1
I1206 23:48:18.792894 14420 net.cpp:434] relu4_1 <- conv4_1
I1206 23:48:18.792902 14420 net.cpp:395] relu4_1 -> conv4_1 (in-place)
I1206 23:48:18.793200 14420 net.cpp:150] Setting up relu4_1
I1206 23:48:18.793210 14420 net.cpp:157] Top shape: 1 512 38 38 (739328)
I1206 23:48:18.793215 14420 net.cpp:165] Memory required for data: 197473376
I1206 23:48:18.793238 14420 layer_factory.hpp:77] Creating layer conv4_2
I1206 23:48:18.793251 14420 net.cpp:100] Creating Layer conv4_2
I1206 23:48:18.793270 14420 net.cpp:434] conv4_2 <- conv4_1
I1206 23:48:18.793278 14420 net.cpp:408] conv4_2 -> conv4_2
I1206 23:48:18.808642 14420 net.cpp:150] Setting up conv4_2
I1206 23:48:18.808666 14420 net.cpp:157] Top shape: 1 512 38 38 (739328)
I1206 23:48:18.808671 14420 net.cpp:165] Memory required for data: 200430688
I1206 23:48:18.808686 14420 layer_factory.hpp:77] Creating layer relu4_2
I1206 23:48:18.808715 14420 net.cpp:100] Creating Layer relu4_2
I1206 23:48:18.808722 14420 net.cpp:434] relu4_2 <- conv4_2
I1206 23:48:18.808743 14420 net.cpp:395] relu4_2 -> conv4_2 (in-place)
I1206 23:48:18.808995 14420 net.cpp:150] Setting up relu4_2
I1206 23:48:18.809006 14420 net.cpp:157] Top shape: 1 512 38 38 (739328)
I1206 23:48:18.809011 14420 net.cpp:165] Memory required for data: 203388000
I1206 23:48:18.809016 14420 layer_factory.hpp:77] Creating layer conv4_3
I1206 23:48:18.809046 14420 net.cpp:100] Creating Layer conv4_3
I1206 23:48:18.809052 14420 net.cpp:434] conv4_3 <- conv4_2
I1206 23:48:18.809062 14420 net.cpp:408] conv4_3 -> conv4_3
I1206 23:48:18.824220 14420 net.cpp:150] Setting up conv4_3
I1206 23:48:18.824281 14420 net.cpp:157] Top shape: 1 512 38 38 (739328)
I1206 23:48:18.824287 14420 net.cpp:165] Memory required for data: 206345312
I1206 23:48:18.824297 14420 layer_factory.hpp:77] Creating layer relu4_3
I1206 23:48:18.824307 14420 net.cpp:100] Creating Layer relu4_3
I1206 23:48:18.824313 14420 net.cpp:434] relu4_3 <- conv4_3
I1206 23:48:18.824321 14420 net.cpp:395] relu4_3 -> conv4_3 (in-place)
I1206 23:48:18.824512 14420 net.cpp:150] Setting up relu4_3
I1206 23:48:18.824538 14420 net.cpp:157] Top shape: 1 512 38 38 (739328)
I1206 23:48:18.824543 14420 net.cpp:165] Memory required for data: 209302624
I1206 23:48:18.824573 14420 layer_factory.hpp:77] Creating layer conv4_3_relu4_3_0_split
I1206 23:48:18.824599 14420 net.cpp:100] Creating Layer conv4_3_relu4_3_0_split
I1206 23:48:18.824620 14420 net.cpp:434] conv4_3_relu4_3_0_split <- conv4_3
I1206 23:48:18.824626 14420 net.cpp:408] conv4_3_relu4_3_0_split -> conv4_3_relu4_3_0_split_0
I1206 23:48:18.824635 14420 net.cpp:408] conv4_3_relu4_3_0_split -> conv4_3_relu4_3_0_split_1
I1206 23:48:18.824708 14420 net.cpp:150] Setting up conv4_3_relu4_3_0_split
I1206 23:48:18.824731 14420 net.cpp:157] Top shape: 1 512 38 38 (739328)
I1206 23:48:18.824756 14420 net.cpp:157] Top shape: 1 512 38 38 (739328)
I1206 23:48:18.824760 14420 net.cpp:165] Memory required for data: 215217248
I1206 23:48:18.824765 14420 layer_factory.hpp:77] Creating layer pool4
I1206 23:48:18.824786 14420 net.cpp:100] Creating Layer pool4
I1206 23:48:18.824791 14420 net.cpp:434] pool4 <- conv4_3_relu4_3_0_split_0
I1206 23:48:18.824795 14420 net.cpp:408] pool4 -> pool4
I1206 23:48:18.824827 14420 net.cpp:150] Setting up pool4
I1206 23:48:18.824833 14420 net.cpp:157] Top shape: 1 512 19 19 (184832)
I1206 23:48:18.824836 14420 net.cpp:165] Memory required for data: 215956576
I1206 23:48:18.824838 14420 layer_factory.hpp:77] Creating layer conv5_1
I1206 23:48:18.824851 14420 net.cpp:100] Creating Layer conv5_1
I1206 23:48:18.824854 14420 net.cpp:434] conv5_1 <- pool4
I1206 23:48:18.824858 14420 net.cpp:408] conv5_1 -> conv5_1
I1206 23:48:18.840555 14420 net.cpp:150] Setting up conv5_1
I1206 23:48:18.840577 14420 net.cpp:157] Top shape: 1 512 19 19 (184832)
I1206 23:48:18.840581 14420 net.cpp:165] Memory required for data: 216695904
I1206 23:48:18.840589 14420 layer_factory.hpp:77] Creating layer relu5_1
I1206 23:48:18.840596 14420 net.cpp:100] Creating Layer relu5_1
I1206 23:48:18.840603 14420 net.cpp:434] relu5_1 <- conv5_1
I1206 23:48:18.840608 14420 net.cpp:395] relu5_1 -> conv5_1 (in-place)
I1206 23:48:18.840878 14420 net.cpp:150] Setting up relu5_1
I1206 23:48:18.840886 14420 net.cpp:157] Top shape: 1 512 19 19 (184832)
I1206 23:48:18.840889 14420 net.cpp:165] Memory required for data: 217435232
I1206 23:48:18.840910 14420 layer_factory.hpp:77] Creating layer conv5_2
I1206 23:48:18.840919 14420 net.cpp:100] Creating Layer conv5_2
I1206 23:48:18.840921 14420 net.cpp:434] conv5_2 <- conv5_1
I1206 23:48:18.840926 14420 net.cpp:408] conv5_2 -> conv5_2
I1206 23:48:18.856166 14420 net.cpp:150] Setting up conv5_2
I1206 23:48:18.856206 14420 net.cpp:157] Top shape: 1 512 19 19 (184832)
I1206 23:48:18.856210 14420 net.cpp:165] Memory required for data: 218174560
I1206 23:48:18.856217 14420 layer_factory.hpp:77] Creating layer relu5_2
I1206 23:48:18.856240 14420 net.cpp:100] Creating Layer relu5_2
I1206 23:48:18.856245 14420 net.cpp:434] relu5_2 <- conv5_2
I1206 23:48:18.856267 14420 net.cpp:395] relu5_2 -> conv5_2 (in-place)
I1206 23:48:18.856556 14420 net.cpp:150] Setting up relu5_2
I1206 23:48:18.856583 14420 net.cpp:157] Top shape: 1 512 19 19 (184832)
I1206 23:48:18.856587 14420 net.cpp:165] Memory required for data: 218913888
I1206 23:48:18.856590 14420 layer_factory.hpp:77] Creating layer conv5_3
I1206 23:48:18.856598 14420 net.cpp:100] Creating Layer conv5_3
I1206 23:48:18.856602 14420 net.cpp:434] conv5_3 <- conv5_2
I1206 23:48:18.856607 14420 net.cpp:408] conv5_3 -> conv5_3
I1206 23:48:18.872771 14420 net.cpp:150] Setting up conv5_3
I1206 23:48:18.872794 14420 net.cpp:157] Top shape: 1 512 19 19 (184832)
I1206 23:48:18.872798 14420 net.cpp:165] Memory required for data: 219653216
I1206 23:48:18.872805 14420 layer_factory.hpp:77] Creating layer relu5_3
I1206 23:48:18.872817 14420 net.cpp:100] Creating Layer relu5_3
I1206 23:48:18.872822 14420 net.cpp:434] relu5_3 <- conv5_3
I1206 23:48:18.872849 14420 net.cpp:395] relu5_3 -> conv5_3 (in-place)
I1206 23:48:18.873006 14420 net.cpp:150] Setting up relu5_3
I1206 23:48:18.873013 14420 net.cpp:157] Top shape: 1 512 19 19 (184832)
I1206 23:48:18.873016 14420 net.cpp:165] Memory required for data: 220392544
I1206 23:48:18.873049 14420 layer_factory.hpp:77] Creating layer pool5
I1206 23:48:18.873054 14420 net.cpp:100] Creating Layer pool5
I1206 23:48:18.873057 14420 net.cpp:434] pool5 <- conv5_3
I1206 23:48:18.873061 14420 net.cpp:408] pool5 -> pool5
I1206 23:48:18.873132 14420 net.cpp:150] Setting up pool5
I1206 23:48:18.873152 14420 net.cpp:157] Top shape: 1 512 19 19 (184832)
I1206 23:48:18.873154 14420 net.cpp:165] Memory required for data: 221131872
I1206 23:48:18.873157 14420 layer_factory.hpp:77] Creating layer fc6
I1206 23:48:18.873169 14420 net.cpp:100] Creating Layer fc6
I1206 23:48:18.873175 14420 net.cpp:434] fc6 <- pool5
I1206 23:48:18.873183 14420 net.cpp:408] fc6 -> fc6
I1206 23:48:18.902925 14420 net.cpp:150] Setting up fc6
I1206 23:48:18.902943 14420 net.cpp:157] Top shape: 1 1024 19 19 (369664)
I1206 23:48:18.902946 14420 net.cpp:165] Memory required for data: 222610528
I1206 23:48:18.902971 14420 layer_factory.hpp:77] Creating layer relu6
I1206 23:48:18.902978 14420 net.cpp:100] Creating Layer relu6
I1206 23:48:18.902995 14420 net.cpp:434] relu6 <- fc6
I1206 23:48:18.903000 14420 net.cpp:395] relu6 -> fc6 (in-place)
I1206 23:48:18.903296 14420 net.cpp:150] Setting up relu6
I1206 23:48:18.903306 14420 net.cpp:157] Top shape: 1 1024 19 19 (369664)
I1206 23:48:18.903307 14420 net.cpp:165] Memory required for data: 224089184
I1206 23:48:18.903329 14420 layer_factory.hpp:77] Creating layer fc7
I1206 23:48:18.903337 14420 net.cpp:100] Creating Layer fc7
I1206 23:48:18.903339 14420 net.cpp:434] fc7 <- fc6
I1206 23:48:18.903344 14420 net.cpp:408] fc7 -> fc7
I1206 23:48:18.910051 14420 net.cpp:150] Setting up fc7
I1206 23:48:18.910064 14420 net.cpp:157] Top shape: 1 1024 19 19 (369664)
I1206 23:48:18.910068 14420 net.cpp:165] Memory required for data: 225567840
I1206 23:48:18.910073 14420 layer_factory.hpp:77] Creating layer relu7
I1206 23:48:18.910096 14420 net.cpp:100] Creating Layer relu7
I1206 23:48:18.910099 14420 net.cpp:434] relu7 <- fc7
I1206 23:48:18.910104 14420 net.cpp:395] relu7 -> fc7 (in-place)
I1206 23:48:18.910291 14420 net.cpp:150] Setting up relu7
I1206 23:48:18.910297 14420 net.cpp:157] Top shape: 1 1024 19 19 (369664)
I1206 23:48:18.910300 14420 net.cpp:165] Memory required for data: 227046496
I1206 23:48:18.910303 14420 layer_factory.hpp:77] Creating layer fc7_relu7_0_split
I1206 23:48:18.910326 14420 net.cpp:100] Creating Layer fc7_relu7_0_split
I1206 23:48:18.910328 14420 net.cpp:434] fc7_relu7_0_split <- fc7
I1206 23:48:18.910332 14420 net.cpp:408] fc7_relu7_0_split -> fc7_relu7_0_split_0
I1206 23:48:18.910337 14420 net.cpp:408] fc7_relu7_0_split -> fc7_relu7_0_split_1
I1206 23:48:18.910363 14420 net.cpp:408] fc7_relu7_0_split -> fc7_relu7_0_split_2
I1206 23:48:18.910368 14420 net.cpp:408] fc7_relu7_0_split -> fc7_relu7_0_split_3
I1206 23:48:18.910431 14420 net.cpp:150] Setting up fc7_relu7_0_split
I1206 23:48:18.910437 14420 net.cpp:157] Top shape: 1 1024 19 19 (369664)
I1206 23:48:18.910440 14420 net.cpp:157] Top shape: 1 1024 19 19 (369664)
I1206 23:48:18.910456 14420 net.cpp:157] Top shape: 1 1024 19 19 (369664)
I1206 23:48:18.910459 14420 net.cpp:157] Top shape: 1 1024 19 19 (369664)
I1206 23:48:18.910461 14420 net.cpp:165] Memory required for data: 232961120
I1206 23:48:18.910464 14420 layer_factory.hpp:77] Creating layer conv6_1
I1206 23:48:18.910488 14420 net.cpp:100] Creating Layer conv6_1
I1206 23:48:18.910491 14420 net.cpp:434] conv6_1 <- fc7_relu7_0_split_0
I1206 23:48:18.910496 14420 net.cpp:408] conv6_1 -> conv6_1
I1206 23:48:18.912858 14420 net.cpp:150] Setting up conv6_1
I1206 23:48:18.912870 14420 net.cpp:157] Top shape: 1 256 19 19 (92416)
I1206 23:48:18.912874 14420 net.cpp:165] Memory required for data: 233330784
I1206 23:48:18.912899 14420 layer_factory.hpp:77] Creating layer conv6_1_relu
I1206 23:48:18.912904 14420 net.cpp:100] Creating Layer conv6_1_relu
I1206 23:48:18.912920 14420 net.cpp:434] conv6_1_relu <- conv6_1
I1206 23:48:18.912925 14420 net.cpp:395] conv6_1_relu -> conv6_1 (in-place)
I1206 23:48:18.913108 14420 net.cpp:150] Setting up conv6_1_relu
I1206 23:48:18.913115 14420 net.cpp:157] Top shape: 1 256 19 19 (92416)
I1206 23:48:18.913148 14420 net.cpp:165] Memory required for data: 233700448
I1206 23:48:18.913152 14420 layer_factory.hpp:77] Creating layer conv6_2
I1206 23:48:18.913161 14420 net.cpp:100] Creating Layer conv6_2
I1206 23:48:18.913182 14420 net.cpp:434] conv6_2 <- conv6_1
I1206 23:48:18.913187 14420 net.cpp:408] conv6_2 -> conv6_2
I1206 23:48:18.921694 14420 net.cpp:150] Setting up conv6_2
I1206 23:48:18.921717 14420 net.cpp:157] Top shape: 1 512 10 10 (51200)
I1206 23:48:18.921722 14420 net.cpp:165] Memory required for data: 233905248
I1206 23:48:18.921754 14420 layer_factory.hpp:77] Creating layer conv6_2_relu
I1206 23:48:18.921763 14420 net.cpp:100] Creating Layer conv6_2_relu
I1206 23:48:18.921768 14420 net.cpp:434] conv6_2_relu <- conv6_2
I1206 23:48:18.921792 14420 net.cpp:395] conv6_2_relu -> conv6_2 (in-place)
I1206 23:48:18.922063 14420 net.cpp:150] Setting up conv6_2_relu
I1206 23:48:18.922073 14420 net.cpp:157] Top shape: 1 512 10 10 (51200)
I1206 23:48:18.922076 14420 net.cpp:165] Memory required for data: 234110048
I1206 23:48:18.922098 14420 layer_factory.hpp:77] Creating layer conv6_2_conv6_2_relu_0_split
I1206 23:48:18.922104 14420 net.cpp:100] Creating Layer conv6_2_conv6_2_relu_0_split
I1206 23:48:18.922108 14420 net.cpp:434] conv6_2_conv6_2_relu_0_split <- conv6_2
I1206 23:48:18.922114 14420 net.cpp:408] conv6_2_conv6_2_relu_0_split -> conv6_2_conv6_2_relu_0_split_0
I1206 23:48:18.922138 14420 net.cpp:408] conv6_2_conv6_2_relu_0_split -> conv6_2_conv6_2_relu_0_split_1
I1206 23:48:18.922158 14420 net.cpp:408] conv6_2_conv6_2_relu_0_split -> conv6_2_conv6_2_relu_0_split_2
I1206 23:48:18.922163 14420 net.cpp:408] conv6_2_conv6_2_relu_0_split -> conv6_2_conv6_2_relu_0_split_3
I1206 23:48:18.922236 14420 net.cpp:150] Setting up conv6_2_conv6_2_relu_0_split
I1206 23:48:18.922242 14420 net.cpp:157] Top shape: 1 512 10 10 (51200)
I1206 23:48:18.922246 14420 net.cpp:157] Top shape: 1 512 10 10 (51200)
I1206 23:48:18.922250 14420 net.cpp:157] Top shape: 1 512 10 10 (51200)
I1206 23:48:18.922272 14420 net.cpp:157] Top shape: 1 512 10 10 (51200)
I1206 23:48:18.922276 14420 net.cpp:165] Memory required for data: 234929248
I1206 23:48:18.922278 14420 layer_factory.hpp:77] Creating layer conv7_1
I1206 23:48:18.922288 14420 net.cpp:100] Creating Layer conv7_1
I1206 23:48:18.922292 14420 net.cpp:434] conv7_1 <- conv6_2_conv6_2_relu_0_split_0
I1206 23:48:18.922315 14420 net.cpp:408] conv7_1 -> conv7_1
I1206 23:48:18.923524 14420 net.cpp:150] Setting up conv7_1
I1206 23:48:18.923535 14420 net.cpp:157] Top shape: 1 128 10 10 (12800)
I1206 23:48:18.923539 14420 net.cpp:165] Memory required for data: 234980448
I1206 23:48:18.923563 14420 layer_factory.hpp:77] Creating layer conv7_1_relu
I1206 23:48:18.923569 14420 net.cpp:100] Creating Layer conv7_1_relu
I1206 23:48:18.923573 14420 net.cpp:434] conv7_1_relu <- conv7_1
I1206 23:48:18.923578 14420 net.cpp:395] conv7_1_relu -> conv7_1 (in-place)
I1206 23:48:18.923773 14420 net.cpp:150] Setting up conv7_1_relu
I1206 23:48:18.923779 14420 net.cpp:157] Top shape: 1 128 10 10 (12800)
I1206 23:48:18.923784 14420 net.cpp:165] Memory required for data: 235031648
I1206 23:48:18.923787 14420 layer_factory.hpp:77] Creating layer conv7_2
I1206 23:48:18.923812 14420 net.cpp:100] Creating Layer conv7_2
I1206 23:48:18.923816 14420 net.cpp:434] conv7_2 <- conv7_1
I1206 23:48:18.923822 14420 net.cpp:408] conv7_2 -> conv7_2
I1206 23:48:18.926538 14420 net.cpp:150] Setting up conv7_2
I1206 23:48:18.926550 14420 net.cpp:157] Top shape: 1 256 5 5 (6400)
I1206 23:48:18.926554 14420 net.cpp:165] Memory required for data: 235057248
I1206 23:48:18.926578 14420 layer_factory.hpp:77] Creating layer conv7_2_relu
I1206 23:48:18.926584 14420 net.cpp:100] Creating Layer conv7_2_relu
I1206 23:48:18.926587 14420 net.cpp:434] conv7_2_relu <- conv7_2
I1206 23:48:18.926605 14420 net.cpp:395] conv7_2_relu -> conv7_2 (in-place)
I1206 23:48:18.926784 14420 net.cpp:150] Setting up conv7_2_relu
I1206 23:48:18.926792 14420 net.cpp:157] Top shape: 1 256 5 5 (6400)
I1206 23:48:18.926825 14420 net.cpp:165] Memory required for data: 235082848
I1206 23:48:18.926828 14420 layer_factory.hpp:77] Creating layer conv7_2_conv7_2_relu_0_split
I1206 23:48:18.926834 14420 net.cpp:100] Creating Layer conv7_2_conv7_2_relu_0_split
I1206 23:48:18.926837 14420 net.cpp:434] conv7_2_conv7_2_relu_0_split <- conv7_2
I1206 23:48:18.926861 14420 net.cpp:408] conv7_2_conv7_2_relu_0_split -> conv7_2_conv7_2_relu_0_split_0
I1206 23:48:18.926880 14420 net.cpp:408] conv7_2_conv7_2_relu_0_split -> conv7_2_conv7_2_relu_0_split_1
I1206 23:48:18.926887 14420 net.cpp:408] conv7_2_conv7_2_relu_0_split -> conv7_2_conv7_2_relu_0_split_2
I1206 23:48:18.926892 14420 net.cpp:408] conv7_2_conv7_2_relu_0_split -> conv7_2_conv7_2_relu_0_split_3
I1206 23:48:18.926985 14420 net.cpp:150] Setting up conv7_2_conv7_2_relu_0_split
I1206 23:48:18.926990 14420 net.cpp:157] Top shape: 1 256 5 5 (6400)
I1206 23:48:18.926995 14420 net.cpp:157] Top shape: 1 256 5 5 (6400)
I1206 23:48:18.927017 14420 net.cpp:157] Top shape: 1 256 5 5 (6400)
I1206 23:48:18.927021 14420 net.cpp:157] Top shape: 1 256 5 5 (6400)
I1206 23:48:18.927024 14420 net.cpp:165] Memory required for data: 235185248
I1206 23:48:18.927027 14420 layer_factory.hpp:77] Creating layer conv8_1
I1206 23:48:18.927036 14420 net.cpp:100] Creating Layer conv8_1
I1206 23:48:18.927039 14420 net.cpp:434] conv8_1 <- conv7_2_conv7_2_relu_0_split_0
I1206 23:48:18.927045 14420 net.cpp:408] conv8_1 -> conv8_1
I1206 23:48:18.928063 14420 net.cpp:150] Setting up conv8_1
I1206 23:48:18.928074 14420 net.cpp:157] Top shape: 1 128 5 5 (3200)
I1206 23:48:18.928078 14420 net.cpp:165] Memory required for data: 235198048
I1206 23:48:18.928084 14420 layer_factory.hpp:77] Creating layer conv8_1_relu
I1206 23:48:18.928091 14420 net.cpp:100] Creating Layer conv8_1_relu
I1206 23:48:18.928094 14420 net.cpp:434] conv8_1_relu <- conv8_1
I1206 23:48:18.928099 14420 net.cpp:395] conv8_1_relu -> conv8_1 (in-place)
I1206 23:48:18.928352 14420 net.cpp:150] Setting up conv8_1_relu
I1206 23:48:18.928361 14420 net.cpp:157] Top shape: 1 128 5 5 (3200)
I1206 23:48:18.928365 14420 net.cpp:165] Memory required for data: 235210848
I1206 23:48:18.928386 14420 layer_factory.hpp:77] Creating layer conv8_2
I1206 23:48:18.928395 14420 net.cpp:100] Creating Layer conv8_2
I1206 23:48:18.928411 14420 net.cpp:434] conv8_2 <- conv8_1
I1206 23:48:18.928416 14420 net.cpp:408] conv8_2 -> conv8_2
I1206 23:48:18.931166 14420 net.cpp:150] Setting up conv8_2
I1206 23:48:18.931179 14420 net.cpp:157] Top shape: 1 256 3 3 (2304)
I1206 23:48:18.931181 14420 net.cpp:165] Memory required for data: 235220064
I1206 23:48:18.931205 14420 layer_factory.hpp:77] Creating layer conv8_2_relu
I1206 23:48:18.931210 14420 net.cpp:100] Creating Layer conv8_2_relu
I1206 23:48:18.931215 14420 net.cpp:434] conv8_2_relu <- conv8_2
I1206 23:48:18.931219 14420 net.cpp:395] conv8_2_relu -> conv8_2 (in-place)
I1206 23:48:18.931363 14420 net.cpp:150] Setting up conv8_2_relu
I1206 23:48:18.931370 14420 net.cpp:157] Top shape: 1 256 3 3 (2304)
I1206 23:48:18.931375 14420 net.cpp:165] Memory required for data: 235229280
I1206 23:48:18.931377 14420 layer_factory.hpp:77] Creating layer conv8_2_conv8_2_relu_0_split
I1206 23:48:18.931401 14420 net.cpp:100] Creating Layer conv8_2_conv8_2_relu_0_split
I1206 23:48:18.931403 14420 net.cpp:434] conv8_2_conv8_2_relu_0_split <- conv8_2
I1206 23:48:18.931409 14420 net.cpp:408] conv8_2_conv8_2_relu_0_split -> conv8_2_conv8_2_relu_0_split_0
I1206 23:48:18.931416 14420 net.cpp:408] conv8_2_conv8_2_relu_0_split -> conv8_2_conv8_2_relu_0_split_1
I1206 23:48:18.931421 14420 net.cpp:408] conv8_2_conv8_2_relu_0_split -> conv8_2_conv8_2_relu_0_split_2
I1206 23:48:18.931427 14420 net.cpp:408] conv8_2_conv8_2_relu_0_split -> conv8_2_conv8_2_relu_0_split_3
I1206 23:48:18.931507 14420 net.cpp:150] Setting up conv8_2_conv8_2_relu_0_split
I1206 23:48:18.931514 14420 net.cpp:157] Top shape: 1 256 3 3 (2304)
I1206 23:48:18.931517 14420 net.cpp:157] Top shape: 1 256 3 3 (2304)
I1206 23:48:18.931540 14420 net.cpp:157] Top shape: 1 256 3 3 (2304)
I1206 23:48:18.931551 14420 net.cpp:157] Top shape: 1 256 3 3 (2304)
I1206 23:48:18.931555 14420 net.cpp:165] Memory required for data: 235266144
I1206 23:48:18.931558 14420 layer_factory.hpp:77] Creating layer conv9_1
I1206 23:48:18.931566 14420 net.cpp:100] Creating Layer conv9_1
I1206 23:48:18.931571 14420 net.cpp:434] conv9_1 <- conv8_2_conv8_2_relu_0_split_0
I1206 23:48:18.931576 14420 net.cpp:408] conv9_1 -> conv9_1
I1206 23:48:18.932538 14420 net.cpp:150] Setting up conv9_1
I1206 23:48:18.932548 14420 net.cpp:157] Top shape: 1 128 3 3 (1152)
I1206 23:48:18.932552 14420 net.cpp:165] Memory required for data: 235270752
I1206 23:48:18.932576 14420 layer_factory.hpp:77] Creating layer conv9_1_relu
I1206 23:48:18.932581 14420 net.cpp:100] Creating Layer conv9_1_relu
I1206 23:48:18.932585 14420 net.cpp:434] conv9_1_relu <- conv9_1
I1206 23:48:18.932603 14420 net.cpp:395] conv9_1_relu -> conv9_1 (in-place)
I1206 23:48:18.932744 14420 net.cpp:150] Setting up conv9_1_relu
I1206 23:48:18.932751 14420 net.cpp:157] Top shape: 1 128 3 3 (1152)
I1206 23:48:18.932754 14420 net.cpp:165] Memory required for data: 235275360
I1206 23:48:18.932759 14420 layer_factory.hpp:77] Creating layer conv9_2
I1206 23:48:18.932783 14420 net.cpp:100] Creating Layer conv9_2
I1206 23:48:18.932787 14420 net.cpp:434] conv9_2 <- conv9_1
I1206 23:48:18.932806 14420 net.cpp:408] conv9_2 -> conv9_2
I1206 23:48:18.935334 14420 net.cpp:150] Setting up conv9_2
I1206 23:48:18.935345 14420 net.cpp:157] Top shape: 1 256 1 1 (256)
I1206 23:48:18.935349 14420 net.cpp:165] Memory required for data: 235276384
I1206 23:48:18.935372 14420 layer_factory.hpp:77] Creating layer conv9_2_relu
I1206 23:48:18.935377 14420 net.cpp:100] Creating Layer conv9_2_relu
I1206 23:48:18.935395 14420 net.cpp:434] conv9_2_relu <- conv9_2
I1206 23:48:18.935400 14420 net.cpp:395] conv9_2_relu -> conv9_2 (in-place)
I1206 23:48:18.935626 14420 net.cpp:150] Setting up conv9_2_relu
I1206 23:48:18.935636 14420 net.cpp:157] Top shape: 1 256 1 1 (256)
I1206 23:48:18.935638 14420 net.cpp:165] Memory required for data: 235277408
I1206 23:48:18.935642 14420 layer_factory.hpp:77] Creating layer conv9_2_conv9_2_relu_0_split
I1206 23:48:18.935665 14420 net.cpp:100] Creating Layer conv9_2_conv9_2_relu_0_split
I1206 23:48:18.935669 14420 net.cpp:434] conv9_2_conv9_2_relu_0_split <- conv9_2
I1206 23:48:18.935686 14420 net.cpp:408] conv9_2_conv9_2_relu_0_split -> conv9_2_conv9_2_relu_0_split_0
I1206 23:48:18.935693 14420 net.cpp:408] conv9_2_conv9_2_relu_0_split -> conv9_2_conv9_2_relu_0_split_1
I1206 23:48:18.935699 14420 net.cpp:408] conv9_2_conv9_2_relu_0_split -> conv9_2_conv9_2_relu_0_split_2
I1206 23:48:18.935775 14420 net.cpp:150] Setting up conv9_2_conv9_2_relu_0_split
I1206 23:48:18.935781 14420 net.cpp:157] Top shape: 1 256 1 1 (256)
I1206 23:48:18.935784 14420 net.cpp:157] Top shape: 1 256 1 1 (256)
I1206 23:48:18.935806 14420 net.cpp:157] Top shape: 1 256 1 1 (256)
I1206 23:48:18.935808 14420 net.cpp:165] Memory required for data: 235280480
I1206 23:48:18.935812 14420 layer_factory.hpp:77] Creating layer conv4_3_norm
I1206 23:48:18.935818 14420 net.cpp:100] Creating Layer conv4_3_norm
I1206 23:48:18.935835 14420 net.cpp:434] conv4_3_norm <- conv4_3_relu4_3_0_split_1
I1206 23:48:18.935840 14420 net.cpp:408] conv4_3_norm -> conv4_3_norm
I1206 23:48:18.935983 14420 net.cpp:150] Setting up conv4_3_norm
I1206 23:48:18.935989 14420 net.cpp:157] Top shape: 1 512 38 38 (739328)
I1206 23:48:18.935992 14420 net.cpp:165] Memory required for data: 238237792
I1206 23:48:18.935997 14420 layer_factory.hpp:77] Creating layer conv4_3_norm_conv4_3_norm_0_split
I1206 23:48:18.936019 14420 net.cpp:100] Creating Layer conv4_3_norm_conv4_3_norm_0_split
I1206 23:48:18.936023 14420 net.cpp:434] conv4_3_norm_conv4_3_norm_0_split <- conv4_3_norm
I1206 23:48:18.936041 14420 net.cpp:408] conv4_3_norm_conv4_3_norm_0_split -> conv4_3_norm_conv4_3_norm_0_split_0
I1206 23:48:18.936046 14420 net.cpp:408] conv4_3_norm_conv4_3_norm_0_split -> conv4_3_norm_conv4_3_norm_0_split_1
I1206 23:48:18.936053 14420 net.cpp:408] conv4_3_norm_conv4_3_norm_0_split -> conv4_3_norm_conv4_3_norm_0_split_2
I1206 23:48:18.936115 14420 net.cpp:150] Setting up conv4_3_norm_conv4_3_norm_0_split
I1206 23:48:18.936120 14420 net.cpp:157] Top shape: 1 512 38 38 (739328)
I1206 23:48:18.936125 14420 net.cpp:157] Top shape: 1 512 38 38 (739328)
I1206 23:48:18.936146 14420 net.cpp:157] Top shape: 1 512 38 38 (739328)
I1206 23:48:18.936148 14420 net.cpp:165] Memory required for data: 247109728
I1206 23:48:18.936152 14420 layer_factory.hpp:77] Creating layer conv4_3_norm_mbox_loc
I1206 23:48:18.936159 14420 net.cpp:100] Creating Layer conv4_3_norm_mbox_loc
I1206 23:48:18.936163 14420 net.cpp:434] conv4_3_norm_mbox_loc <- conv4_3_norm_conv4_3_norm_0_split_0
I1206 23:48:18.936168 14420 net.cpp:408] conv4_3_norm_mbox_loc -> conv4_3_norm_mbox_loc
I1206 23:48:18.937669 14420 net.cpp:150] Setting up conv4_3_norm_mbox_loc
I1206 23:48:18.937680 14420 net.cpp:157] Top shape: 1 12 38 38 (17328)
I1206 23:48:18.937683 14420 net.cpp:165] Memory required for data: 247179040
I1206 23:48:18.937707 14420 layer_factory.hpp:77] Creating layer conv4_3_norm_mbox_loc_perm
I1206 23:48:18.937716 14420 net.cpp:100] Creating Layer conv4_3_norm_mbox_loc_perm
I1206 23:48:18.937719 14420 net.cpp:434] conv4_3_norm_mbox_loc_perm <- conv4_3_norm_mbox_loc
I1206 23:48:18.937724 14420 net.cpp:408] conv4_3_norm_mbox_loc_perm -> conv4_3_norm_mbox_loc_perm
I1206 23:48:18.937832 14420 net.cpp:150] Setting up conv4_3_norm_mbox_loc_perm
I1206 23:48:18.937839 14420 net.cpp:157] Top shape: 1 38 38 12 (17328)
I1206 23:48:18.937842 14420 net.cpp:165] Memory required for data: 247248352
I1206 23:48:18.937845 14420 layer_factory.hpp:77] Creating layer conv4_3_norm_mbox_loc_flat
I1206 23:48:18.937870 14420 net.cpp:100] Creating Layer conv4_3_norm_mbox_loc_flat
I1206 23:48:18.937872 14420 net.cpp:434] conv4_3_norm_mbox_loc_flat <- conv4_3_norm_mbox_loc_perm
I1206 23:48:18.937878 14420 net.cpp:408] conv4_3_norm_mbox_loc_flat -> conv4_3_norm_mbox_loc_flat
I1206 23:48:18.937922 14420 net.cpp:150] Setting up conv4_3_norm_mbox_loc_flat
I1206 23:48:18.937939 14420 net.cpp:157] Top shape: 1 17328 (17328)
I1206 23:48:18.937942 14420 net.cpp:165] Memory required for data: 247317664
I1206 23:48:18.937947 14420 layer_factory.hpp:77] Creating layer conv4_3_norm_mbox_conf
I1206 23:48:18.937978 14420 net.cpp:100] Creating Layer conv4_3_norm_mbox_conf
I1206 23:48:18.937981 14420 net.cpp:434] conv4_3_norm_mbox_conf <- conv4_3_norm_conv4_3_norm_0_split_1
I1206 23:48:18.937986 14420 net.cpp:408] conv4_3_norm_mbox_conf -> conv4_3_norm_mbox_conf
I1206 23:48:18.938936 14420 net.cpp:150] Setting up conv4_3_norm_mbox_conf
I1206 23:48:18.938946 14420 net.cpp:157] Top shape: 1 6 38 38 (8664)
I1206 23:48:18.938951 14420 net.cpp:165] Memory required for data: 247352320
I1206 23:48:18.938974 14420 layer_factory.hpp:77] Creating layer conv4_3_norm_mbox_conf_perm
I1206 23:48:18.938980 14420 net.cpp:100] Creating Layer conv4_3_norm_mbox_conf_perm
I1206 23:48:18.938984 14420 net.cpp:434] conv4_3_norm_mbox_conf_perm <- conv4_3_norm_mbox_conf
I1206 23:48:18.938989 14420 net.cpp:408] conv4_3_norm_mbox_conf_perm -> conv4_3_norm_mbox_conf_perm
I1206 23:48:18.939121 14420 net.cpp:150] Setting up conv4_3_norm_mbox_conf_perm
I1206 23:48:18.939126 14420 net.cpp:157] Top shape: 1 38 38 6 (8664)
I1206 23:48:18.939131 14420 net.cpp:165] Memory required for data: 247386976
I1206 23:48:18.939133 14420 layer_factory.hpp:77] Creating layer conv4_3_norm_mbox_conf_flat
I1206 23:48:18.939157 14420 net.cpp:100] Creating Layer conv4_3_norm_mbox_conf_flat
I1206 23:48:18.939159 14420 net.cpp:434] conv4_3_norm_mbox_conf_flat <- conv4_3_norm_mbox_conf_perm
I1206 23:48:18.939164 14420 net.cpp:408] conv4_3_norm_mbox_conf_flat -> conv4_3_norm_mbox_conf_flat
I1206 23:48:18.939198 14420 net.cpp:150] Setting up conv4_3_norm_mbox_conf_flat
I1206 23:48:18.939203 14420 net.cpp:157] Top shape: 1 8664 (8664)
I1206 23:48:18.939208 14420 net.cpp:165] Memory required for data: 247421632
I1206 23:48:18.939210 14420 layer_factory.hpp:77] Creating layer conv4_3_norm_mbox_priorbox
I1206 23:48:18.939224 14420 net.cpp:100] Creating Layer conv4_3_norm_mbox_priorbox
I1206 23:48:18.939229 14420 net.cpp:434] conv4_3_norm_mbox_priorbox <- conv4_3_norm_conv4_3_norm_0_split_2
I1206 23:48:18.939234 14420 net.cpp:434] conv4_3_norm_mbox_priorbox <- data_data_0_split_1
I1206 23:48:18.939255 14420 net.cpp:408] conv4_3_norm_mbox_priorbox -> conv4_3_norm_mbox_priorbox
I1206 23:48:18.939292 14420 net.cpp:150] Setting up conv4_3_norm_mbox_priorbox
I1206 23:48:18.939298 14420 net.cpp:157] Top shape: 1 2 17328 (34656)
I1206 23:48:18.939302 14420 net.cpp:165] Memory required for data: 247560256
I1206 23:48:18.939306 14420 layer_factory.hpp:77] Creating layer fc7_mbox_loc
I1206 23:48:18.939312 14420 net.cpp:100] Creating Layer fc7_mbox_loc
I1206 23:48:18.939316 14420 net.cpp:434] fc7_mbox_loc <- fc7_relu7_0_split_1
I1206 23:48:18.939322 14420 net.cpp:408] fc7_mbox_loc -> fc7_mbox_loc
I1206 23:48:18.941244 14420 net.cpp:150] Setting up fc7_mbox_loc
I1206 23:48:18.941256 14420 net.cpp:157] Top shape: 1 16 19 19 (5776)
I1206 23:48:18.941259 14420 net.cpp:165] Memory required for data: 247583360
I1206 23:48:18.941283 14420 layer_factory.hpp:77] Creating layer fc7_mbox_loc_perm
I1206 23:48:18.941303 14420 net.cpp:100] Creating Layer fc7_mbox_loc_perm
I1206 23:48:18.941306 14420 net.cpp:434] fc7_mbox_loc_perm <- fc7_mbox_loc
I1206 23:48:18.941311 14420 net.cpp:408] fc7_mbox_loc_perm -> fc7_mbox_loc_perm
I1206 23:48:18.941431 14420 net.cpp:150] Setting up fc7_mbox_loc_perm
I1206 23:48:18.941437 14420 net.cpp:157] Top shape: 1 19 19 16 (5776)
I1206 23:48:18.941442 14420 net.cpp:165] Memory required for data: 247606464
I1206 23:48:18.941444 14420 layer_factory.hpp:77] Creating layer fc7_mbox_loc_flat
I1206 23:48:18.941467 14420 net.cpp:100] Creating Layer fc7_mbox_loc_flat
I1206 23:48:18.941470 14420 net.cpp:434] fc7_mbox_loc_flat <- fc7_mbox_loc_perm
I1206 23:48:18.941475 14420 net.cpp:408] fc7_mbox_loc_flat -> fc7_mbox_loc_flat
I1206 23:48:18.941496 14420 net.cpp:150] Setting up fc7_mbox_loc_flat
I1206 23:48:18.941503 14420 net.cpp:157] Top shape: 1 5776 (5776)
I1206 23:48:18.941505 14420 net.cpp:165] Memory required for data: 247629568
I1206 23:48:18.941509 14420 layer_factory.hpp:77] Creating layer fc7_mbox_conf
I1206 23:48:18.941529 14420 net.cpp:100] Creating Layer fc7_mbox_conf
I1206 23:48:18.941534 14420 net.cpp:434] fc7_mbox_conf <- fc7_relu7_0_split_2
I1206 23:48:18.941540 14420 net.cpp:408] fc7_mbox_conf -> fc7_mbox_conf
I1206 23:48:18.942867 14420 net.cpp:150] Setting up fc7_mbox_conf
I1206 23:48:18.942878 14420 net.cpp:157] Top shape: 1 8 19 19 (2888)
I1206 23:48:18.942881 14420 net.cpp:165] Memory required for data: 247641120
I1206 23:48:18.942888 14420 layer_factory.hpp:77] Creating layer fc7_mbox_conf_perm
I1206 23:48:18.942911 14420 net.cpp:100] Creating Layer fc7_mbox_conf_perm
I1206 23:48:18.942915 14420 net.cpp:434] fc7_mbox_conf_perm <- fc7_mbox_conf
I1206 23:48:18.942920 14420 net.cpp:408] fc7_mbox_conf_perm -> fc7_mbox_conf_perm
I1206 23:48:18.943037 14420 net.cpp:150] Setting up fc7_mbox_conf_perm
I1206 23:48:18.943043 14420 net.cpp:157] Top shape: 1 19 19 8 (2888)
I1206 23:48:18.943048 14420 net.cpp:165] Memory required for data: 247652672
I1206 23:48:18.943050 14420 layer_factory.hpp:77] Creating layer fc7_mbox_conf_flat
I1206 23:48:18.943073 14420 net.cpp:100] Creating Layer fc7_mbox_conf_flat
I1206 23:48:18.943076 14420 net.cpp:434] fc7_mbox_conf_flat <- fc7_mbox_conf_perm
I1206 23:48:18.943081 14420 net.cpp:408] fc7_mbox_conf_flat -> fc7_mbox_conf_flat
I1206 23:48:18.943114 14420 net.cpp:150] Setting up fc7_mbox_conf_flat
I1206 23:48:18.943120 14420 net.cpp:157] Top shape: 1 2888 (2888)
I1206 23:48:18.943123 14420 net.cpp:165] Memory required for data: 247664224
I1206 23:48:18.943127 14420 layer_factory.hpp:77] Creating layer fc7_mbox_priorbox
I1206 23:48:18.943132 14420 net.cpp:100] Creating Layer fc7_mbox_priorbox
I1206 23:48:18.943136 14420 net.cpp:434] fc7_mbox_priorbox <- fc7_relu7_0_split_3
I1206 23:48:18.943140 14420 net.cpp:434] fc7_mbox_priorbox <- data_data_0_split_2
I1206 23:48:18.943146 14420 net.cpp:408] fc7_mbox_priorbox -> fc7_mbox_priorbox
I1206 23:48:18.943178 14420 net.cpp:150] Setting up fc7_mbox_priorbox
I1206 23:48:18.943184 14420 net.cpp:157] Top shape: 1 2 5776 (11552)
I1206 23:48:18.943187 14420 net.cpp:165] Memory required for data: 247710432
I1206 23:48:18.943191 14420 layer_factory.hpp:77] Creating layer conv6_2_mbox_loc
I1206 23:48:18.943197 14420 net.cpp:100] Creating Layer conv6_2_mbox_loc
I1206 23:48:18.943202 14420 net.cpp:434] conv6_2_mbox_loc <- conv6_2_conv6_2_relu_0_split_1
I1206 23:48:18.943207 14420 net.cpp:408] conv6_2_mbox_loc -> conv6_2_mbox_loc
I1206 23:48:18.944466 14420 net.cpp:150] Setting up conv6_2_mbox_loc
I1206 23:48:18.944476 14420 net.cpp:157] Top shape: 1 16 10 10 (1600)
I1206 23:48:18.944480 14420 net.cpp:165] Memory required for data: 247716832
I1206 23:48:18.944504 14420 layer_factory.hpp:77] Creating layer conv6_2_mbox_loc_perm
I1206 23:48:18.944510 14420 net.cpp:100] Creating Layer conv6_2_mbox_loc_perm
I1206 23:48:18.944514 14420 net.cpp:434] conv6_2_mbox_loc_perm <- conv6_2_mbox_loc
I1206 23:48:18.944519 14420 net.cpp:408] conv6_2_mbox_loc_perm -> conv6_2_mbox_loc_perm
I1206 23:48:18.944638 14420 net.cpp:150] Setting up conv6_2_mbox_loc_perm
I1206 23:48:18.944644 14420 net.cpp:157] Top shape: 1 10 10 16 (1600)
I1206 23:48:18.944648 14420 net.cpp:165] Memory required for data: 247723232
I1206 23:48:18.944650 14420 layer_factory.hpp:77] Creating layer conv6_2_mbox_loc_flat
I1206 23:48:18.944674 14420 net.cpp:100] Creating Layer conv6_2_mbox_loc_flat
I1206 23:48:18.944677 14420 net.cpp:434] conv6_2_mbox_loc_flat <- conv6_2_mbox_loc_perm
I1206 23:48:18.944682 14420 net.cpp:408] conv6_2_mbox_loc_flat -> conv6_2_mbox_loc_flat
I1206 23:48:18.944715 14420 net.cpp:150] Setting up conv6_2_mbox_loc_flat
I1206 23:48:18.944721 14420 net.cpp:157] Top shape: 1 1600 (1600)
I1206 23:48:18.944725 14420 net.cpp:165] Memory required for data: 247729632
I1206 23:48:18.944728 14420 layer_factory.hpp:77] Creating layer conv6_2_mbox_conf
I1206 23:48:18.944736 14420 net.cpp:100] Creating Layer conv6_2_mbox_conf
I1206 23:48:18.944739 14420 net.cpp:434] conv6_2_mbox_conf <- conv6_2_conv6_2_relu_0_split_2
I1206 23:48:18.944746 14420 net.cpp:408] conv6_2_mbox_conf -> conv6_2_mbox_conf
I1206 23:48:18.945888 14420 net.cpp:150] Setting up conv6_2_mbox_conf
I1206 23:48:18.945899 14420 net.cpp:157] Top shape: 1 8 10 10 (800)
I1206 23:48:18.945901 14420 net.cpp:165] Memory required for data: 247732832
I1206 23:48:18.945907 14420 layer_factory.hpp:77] Creating layer conv6_2_mbox_conf_perm
I1206 23:48:18.945914 14420 net.cpp:100] Creating Layer conv6_2_mbox_conf_perm
I1206 23:48:18.945917 14420 net.cpp:434] conv6_2_mbox_conf_perm <- conv6_2_mbox_conf
I1206 23:48:18.945924 14420 net.cpp:408] conv6_2_mbox_conf_perm -> conv6_2_mbox_conf_perm
I1206 23:48:18.946056 14420 net.cpp:150] Setting up conv6_2_mbox_conf_perm
I1206 23:48:18.946061 14420 net.cpp:157] Top shape: 1 10 10 8 (800)
I1206 23:48:18.946065 14420 net.cpp:165] Memory required for data: 247736032
I1206 23:48:18.946069 14420 layer_factory.hpp:77] Creating layer conv6_2_mbox_conf_flat
I1206 23:48:18.946074 14420 net.cpp:100] Creating Layer conv6_2_mbox_conf_flat
I1206 23:48:18.946077 14420 net.cpp:434] conv6_2_mbox_conf_flat <- conv6_2_mbox_conf_perm
I1206 23:48:18.946084 14420 net.cpp:408] conv6_2_mbox_conf_flat -> conv6_2_mbox_conf_flat
I1206 23:48:18.946104 14420 net.cpp:150] Setting up conv6_2_mbox_conf_flat
I1206 23:48:18.946110 14420 net.cpp:157] Top shape: 1 800 (800)
I1206 23:48:18.946113 14420 net.cpp:165] Memory required for data: 247739232
I1206 23:48:18.946117 14420 layer_factory.hpp:77] Creating layer conv6_2_mbox_priorbox
I1206 23:48:18.946122 14420 net.cpp:100] Creating Layer conv6_2_mbox_priorbox
I1206 23:48:18.946126 14420 net.cpp:434] conv6_2_mbox_priorbox <- conv6_2_conv6_2_relu_0_split_3
I1206 23:48:18.946131 14420 net.cpp:434] conv6_2_mbox_priorbox <- data_data_0_split_3
I1206 23:48:18.946136 14420 net.cpp:408] conv6_2_mbox_priorbox -> conv6_2_mbox_priorbox
I1206 23:48:18.946158 14420 net.cpp:150] Setting up conv6_2_mbox_priorbox
I1206 23:48:18.946173 14420 net.cpp:157] Top shape: 1 2 1600 (3200)
I1206 23:48:18.946177 14420 net.cpp:165] Memory required for data: 247752032
I1206 23:48:18.946180 14420 layer_factory.hpp:77] Creating layer conv7_2_mbox_loc
I1206 23:48:18.946188 14420 net.cpp:100] Creating Layer conv7_2_mbox_loc
I1206 23:48:18.946192 14420 net.cpp:434] conv7_2_mbox_loc <- conv7_2_conv7_2_relu_0_split_1
I1206 23:48:18.946197 14420 net.cpp:408] conv7_2_mbox_loc -> conv7_2_mbox_loc
I1206 23:48:18.947434 14420 net.cpp:150] Setting up conv7_2_mbox_loc
I1206 23:48:18.947458 14420 net.cpp:157] Top shape: 1 16 5 5 (400)
I1206 23:48:18.947461 14420 net.cpp:165] Memory required for data: 247753632
I1206 23:48:18.947468 14420 layer_factory.hpp:77] Creating layer conv7_2_mbox_loc_perm
I1206 23:48:18.947474 14420 net.cpp:100] Creating Layer conv7_2_mbox_loc_perm
I1206 23:48:18.947479 14420 net.cpp:434] conv7_2_mbox_loc_perm <- conv7_2_mbox_loc
I1206 23:48:18.947484 14420 net.cpp:408] conv7_2_mbox_loc_perm -> conv7_2_mbox_loc_perm
I1206 23:48:18.947585 14420 net.cpp:150] Setting up conv7_2_mbox_loc_perm
I1206 23:48:18.947592 14420 net.cpp:157] Top shape: 1 5 5 16 (400)
I1206 23:48:18.947595 14420 net.cpp:165] Memory required for data: 247755232
I1206 23:48:18.947598 14420 layer_factory.hpp:77] Creating layer conv7_2_mbox_loc_flat
I1206 23:48:18.947603 14420 net.cpp:100] Creating Layer conv7_2_mbox_loc_flat
I1206 23:48:18.947607 14420 net.cpp:434] conv7_2_mbox_loc_flat <- conv7_2_mbox_loc_perm
I1206 23:48:18.947613 14420 net.cpp:408] conv7_2_mbox_loc_flat -> conv7_2_mbox_loc_flat
I1206 23:48:18.947646 14420 net.cpp:150] Setting up conv7_2_mbox_loc_flat
I1206 23:48:18.947652 14420 net.cpp:157] Top shape: 1 400 (400)
I1206 23:48:18.947655 14420 net.cpp:165] Memory required for data: 247756832
I1206 23:48:18.947659 14420 layer_factory.hpp:77] Creating layer conv7_2_mbox_conf
I1206 23:48:18.947665 14420 net.cpp:100] Creating Layer conv7_2_mbox_conf
I1206 23:48:18.947669 14420 net.cpp:434] conv7_2_mbox_conf <- conv7_2_conv7_2_relu_0_split_2
I1206 23:48:18.947675 14420 net.cpp:408] conv7_2_mbox_conf -> conv7_2_mbox_conf
I1206 23:48:18.948856 14420 net.cpp:150] Setting up conv7_2_mbox_conf
I1206 23:48:18.948868 14420 net.cpp:157] Top shape: 1 8 5 5 (200)
I1206 23:48:18.948873 14420 net.cpp:165] Memory required for data: 247757632
I1206 23:48:18.948896 14420 layer_factory.hpp:77] Creating layer conv7_2_mbox_conf_perm
I1206 23:48:18.948902 14420 net.cpp:100] Creating Layer conv7_2_mbox_conf_perm
I1206 23:48:18.948906 14420 net.cpp:434] conv7_2_mbox_conf_perm <- conv7_2_mbox_conf
I1206 23:48:18.948912 14420 net.cpp:408] conv7_2_mbox_conf_perm -> conv7_2_mbox_conf_perm
I1206 23:48:18.949025 14420 net.cpp:150] Setting up conv7_2_mbox_conf_perm
I1206 23:48:18.949033 14420 net.cpp:157] Top shape: 1 5 5 8 (200)
I1206 23:48:18.949036 14420 net.cpp:165] Memory required for data: 247758432
I1206 23:48:18.949040 14420 layer_factory.hpp:77] Creating layer conv7_2_mbox_conf_flat
I1206 23:48:18.949044 14420 net.cpp:100] Creating Layer conv7_2_mbox_conf_flat
I1206 23:48:18.949066 14420 net.cpp:434] conv7_2_mbox_conf_flat <- conv7_2_mbox_conf_perm
I1206 23:48:18.949072 14420 net.cpp:408] conv7_2_mbox_conf_flat -> conv7_2_mbox_conf_flat
I1206 23:48:18.949126 14420 net.cpp:150] Setting up conv7_2_mbox_conf_flat
I1206 23:48:18.949132 14420 net.cpp:157] Top shape: 1 200 (200)
I1206 23:48:18.949136 14420 net.cpp:165] Memory required for data: 247759232
I1206 23:48:18.949141 14420 layer_factory.hpp:77] Creating layer conv7_2_mbox_priorbox
I1206 23:48:18.949146 14420 net.cpp:100] Creating Layer conv7_2_mbox_priorbox
I1206 23:48:18.949151 14420 net.cpp:434] conv7_2_mbox_priorbox <- conv7_2_conv7_2_relu_0_split_3
I1206 23:48:18.949156 14420 net.cpp:434] conv7_2_mbox_priorbox <- data_data_0_split_4
I1206 23:48:18.949160 14420 net.cpp:408] conv7_2_mbox_priorbox -> conv7_2_mbox_priorbox
I1206 23:48:18.949199 14420 net.cpp:150] Setting up conv7_2_mbox_priorbox
I1206 23:48:18.949204 14420 net.cpp:157] Top shape: 1 2 400 (800)
I1206 23:48:18.949208 14420 net.cpp:165] Memory required for data: 247762432
I1206 23:48:18.949235 14420 layer_factory.hpp:77] Creating layer conv8_2_mbox_loc
I1206 23:48:18.949244 14420 net.cpp:100] Creating Layer conv8_2_mbox_loc
I1206 23:48:18.949249 14420 net.cpp:434] conv8_2_mbox_loc <- conv8_2_conv8_2_relu_0_split_1
I1206 23:48:18.949255 14420 net.cpp:408] conv8_2_mbox_loc -> conv8_2_mbox_loc
I1206 23:48:18.950453 14420 net.cpp:150] Setting up conv8_2_mbox_loc
I1206 23:48:18.950482 14420 net.cpp:157] Top shape: 1 12 3 3 (108)
I1206 23:48:18.950486 14420 net.cpp:165] Memory required for data: 247762864
I1206 23:48:18.950502 14420 layer_factory.hpp:77] Creating layer conv8_2_mbox_loc_perm
I1206 23:48:18.950510 14420 net.cpp:100] Creating Layer conv8_2_mbox_loc_perm
I1206 23:48:18.950515 14420 net.cpp:434] conv8_2_mbox_loc_perm <- conv8_2_mbox_loc
I1206 23:48:18.950521 14420 net.cpp:408] conv8_2_mbox_loc_perm -> conv8_2_mbox_loc_perm
I1206 23:48:18.950637 14420 net.cpp:150] Setting up conv8_2_mbox_loc_perm
I1206 23:48:18.950644 14420 net.cpp:157] Top shape: 1 3 3 12 (108)
I1206 23:48:18.950649 14420 net.cpp:165] Memory required for data: 247763296
I1206 23:48:18.950652 14420 layer_factory.hpp:77] Creating layer conv8_2_mbox_loc_flat
I1206 23:48:18.950657 14420 net.cpp:100] Creating Layer conv8_2_mbox_loc_flat
I1206 23:48:18.950662 14420 net.cpp:434] conv8_2_mbox_loc_flat <- conv8_2_mbox_loc_perm
I1206 23:48:18.950667 14420 net.cpp:408] conv8_2_mbox_loc_flat -> conv8_2_mbox_loc_flat
I1206 23:48:18.950690 14420 net.cpp:150] Setting up conv8_2_mbox_loc_flat
I1206 23:48:18.950696 14420 net.cpp:157] Top shape: 1 108 (108)
I1206 23:48:18.950700 14420 net.cpp:165] Memory required for data: 247763728
I1206 23:48:18.950705 14420 layer_factory.hpp:77] Creating layer conv8_2_mbox_conf
I1206 23:48:18.950711 14420 net.cpp:100] Creating Layer conv8_2_mbox_conf
I1206 23:48:18.950716 14420 net.cpp:434] conv8_2_mbox_conf <- conv8_2_conv8_2_relu_0_split_2
I1206 23:48:18.950722 14420 net.cpp:408] conv8_2_mbox_conf -> conv8_2_mbox_conf
I1206 23:48:18.951762 14420 net.cpp:150] Setting up conv8_2_mbox_conf
I1206 23:48:18.951773 14420 net.cpp:157] Top shape: 1 6 3 3 (54)
I1206 23:48:18.951778 14420 net.cpp:165] Memory required for data: 247763944
I1206 23:48:18.951784 14420 layer_factory.hpp:77] Creating layer conv8_2_mbox_conf_perm
I1206 23:48:18.951792 14420 net.cpp:100] Creating Layer conv8_2_mbox_conf_perm
I1206 23:48:18.951797 14420 net.cpp:434] conv8_2_mbox_conf_perm <- conv8_2_mbox_conf
I1206 23:48:18.951802 14420 net.cpp:408] conv8_2_mbox_conf_perm -> conv8_2_mbox_conf_perm
I1206 23:48:18.951906 14420 net.cpp:150] Setting up conv8_2_mbox_conf_perm
I1206 23:48:18.951913 14420 net.cpp:157] Top shape: 1 3 3 6 (54)
I1206 23:48:18.951917 14420 net.cpp:165] Memory required for data: 247764160
I1206 23:48:18.951921 14420 layer_factory.hpp:77] Creating layer conv8_2_mbox_conf_flat
I1206 23:48:18.951926 14420 net.cpp:100] Creating Layer conv8_2_mbox_conf_flat
I1206 23:48:18.951931 14420 net.cpp:434] conv8_2_mbox_conf_flat <- conv8_2_mbox_conf_perm
I1206 23:48:18.951936 14420 net.cpp:408] conv8_2_mbox_conf_flat -> conv8_2_mbox_conf_flat
I1206 23:48:18.951959 14420 net.cpp:150] Setting up conv8_2_mbox_conf_flat
I1206 23:48:18.951966 14420 net.cpp:157] Top shape: 1 54 (54)
I1206 23:48:18.951968 14420 net.cpp:165] Memory required for data: 247764376
I1206 23:48:18.951972 14420 layer_factory.hpp:77] Creating layer conv8_2_mbox_priorbox
I1206 23:48:18.951977 14420 net.cpp:100] Creating Layer conv8_2_mbox_priorbox
I1206 23:48:18.951982 14420 net.cpp:434] conv8_2_mbox_priorbox <- conv8_2_conv8_2_relu_0_split_3
I1206 23:48:18.951987 14420 net.cpp:434] conv8_2_mbox_priorbox <- data_data_0_split_5
I1206 23:48:18.951993 14420 net.cpp:408] conv8_2_mbox_priorbox -> conv8_2_mbox_priorbox
I1206 23:48:18.952018 14420 net.cpp:150] Setting up conv8_2_mbox_priorbox
I1206 23:48:18.952024 14420 net.cpp:157] Top shape: 1 2 108 (216)
I1206 23:48:18.952028 14420 net.cpp:165] Memory required for data: 247765240
I1206 23:48:18.952031 14420 layer_factory.hpp:77] Creating layer conv9_2_mbox_loc
I1206 23:48:18.952039 14420 net.cpp:100] Creating Layer conv9_2_mbox_loc
I1206 23:48:18.952051 14420 net.cpp:434] conv9_2_mbox_loc <- conv9_2_conv9_2_relu_0_split_0
I1206 23:48:18.952059 14420 net.cpp:408] conv9_2_mbox_loc -> conv9_2_mbox_loc
I1206 23:48:18.953186 14420 net.cpp:150] Setting up conv9_2_mbox_loc
I1206 23:48:18.953197 14420 net.cpp:157] Top shape: 1 12 1 1 (12)
I1206 23:48:18.953202 14420 net.cpp:165] Memory required for data: 247765288
I1206 23:48:18.953208 14420 layer_factory.hpp:77] Creating layer conv9_2_mbox_loc_perm
I1206 23:48:18.953215 14420 net.cpp:100] Creating Layer conv9_2_mbox_loc_perm
I1206 23:48:18.953220 14420 net.cpp:434] conv9_2_mbox_loc_perm <- conv9_2_mbox_loc
I1206 23:48:18.953227 14420 net.cpp:408] conv9_2_mbox_loc_perm -> conv9_2_mbox_loc_perm
I1206 23:48:18.953330 14420 net.cpp:150] Setting up conv9_2_mbox_loc_perm
I1206 23:48:18.953336 14420 net.cpp:157] Top shape: 1 1 1 12 (12)
I1206 23:48:18.953341 14420 net.cpp:165] Memory required for data: 247765336
I1206 23:48:18.953344 14420 layer_factory.hpp:77] Creating layer conv9_2_mbox_loc_flat
I1206 23:48:18.953349 14420 net.cpp:100] Creating Layer conv9_2_mbox_loc_flat
I1206 23:48:18.953354 14420 net.cpp:434] conv9_2_mbox_loc_flat <- conv9_2_mbox_loc_perm
I1206 23:48:18.953359 14420 net.cpp:408] conv9_2_mbox_loc_flat -> conv9_2_mbox_loc_flat
I1206 23:48:18.953382 14420 net.cpp:150] Setting up conv9_2_mbox_loc_flat
I1206 23:48:18.953388 14420 net.cpp:157] Top shape: 1 12 (12)
I1206 23:48:18.953392 14420 net.cpp:165] Memory required for data: 247765384
I1206 23:48:18.953395 14420 layer_factory.hpp:77] Creating layer conv9_2_mbox_conf
I1206 23:48:18.953403 14420 net.cpp:100] Creating Layer conv9_2_mbox_conf
I1206 23:48:18.953408 14420 net.cpp:434] conv9_2_mbox_conf <- conv9_2_conv9_2_relu_0_split_1
I1206 23:48:18.953414 14420 net.cpp:408] conv9_2_mbox_conf -> conv9_2_mbox_conf
I1206 23:48:18.954460 14420 net.cpp:150] Setting up conv9_2_mbox_conf
I1206 23:48:18.954473 14420 net.cpp:157] Top shape: 1 6 1 1 (6)
I1206 23:48:18.954476 14420 net.cpp:165] Memory required for data: 247765408
I1206 23:48:18.954483 14420 layer_factory.hpp:77] Creating layer conv9_2_mbox_conf_perm
I1206 23:48:18.954489 14420 net.cpp:100] Creating Layer conv9_2_mbox_conf_perm
I1206 23:48:18.954493 14420 net.cpp:434] conv9_2_mbox_conf_perm <- conv9_2_mbox_conf
I1206 23:48:18.954499 14420 net.cpp:408] conv9_2_mbox_conf_perm -> conv9_2_mbox_conf_perm
I1206 23:48:18.954602 14420 net.cpp:150] Setting up conv9_2_mbox_conf_perm
I1206 23:48:18.954607 14420 net.cpp:157] Top shape: 1 1 1 6 (6)
I1206 23:48:18.954610 14420 net.cpp:165] Memory required for data: 247765432
I1206 23:48:18.954614 14420 layer_factory.hpp:77] Creating layer conv9_2_mbox_conf_flat
I1206 23:48:18.954619 14420 net.cpp:100] Creating Layer conv9_2_mbox_conf_flat
I1206 23:48:18.954623 14420 net.cpp:434] conv9_2_mbox_conf_flat <- conv9_2_mbox_conf_perm
I1206 23:48:18.954628 14420 net.cpp:408] conv9_2_mbox_conf_flat -> conv9_2_mbox_conf_flat
I1206 23:48:18.954649 14420 net.cpp:150] Setting up conv9_2_mbox_conf_flat
I1206 23:48:18.954654 14420 net.cpp:157] Top shape: 1 6 (6)
I1206 23:48:18.954658 14420 net.cpp:165] Memory required for data: 247765456
I1206 23:48:18.954661 14420 layer_factory.hpp:77] Creating layer conv9_2_mbox_priorbox
I1206 23:48:18.954666 14420 net.cpp:100] Creating Layer conv9_2_mbox_priorbox
I1206 23:48:18.954670 14420 net.cpp:434] conv9_2_mbox_priorbox <- conv9_2_conv9_2_relu_0_split_2
I1206 23:48:18.954674 14420 net.cpp:434] conv9_2_mbox_priorbox <- data_data_0_split_6
I1206 23:48:18.954679 14420 net.cpp:408] conv9_2_mbox_priorbox -> conv9_2_mbox_priorbox
I1206 23:48:18.954702 14420 net.cpp:150] Setting up conv9_2_mbox_priorbox
I1206 23:48:18.954707 14420 net.cpp:157] Top shape: 1 2 12 (24)
I1206 23:48:18.954710 14420 net.cpp:165] Memory required for data: 247765552
I1206 23:48:18.954715 14420 layer_factory.hpp:77] Creating layer mbox_loc
I1206 23:48:18.954725 14420 net.cpp:100] Creating Layer mbox_loc
I1206 23:48:18.954730 14420 net.cpp:434] mbox_loc <- conv4_3_norm_mbox_loc_flat
I1206 23:48:18.954735 14420 net.cpp:434] mbox_loc <- fc7_mbox_loc_flat
I1206 23:48:18.954748 14420 net.cpp:434] mbox_loc <- conv6_2_mbox_loc_flat
I1206 23:48:18.954753 14420 net.cpp:434] mbox_loc <- conv7_2_mbox_loc_flat
I1206 23:48:18.954757 14420 net.cpp:434] mbox_loc <- conv8_2_mbox_loc_flat
I1206 23:48:18.954761 14420 net.cpp:434] mbox_loc <- conv9_2_mbox_loc_flat
I1206 23:48:18.954766 14420 net.cpp:408] mbox_loc -> mbox_loc
I1206 23:48:18.954793 14420 net.cpp:150] Setting up mbox_loc
I1206 23:48:18.954799 14420 net.cpp:157] Top shape: 1 25224 (25224)
I1206 23:48:18.954802 14420 net.cpp:165] Memory required for data: 247866448
I1206 23:48:18.954805 14420 layer_factory.hpp:77] Creating layer mbox_conf
I1206 23:48:18.954810 14420 net.cpp:100] Creating Layer mbox_conf
I1206 23:48:18.954814 14420 net.cpp:434] mbox_conf <- conv4_3_norm_mbox_conf_flat
I1206 23:48:18.954819 14420 net.cpp:434] mbox_conf <- fc7_mbox_conf_flat
I1206 23:48:18.954824 14420 net.cpp:434] mbox_conf <- conv6_2_mbox_conf_flat
I1206 23:48:18.954828 14420 net.cpp:434] mbox_conf <- conv7_2_mbox_conf_flat
I1206 23:48:18.954831 14420 net.cpp:434] mbox_conf <- conv8_2_mbox_conf_flat
I1206 23:48:18.954835 14420 net.cpp:434] mbox_conf <- conv9_2_mbox_conf_flat
I1206 23:48:18.954840 14420 net.cpp:408] mbox_conf -> mbox_conf
I1206 23:48:18.954864 14420 net.cpp:150] Setting up mbox_conf
I1206 23:48:18.954869 14420 net.cpp:157] Top shape: 1 12612 (12612)
I1206 23:48:18.954872 14420 net.cpp:165] Memory required for data: 247916896
I1206 23:48:18.954875 14420 layer_factory.hpp:77] Creating layer mbox_priorbox
I1206 23:48:18.954879 14420 net.cpp:100] Creating Layer mbox_priorbox
I1206 23:48:18.954883 14420 net.cpp:434] mbox_priorbox <- conv4_3_norm_mbox_priorbox
I1206 23:48:18.954888 14420 net.cpp:434] mbox_priorbox <- fc7_mbox_priorbox
I1206 23:48:18.954892 14420 net.cpp:434] mbox_priorbox <- conv6_2_mbox_priorbox
I1206 23:48:18.954896 14420 net.cpp:434] mbox_priorbox <- conv7_2_mbox_priorbox
I1206 23:48:18.954900 14420 net.cpp:434] mbox_priorbox <- conv8_2_mbox_priorbox
I1206 23:48:18.954903 14420 net.cpp:434] mbox_priorbox <- conv9_2_mbox_priorbox
I1206 23:48:18.954908 14420 net.cpp:408] mbox_priorbox -> mbox_priorbox
I1206 23:48:18.954931 14420 net.cpp:150] Setting up mbox_priorbox
I1206 23:48:18.954936 14420 net.cpp:157] Top shape: 1 2 25224 (50448)
I1206 23:48:18.954939 14420 net.cpp:165] Memory required for data: 248118688
I1206 23:48:18.954943 14420 layer_factory.hpp:77] Creating layer mbox_loss
I1206 23:48:18.954952 14420 net.cpp:100] Creating Layer mbox_loss
I1206 23:48:18.954955 14420 net.cpp:434] mbox_loss <- mbox_loc
I1206 23:48:18.954959 14420 net.cpp:434] mbox_loss <- mbox_conf
I1206 23:48:18.954963 14420 net.cpp:434] mbox_loss <- mbox_priorbox
…
name: "VGG_GTSDB_SSD_300x300_test"
state {
  phase: TEST
}
layer {
  name: "data"
  type: "AnnotatedData"
  top: "data"
  top: "label"
  include {
    phase: TEST
  }
  transform_param {
    mean_value: 104
    mean_value: 117
    mean_value: 123
    resize_param {
      prob: 1
      resize_mode: WARP
      height: 300
      width: 300
      interp_mode: LINEAR
    }
  }
  data_param {
    source: "examples/GTSDB/GTSDB_test_lmdb"
    batch_size: 5
    backend: LMDB
  }
  annotated_data_param {
    batch_sampler {
    }
    label_map_file: "data/GTSDB/labelmap_voc.prototxt"
  }
}
layer {
  name: "conv1_1"
  type: "Convolution"
  bottom: "data"
  top: "conv1_1"
  param {
    lr_mult: 1
    decay_mult: 1
  }
  param {
    lr_mult: 2
    decay_mult: 0
  }
  convolution_param {
    num_output: 64
    pad: 1
    kernel_size: 3
    weight_filler {
      type: "xavier"
    }
    bias_filler {
      type: "constant"
      value: 0
    }
  }
}
layer {
  name: "relu1_1"
  type: "ReLU"
  bottom: "conv1_1"
  top: "conv1_1"
}
layer {
  name: "conv1_2"
  type: "Convolution"
  bottom: "conv1_1"
  top: "conv1_2"
  param {
    lr_mult: 1
    decay_mult: 1
  }
  param {
    lr_mult: 2
    decay_mult: 0
  }
  convolution_param {
    num_output: 64
    pad: 1
    kernel_size: 3
    weight_filler {
      type: "xavier"
    }
    bias_filler {
      type: "constant"
      value: 0
    }
  }
}
layer {
  name: "relu1_2"
  type: "ReLU"
  bottom: "conv1_2"
  top: "conv1_2"
}
layer {
  name: "pool1"
  type: "Pooling"
  bottom: "conv1_2"
  top: "pool1"
  pooling_param {
    pool: MAX
    kernel_size: 2
    stride: 2
  }
}
layer {
  name: "conv2_1"
  type: "Convolution"
  bottom: "pool1"
  top: "conv2_1"
  param {
    lr_mult: 1
    decay_mult: 1
  }
  param {
    lr_mult: 2
    decay_mult: 0
  }
  convolution_param {
    num_output: 128
    pad: 1
    kernel_size: 3
    weight_filler {
      type: "xavier"
    }
    bias_filler {
      type: "constant"
      value: 0
    }
  }
}
layer {
  name: "relu2_1"
  type: "ReLU"
  bottom: "conv2_1"
  top: "conv2_1"
}
layer {
  name: "conv2_2"
  type: "Convolution"
  bottom: "conv2_1"
  top: "conv2_2"
  param {
    lr_mult: 1
    decay_mult: 1
  }
  param {
    lr_mult: 2
    decay_mult: 0
  }
  convolution_param {
    num_output: 128
    pad: 1
    kernel_size: 3
    weight_filler {
      type: "xavier"
    }
    bias_filler {
      type: "constant"
      value: 0
    }
  }
}
layer {
  name: "relu2_2"
  type: "ReLU"
  bottom: "conv2_2"
  top: "conv2_2"
}
layer {
  name: "pool2"
  type: "Pooling"
  bottom: "conv2_2"
  top: "pool2"
  pooling_param {
    pool: MAX
    kernel_size: 2
    stride: 2
  }
}
layer {
  name: "conv3_1"
  type: "Convolution"
  bottom: "pool2"
  top: "conv3_1"
  param {
    lr_mult: 1
    decay_mult: 1
  }
  param {
    lr_mult: 2
    decay_mult: 0
  }
  convolution_param {
    num_output: 256
    pad: 1
    kernel_size: 3
    weight_filler {
      type: "xavier"
    }
    bias_filler {
      type: "constant"
      value: 0
    }
  }
}
layer {
  name: "relu3_1"
  type: "ReLU"
  bottom: "conv3_1"
  top: "conv3_1"
}
layer {
  name: "conv3_2"
  type: "Convolution"
  bottom: "conv3_1"
  top: "conv3_2"
  param {
    lr_mult: 1
    decay_mult: 1
  }
  param {
    lr_mult: 2
    decay_mult: 0
  }
  convolution_param {
    num_output: 256
    pad: 1
    kernel_size: 3
    weight_filler {
      type: "xavier"
    }
    bias_filler {
      type: "constant"
      value: 0
    }
  }
}
layer {
  name: "relu3_2"
  type: "ReLU"
  bottom: "conv3_2"
  top: "conv3_2"
}
layer {
  name: "conv3_3"
  type: "Convolution"
  bottom: "conv3_2"
  top: "conv3_3"
  param {
    lr_mult: 1
    decay_mult: 1
  }
  param {
    lr_mult: 2
    decay_mult: 0
  }
  convolution_param {
    num_output: 256
    pad: 1
    kernel_size: 3
    weight_filler {
      type: "xavier"
    }
    bias_filler {
      type: "constant"
      value: 0
    }
  }
}
layer {
  name: "relu3_3"
  type: "ReLU"
  bottom: "conv3_3"
  top: "conv3_3"
}
layer {
  name: "pool3"
  type: "Pooling"
  bottom: "conv3_3"
  top: "pool3"
  pooling_param {
    pool: MAX
    kernel_size: 2
    stride: 2
  }
}
layer {
  name: "conv4_1"
  type: "Convolution"
  bottom: "pool3"
  top: "conv4_1"
  param {
    lr_mult: 1
    decay_mult: 1
  }
  param {
    lr_mult: 2
    decay_mult: 0
  }
  convolution_param {
    num_output: 512
    pad: 1
    kernel_size: 3
    weight_filler {
      type: "xavier"
    }
    bias_filler {
      type: "constant"
      value: 0
    }
  }
}
layer {
  name: "relu4_1"
  type: "ReLU"
  bottom: "conv4_1"
  top: "conv4_1"
}
layer {
  name: "conv4_2"
  type: "Convolution"
  bottom: "conv4_1"
  top: "conv4_2"
  param {
    lr_mult: 1
    decay_mult: 1
  }
  param {
    lr_mult: 2
    decay_mult: 0
  }
  convolution_param {
    num_output: 512
    pad: 1
    kernel_size: 3
    weight_filler {
      type: "xavier"
    }
    bias_filler {
      type: "constant"
      value: 0
    }
  }
}
layer {
  name: "relu4_2"
  type: "ReLU"
  bottom: "conv4_2"
  top: "conv4_2"
}
layer {
  name: "conv4_3"
  type: "Convolution"
  bottom: "conv4_2"
  top: "conv4_3"
  param {
    lr_mult: 1
    decay_mult: 1
  }
  param {
    lr_mult: 2
    decay_mult: 0
  }
  convolution_param {
    num_output: 512
    pad: 1
    kernel_size: 3
    weight_filler {
      type: "xavier"
    }
    bias_filler {
      type: "constant"
      value: 0
    }
  }
}
layer {
  name: "relu4_3"
  type: "ReLU"
  bottom: "conv4_3"
  top: "conv4_3"
}
layer {
  name: "pool4"
  type: "Pooling"
  bottom: "conv4_3"
  top: "pool4"
  pooling_param {
    pool: MAX
    kernel_size: 2
    stride: 2
  }
}
layer {
  name: "conv5_1"
  type: "Convolution"
  bottom: "pool4"
  top: "conv5_1"
  param {
    lr_mult: 1
    decay_mult: 1
  }
  param {
    lr_mult: 2
    decay_mult: 0
  }
  convolution_param {
    num_output: 512
    pad: 1
    kernel_size: 3
    weight_filler {
      type: "xavier"
    }
    bias_filler {
      type: "constant"
      value: 0
    }
    dilation: 1
  }
}
layer {
  name: "relu5_1"
  type: "ReLU"
  bottom: "conv5_1"
  top: "conv5_1"
}
layer {
  name: "conv5_2"
  type: "Convolution"
  bottom: "conv5_1"
  top: "conv5_2"
  param {
    lr_mult: 1
    decay_mult: 1
  }
  param {
    lr_mult: 2
    decay_mult: 0
  }
  convolution_param {
    num_output: 512
    pad: 1
    kernel_size: 3
    weight_filler {
      type: "xavier"
    }
    bias_filler {
      type: "constant"
      value: 0
    }
    dilation: 1
  }
}
layer {
  name: "relu5_2"
  type: "ReLU"
  bottom: "conv5_2"
  top: "conv5_2"
}
layer {
  name: "conv5_3"
  type: "Convolution"
  bottom: "conv5_2"
  top: "conv5_3"
  param {
    lr_mult: 1
    decay_mult: 1
  }
  param {
    lr_mult: 2
    decay_mult: 0
  }
  convolution_param {
    num_output: 512
    pad: 1
    kernel_size: 3
    weight_filler {
      type: "xavier"
    }
    bias_filler {
      type: "constant"
      value: 0
    }
    dilation: 1
  }
}
layer {
  name: "relu5_3"
  type: "ReLU"
  bottom: "conv5_3"
  top: "conv5_3"
}
layer {
  name: "pool5"
  type: "Pooling"
  bottom: "conv5_3"
  top: "pool5"
  pooling_param {
    pool: MAX
    kernel_size: 3
    stride: 1
    pad: 1
  }
}
layer {
  name: "fc6"
  type: "Convolution"
  bottom: "pool5"
  top: "fc6"
  param {
    lr_mult: 1
    decay_mult: 1
  }
  param {
    lr_mult: 2
    decay_mult: 0
  }
  convolution_param {
    num_output: 1024
    pad: 6
    kernel_size: 3
    weight_filler {
      type: "xavier"
    }
    bias_filler {
      type: "constant"
      value: 0
    }
    dilation: 6
  }
}
layer {
  name: "relu6"
  type: "ReLU"
  bottom: "fc6"
  top: "fc6"
}
layer {
  name: "fc7"
  type: "Convolution"
  bottom: "fc6"
  top: "fc7"
  param {
    lr_mult: 1
    decay_mult: 1
  }
  param {
    lr_mult: 2
    decay_mult: 0
  }
  convolution_param {
    num_output: 1024
    kernel_size: 1
    weight_filler {
      type: "xavier"
    }
    bias_filler {
      type: "constant"
      value: 0
    }
  }
}
layer {
  name: "relu7"
  type: "ReLU"
  bottom: "fc7"
  top: "fc7"
}
layer {
  name: "conv6_1"
  type: "Convolution"
  bottom: "fc7"
  top: "conv6_1"
  param {
    lr_mult: 1
    decay_mult: 1
  }
  param {
    lr_mult: 2
    decay_mult: 0
  }
  convolution_param {
    num_output: 256
    pad: 0
    kernel_size: 1
    stride: 1
    weight_filler {
      type: "xavier"
    }
    bias_filler {
      type: "constant"
      value: 0
    }
  }
}
layer {
  name: "conv6_1_relu"
  type: "ReLU"
  bottom: "conv6_1"
  top: "conv6_1"
}
layer {
  name: "conv6_2"
  type: "Convolution"
  bottom: "conv6_1"
  top: "conv6_2"
  param {
    lr_mult: 1
    decay_mult: 1
  }
  param {
    lr_mult: 2
    decay_mult: 0
  }
  convolution_param {
    num_output: 512
    pad: 1
    kernel_size: 3
    stride: 2
    weight_filler {
      type: "xavier"
    }
    bias_filler {
      type: "constant"
      value: 0
    }
  }
}
layer {
  name: "conv6_2_relu"
  type: "ReLU"
  bottom: "conv6_2"
  top: "conv6_2"
}
layer {
  name: "conv7_1"
  type: "Convolution"
  bottom: "conv6_2"
  top: "conv7_1"
  param {
    lr_mult: 1
    decay_mult: 1
  }
  param {
    lr_mult: 2
    decay_mult: 0
  }
  convolution_param {
    num_output: 128
    pad: 0
    kernel_size: 1
    stride: 1
    weight_filler {
      type: "xavier"
    }
    bias_filler {
      type: "constant"
      value: 0
    }
  }
}
layer {
  name: "conv7_1_relu"
  type: "ReLU"
  bottom: "conv7_1"
  top: "conv7_1"
}
layer {
  name: "conv7_2"
  type: "Convolution"
  bottom: "conv7_1"
  top: "conv7_2"
  param {
    lr_mult: 1
    decay_mult: 1
  }
  param {
    lr_mult: 2
    decay_mult: 0
  }
  convolution_param {
    num_output: 256
    pad: 1
    kernel_size: 3
    stride: 2
    weight_filler {
      type: "xavier"
    }
    bias_filler {
      type: "constant"
      value: 0
    }
  }
}
layer {
  name: "conv7_2_relu"
  type: "ReLU"
  bottom: "conv7_2"
  top: "conv7_2"
}
layer {
  name: "conv8_1"
  type: "Convolution"
  bottom: "conv7_2"
  top: "conv8_1"
  param {
    lr_mult: 1
    decay_mult: 1
  }
  param {
    lr_mult: 2
    decay_mult: 0
  }
  convolution_param {
    num_output: 128
    pad: 0
    kernel_size: 1
    stride: 1
    weight_filler {
      type: "xavier"
    }
    bias_filler {
      type: "constant"
      value: 0
    }
  }
}
layer {
  name: "conv8_1_relu"
  type: "ReLU"
  bottom: "conv8_1"
  top: "conv8_1"
}
layer {
  name: "conv8_2"
  type: "Convolution"
  bottom: "conv8_1"
  top: "conv8_2"
  param {
    lr_mult: 1
    decay_mult: 1
  }
  param {
    lr_mult: 2
    decay_mult: 0
  }
  convolution_param {
    num_output: 256
    pad: 0
    kernel_size: 3
    stride: 1
    weight_filler {
      type: "xavier"
    }
    bias_filler {
      type: "constant"
      value: 0
    }
  }
}
layer {
  name: "conv8_2_relu"
  type: "ReLU"
  bottom: "conv8_2"
  top: "conv8_2"
}
layer {
  name: "conv9_1"
  type: "Convolution"
  bottom: "conv8_2"
  top: "conv9_1"
  param {
    lr_mult: 1
    decay_mult: 1
  }
  param {
    lr_mult: 2
    decay_mult: 0
  }
  convolution_param {
    num_output: 128
    pad: 0
    kernel_size: 1
    stride: 1
    weight_filler {
      type: "xavier"
    }
    bias_filler {
      type: "constant"
      value: 0
    }
  }
}
layer {
  name: "conv9_1_relu"
  type: "ReLU"
  bottom: "conv9_1"
  top: "conv9_1"
}
layer {
  name: "conv9_2"
  type: "Convolution"
  bottom: "conv9_1"
  top: "conv9_2"
  param {
    lr_mult: 1
    decay_mult: 1
  }
  param {
    lr_mult: 2
    decay_mult: 0
  }
  convolution_param {
    num_output: 256
    pad: 0
    kernel_size: 3
    stride: 1
    weight_filler {
      type: "xavier"
    }
    bias_filler {
      type: "constant"
      value: 0
    }
  }
}
layer {
  name: "conv9_2_relu"
  type: "ReLU"
  bottom: "conv9_2"
  top: "conv9_2"
}
layer {
  name: "conv4_3_norm"
  type: "Normalize"
  bottom: "conv4_3"
  top: "conv4_3_norm"
  norm_param {
    across_spatial: false
    scale_filler {
      type: "constant"
      value: 20
    }
    channel_shared: false
  }
}
layer {
  name: "conv4_3_norm_mbox_loc"
  type: "Convolution"
  bottom: "conv4_3_norm"
  top: "conv4_3_norm_mbox_loc"
  param {
    lr_mult: 1
    decay_mult: 1
  }
  param {
    lr_mult: 2
    decay_mult: 0
  }
  convolution_param {
    num_output: 12
    pad: 1
    kernel_size: 3
    stride: 1
    weight_filler {
      type: "xavier"
    }
    bias_filler {
      type: "constant"
      value: 0
    }
  }
}
layer {
  name: "conv4_3_norm_mbox_loc_perm"
  type: "Permute"
  bottom: "conv4_3_norm_mbox_loc"
  top: "conv4_3_norm_mbox_loc_perm"
  permute_param {
    order: 0
    order: 2
    order: 3
    order: 1
  }
}
layer {
  name: "conv4_3_norm_mbox_loc_flat"
  type: "Flatten"
  bottom: "conv4_3_norm_mbox_loc_perm"
  top: "conv4_3_norm_mbox_loc_flat"
  flatten_param {
    axis: 1
  }
}
layer {
  name: "conv4_3_norm_mbox_conf"
  type: "Convolution"
  bottom: "conv4_3_norm"
  top: "conv4_3_norm_mbox_conf"
  param {
    lr_mult: 1
    decay_mult: 1
  }
  param {
    lr_mult: 2
    decay_mult: 0
  }
  convolution_param {
    num_output: 6
    pad: 1
    kernel_size: 3
    stride: 1
    weight_filler {
      type: "xavier"
    }
    bias_filler {
      type: "constant"
      value: 0
    }
  }
}
layer {
  name: "conv4_3_norm_mbox_conf_perm"
  type: "Permute"
  bottom: "conv4_3_norm_mbox_conf"
  top: "conv4_3_norm_mbox_conf_perm"
  permute_param {
    order: 0
    order: 2
    order: 3
    order: 1
  }
}
layer {
  name: "conv4_3_norm_mbox_conf_flat"
  type: "Flatten"
  bottom: "conv4_3_norm_mbox_conf_perm"
  top: "conv4_3_norm_mbox_conf_flat"
  flatten_param {
    axis: 1
  }
}
layer {
  name: "conv4_3_norm_mbox_priorbox"
  type: "PriorBox"
  bottom: "conv4_3_norm"
  bottom: "data"
  top: "conv4_3_norm_mbox_priorbox"
  prior_box_param {
    min_size: 30
    max_size: 60
    aspect_ratio: 2
    flip: false
    clip: false
    variance: 0.1
    variance: 0.1
    variance: 0.2
    variance: 0.2
    step: 8
    offset: 0.5
  }
}
layer {
  name: "fc7_mbox_loc"
  type: "Convolution"
  bottom: "fc7"
  top: "fc7_mbox_loc"
  param {
    lr_mult: 1
    decay_mult: 1
  }
  param {
    lr_mult: 2
    decay_mult: 0
  }
  convolution_param {
    num_output: 16
    pad: 1
    kernel_size: 3
    stride: 1
    weight_filler {
      type: "xavier"
    }
    bias_filler {
      type: "constant"
      value: 0
    }
  }
}
layer {
  name: "fc7_mbox_loc_perm"
  type: "Permute"
  bottom: "fc7_mbox_loc"
  top: "fc7_mbox_loc_perm"
  permute_param {
    order: 0
    order: 2
    order: 3
    order: 1
  }
}
layer {
  name: "fc7_mbox_loc_flat"
  type: "Flatten"
  bottom: "fc7_mbox_loc_perm"
  top: "fc7_mbox_loc_flat"
  flatten_param {
    axis: 1
  }
}
layer {
  name: "fc7_mbox_conf"
  type: "Convolution"
  bottom: "fc7"
  top: "fc7_mbox_conf"
  param {
    lr_mult: 1
    decay_mult: 1
  }
  param {
    lr_mult: 2
    decay_mult: 0
  }
  convolution_param {
    num_output: 8
    pad: 1
    kernel_size: 3
    stride: 1
    weight_filler {
      type: "xavier"
    }
    bias_filler {
      type: "constant"
      value: 0
    }
  }
}
layer {
  name: "fc7_mbox_conf_perm"
  type: "Permute"
  bottom: "fc7_mbox_conf"
  top: "fc7_mbox_conf_perm"
  permute_param {
    order: 0
    order: 2
    order: 3
    order: 1
  }
}
layer {
  name: "fc7_mbox_conf_flat"
  type: "Flatten"
  bottom: "fc7_mbox_conf_perm"
  top: "fc7_mbox_conf_flat"
  flatten_param {
    axis: 1
  }
}
layer {
  name: "fc7_mbox_priorbox"
  type: "PriorBox"
  bottom: "fc7"
  bottom: "data"
  top: "fc7_mbox_priorbox"
  prior_box_param {
    min_size: 60
    max_size: 111
    aspect_ratio: 2
    aspect_ratio: 3
    flip: false
    clip: false
    variance: 0.1
    variance: 0.1
    variance: 0.2
    variance: 0.2
    step: 16
    offset: 0.5
  }
}
layer {
  name: "conv6_2_mbox_loc"
  type: "Convolution"
  bottom: "conv6_2"
  top: "conv6_2_mbox_loc"
  param {
    lr_mult: 1
    decay_mult: 1
  }
  param {
    lr_mult: 2
    decay_mult: 0
  }
  convolution_param {
    num_output: 16
    pad: 1
    kernel_size: 3
    stride: 1
    weight_filler {
      type: "xavier"
    }
    bias_filler {
      type: "constant"
      value: 0
    }
  }
}
layer {
  name: "conv6_2_mbox_loc_perm"
  type: "Permute"
  bottom: "conv6_2_mbox_loc"
  top: "conv6_2_mbox_loc_perm"
  permute_param {
    order: 0
    order: 2
    order: 3
    order: 1
  }
}
layer {
  name: "conv6_2_mbox_loc_flat"
  type: "Flatten"
  bottom: "conv6_2_mbox_loc_perm"
  top: "conv6_2_mbox_loc_flat"
  flatten_param {
    axis: 1
  }
}
layer {
  name: "conv6_2_mbox_conf"
  type: "Convolution"
  bottom: "conv6_2"
  top: "conv6_2_mbox_conf"
  param {
    lr_mult: 1
    decay_mult: 1
  }
  param {
    lr_mult: 2
    decay_mult: 0
  }
  convolution_param {
    num_output: 8
    pad: 1
    kernel_size: 3
    stride: 1
    weight_filler {
      type: "xavier"
    }
    bias_filler {
      type: "constant"
      value: 0
    }
  }
}
layer {
  name: "conv6_2_mbox_conf_perm"
  type: "Permute"
  bottom: "conv6_2_mbox_conf"
  top: "conv6_2_mbox_conf_perm"
  permute_param {
    order: 0
    order: 2
    order: 3
    order: 1
  }
}
layer {
  name: "conv6_2_mbox_conf_flat"
  type: "Flatten"
  bottom: "conv6_2_mbox_conf_perm"
  top: "conv6_2_mbox_conf_flat"
  flatten_param {
    axis: 1
  }
}
layer {
  name: "conv6_2_mbox_priorbox"
  type: "PriorBox"
  bottom: "conv6_2"
  bottom: "data"
  top: "conv6_2_mbox_priorbox"
  prior_box_param {
    min_size: 111
    max_size: 162
    aspect_ratio: 2
    aspect_ratio: 3
    flip: false
    clip: false
    variance: 0.1
    variance: 0.1
    variance: 0.2
    variance: 0.2
    step: 32
    offset: 0.5
  }
}
layer {
  name: "conv7_2_mbox_loc"
  type: "Convolution"
  bottom: "conv7_2"
  top: "conv7_2_mbox_loc"
  param {
    lr_mult: 1
    decay_mult: 1
  }
  param {
    lr_mult: 2
    decay_mult: 0
  }
  convolution_param {
    num_output: 16
    pad: 1
    kernel_size: 3
    stride: 1
    weight_filler {
      type: "xavier"
    }
    bias_filler {
      type: "constant"
      value: 0
    }
  }
}
layer {
  name: "conv7_2_mbox_loc_perm"
  type: "Permute"
  bottom: "conv7_2_mbox_loc"
  top: "conv7_2_mbox_loc_perm"
  permute_param {
    order: 0
    order: 2
    order: 3
    order: 1
  }
}
layer {
  name: "conv7_2_mbox_loc_flat"
  type: "Flatten"
  bottom: "conv7_2_mbox_loc_perm"
  top: "conv7_2_mbox_loc_flat"
  flatten_param {
    axis: 1
  }
}
layer {
  name: "conv7_2_mbox_conf"
  type: "Convolution"
  bottom: "conv7_2"
  top: "conv7_2_mbox_conf"
  param {
    lr_mult: 1
    decay_mult: 1
  }
  param {
    lr_mult: 2
    decay_mult: 0
  }
  convolution_param {
    num_output: 8
    pad: 1
    kernel_size: 3
    stride: 1
    weight_filler {
      type: "xavier"
    }
    bias_filler {
      type: "constant"
      value: 0
    }
  }
}
layer {
  name: "conv7_2_mbox_conf_perm"
  type: "Permute"
  bottom: "conv7_2_mbox_conf"
  top: "conv7_2_mbox_conf_perm"
  permute_param {
    order: 0
    order: 2
    order: 3
    order: 1
  }
}
layer {
  name: "conv7_2_mbox_conf_flat"
  type: "Flatten"
  bottom: "conv7_2_mbox_conf_perm"
  top: "conv7_2_mbox_conf_flat"
  flatten_param {
    axis: 1
  }
}
layer {
  name: "conv7_2_mbox_priorbox"
  type: "PriorBox"
  bottom: "conv7_2"
  bottom: "data"
  top: "conv7_2_mbox_priorbox"
  prior_box_param {
    min_size: 162
    max_size: 213
    aspect_ratio: 2
    aspect_ratio: 3
    flip: false
    clip: false
    variance: 0.1
    variance: 0.1
    variance: 0.2
    variance: 0.2
    step: 64
    offset: 0.5
  }
}
layer {
  name: "conv8_2_mbox_loc"
  type: "Convolution"
  bottom: "conv8_2"
  top: "conv8_2_mbox_loc"
  param {
    lr_mult: 1
    decay_mult: 1
  }
  param {
    lr_mult: 2
    decay_mult: 0
  }
  convolution_param {
    num_output: 12
    pad: 1
    kernel_size: 3
    stride: 1
    weight_filler {
      type: "xavier"
    }
    bias_filler {
      type: "constant"
      value: 0
    }
  }
}
layer {
  name: "conv8_2_mbox_loc_perm"
  type: "Permute"
  bottom: "conv8_2_mbox_loc"
  top: "conv8_2_mbox_loc_perm"
  permute_param {
    order: 0
    order: 2
    order: 3
    order: 1
  }
}
layer {
  name: "conv8_2_mbox_loc_flat"
  type: "Flatten"
  bottom: "conv8_2_mbox_loc_perm"
  top: "conv8_2_mbox_loc_flat"
  flatten_param {
    axis: 1
  }
}
layer {
  name: "conv8_2_mbox_conf"
  type: "Convolution"
  bottom: "conv8_2"
  top: "conv8_2_mbox_conf"
  param {
    lr_mult: 1
    decay_mult: 1
  }
  param {
    lr_mult: 2
    decay_mult: 0
  }
  convolution_param {
    num_output: 6
    pad: 1
    kernel_size: 3
    stride: 1
    weight_filler {
      type: "xavier"
    }
    bias_filler {
      type: "constant"
      value: 0
    }
  }
}
layer {
  name: "conv8_2_mbox_conf_perm"
  type: "Permute"
  bottom: "conv8_2_mbox_conf"
  top: "conv8_2_mbox_conf_perm"
  permute_param {
    order: 0
    order: 2
    order: 3
    order: 1
  }
}
layer {
  name: "conv8_2_mbox_conf_flat"
  type: "Flatten"
  bottom: "conv8_2_mbox_conf_perm"
  top: "conv8_2_mbox_conf_flat"
  flatten_param {
    axis: 1
  }
}
layer {
  name: "conv8_2_mbox_priorbox"
  type: "PriorBox"
  bottom: "conv8_2"
  bottom: "data"
  top: "conv8_2_mbox_priorbox"
  prior_box_param {
    min_size: 213
    max_size: 264
    aspect_ratio: 2
    flip: false
    clip: false
    variance: 0.1
    variance: 0.1
    variance: 0.2
    variance: 0.2
    step: 100
    offset: 0.5
  }
}
layer {
  name: "conv9_2_mbox_loc"
  type: "Convolution"
  bottom: "conv9_2"
  top: "conv9_2_mbox_loc"
  param {
    lr_mult: 1
    decay_mult: 1
  }
  param {
    lr_mult: 2
    decay_mult: 0
  }
  convolution_param {
    num_output: 12
    pad: 1
    kernel_size: 3
    stride: 1
    weight_filler {
      type: "xavier"
    }
    bias_filler {
      type: "constant"
      value: 0
    }
  }
}
layer {
  name: "conv9_2_mbox_loc_perm"
  type: "Permute"
  bottom: "conv9_2_mbox_loc"
  top: "conv9_2_mbox_loc_perm"
  permute_param {
    order: 0
    order: 2
    order: 3
    order: 1
  }
}
layer {
  name: "conv9_2_mbox_loc_flat"
  type: "Flatten"
  bottom: "conv9_2_mbox_loc_perm"
  top: "conv9_2_mbox_loc_flat"
  flatten_param {
    axis: 1
  }
}
layer {
  name: "conv9_2_mbox_conf"
  type: "Convolution"
  bottom: "conv9_2"
  top: "conv9_2_mbox_conf"
  param {
    lr_mult: 1
    decay_mult: 1
  }
  param {
    lr_mult: 2
    decay_mult: 0
  }
  convolution_param {
    num_output: 6
    pad: 1
    kernel_size: 3
    stride: 1
    weight_filler {
      type: "xavier"
    }
    bias_filler {
      type: "constant"
      value: 0
    }
  }
}
layer {
  name: "conv9_2_mbox_conf_perm"
  type: "Permute"
  bottom: "conv9_2_mbox_conf"
  top: "conv9_2_mbox_conf_perm"
  permute_param {
    order: 0
    order: 2
    order: 3
    order: 1
  }
}
layer {
  name: "conv9_2_mbox_conf_flat"
  type: "Flatten"
  bottom: "conv9_2_mbox_conf_perm"
  top: "conv9_2_mbox_conf_flat"
  flatten_param {
    axis: 1
  }
}
layer {
  name: "conv9_2_mbox_priorbox"
  type: "PriorBox"
  bottom: "conv9_2"
  bottom: "data"
  top: "conv9_2_mbox_priorbox"
  prior_box_param {
    min_size: 264
    max_size: 315
    aspect_ratio: 2
    flip: false
    clip: false
    variance: 0.1
    variance: 0.1
    variance: 0.2
    variance: 0.2
    step: 300
    offset: 0.5
  }
}
layer {
  name: "mbox_loc"
  type: "Concat"
  bottom: "conv4_3_norm_mbox_loc_flat"
  bottom: "fc7_mbox_loc_flat"
  bottom: "conv6_2_mbox_loc_flat"
  bottom: "conv7_2_mbox_loc_flat"
  bottom: "conv8_2_mbox_loc_flat"
  bottom: "conv9_2_mbox_loc_flat"
  top: "mbox_loc"
  concat_param {
    axis: 1
  }
}
layer {
  name: "mbox_conf"
  type: "Concat"
  bottom: "conv4_3_norm_mbox_conf_flat"
  bottom: "fc7_mbox_conf_flat"
  bottom: "conv6_2_mbox_conf_flat"
  bottom: "conv7_2_mbox_conf_flat"
  bottom: "conv8_2_mbox_conf_flat"
  bottom: "conv9_2_mbox_conf_flat"
  top: "mbox_conf"
  concat_param {
    axis: 1
  }
}
layer {
  name: "mbox_priorbox"
  type: "Concat"
  bottom: "conv4_3_norm_mbox_priorbox"
  bottom: "fc7_mbox_priorbox"
  bottom: "conv6_2_mbox_priorbox"
  bottom: "conv7_2_mbox_priorbox"
  bottom: "conv8_2_mbox_priorbox"
  bottom: "conv9_2_mbox_priorbox"
  top: "mbox_priorbox"
  concat_param {
    axis: 2
  }
}
layer {
  name: "mbox_conf_reshape"
  type: "Reshape"
  bottom: "mbox_conf"
  top: "mbox_conf_reshape"
  reshape_param {
    shape {
      dim: 0
      dim: -1
      dim: 2
    }
  }
}
layer {
  name: "mbox_conf_softmax"
  type: "Softmax"
  bottom: "mbox_conf_reshape"
  top: "mbox_conf_softmax"
  softmax_param {
    axis: 2
  }
}
layer {
  name: "mbox_conf_flatten"
  type: "Flatten"
  bottom: "mbox_conf_softmax"
  top: "mbox_conf_flatten"
  flatten_param {
    axis: 1
  }
}
layer {
  name: "detection_out"
  type: "DetectionOutput"
  bottom: "mbox_loc"
  bottom: "mbox_conf_flatten"
  bottom: "mbox_priorbox"
  top: "detection_out"
  include {
    phase: TEST
  }
  detection_output_param {
    num_classes: 2
    share_location: true
    background_label_id: 0
    nms_param {
      nms_threshold: 0.45
      top_k: 400
    }
    save_output_param {
      output_directory: "results/GTSDB/SSD_300x300/Main"
      output_name_prefix: "comp4_det_test_"
      output_format: "VOC"
      label_map_file: "data/GTSDB/labelmap_voc.prototxt"
      name_size_file: "data/GTSDB/test_name_size.txt"
      num_test_image: 235
    }
    code_type: CENTER_SIZE
    keep_top_k: 200
    confidence_threshold: 0.01
  }
}
layer {
  name: "detection_eval"
  type: "DetectionEvaluate"
  bottom: "detection_out"
  bottom: "label"
  top: "detection_eval"
  include {
    phase: TEST
  }
  detection_evaluate_param {
    num_classes: 2
    background_label_id: 0
    overlap_threshold: 0.5
    evaluate_difficult_gt: false
    name_size_file: "data/GTSDB/test_name_size.txt"
  }
}
I1206 23:48:18.959040 14420 layer_factory.hpp:77] Creating layer data
I1206 23:48:18.959089 14420 net.cpp:100] Creating Layer data
I1206 23:48:18.959097 14420 net.cpp:408] data -> data
I1206 23:48:18.959105 14420 net.cpp:408] data -> label
I1206 23:48:18.959712 14428 db_lmdb.cpp:35] Opened lmdb examples/GTSDB/GTSDB_test_lmdb
I1206 23:48:18.964334 14420 annotated_data_layer.cpp:62] output data size: 5,3,300,300
I1206 23:48:18.971458 14420 net.cpp:150] Setting up data
I1206 23:48:18.971505 14420 net.cpp:157] Top shape: 5 3 300 300 (1350000)
I1206 23:48:18.971511 14420 net.cpp:157] Top shape: 1 1 1 8 (8)
I1206 23:48:18.971514 14420 net.cpp:165] Memory required for data: 5400032
I1206 23:48:18.971539 14420 layer_factory.hpp:77] Creating layer data_data_0_split
I1206 23:48:18.971562 14420 net.cpp:100] Creating Layer data_data_0_split
I1206 23:48:18.971582 14420 net.cpp:434] data_data_0_split <- data
I1206 23:48:18.971590 14420 net.cpp:408] data_data_0_split -> data_data_0_split_0
I1206 23:48:18.971599 14420 net.cpp:408] data_data_0_split -> data_data_0_split_1
I1206 23:48:18.971606 14420 net.cpp:408] data_data_0_split -> data_data_0_split_2
I1206 23:48:18.971611 14420 net.cpp:408] data_data_0_split -> data_data_0_split_3
I1206 23:48:18.971617 14420 net.cpp:408] data_data_0_split -> data_data_0_split_4
I1206 23:48:18.971622 14420 net.cpp:408] data_data_0_split -> data_data_0_split_5
I1206 23:48:18.971627 14420 net.cpp:408] data_data_0_split -> data_data_0_split_6
I1206 23:48:18.971910 14420 net.cpp:150] Setting up data_data_0_split
I1206 23:48:18.971918 14420 net.cpp:157] Top shape: 5 3 300 300 (1350000)
I1206 23:48:18.971923 14420 net.cpp:157] Top shape: 5 3 300 300 (1350000)
I1206 23:48:18.971927 14420 net.cpp:157] Top shape: 5 3 300 300 (1350000)
I1206 23:48:18.971931 14420 net.cpp:157] Top shape: 5 3 300 300 (1350000)
I1206 23:48:18.971935 14420 net.cpp:157] Top shape: 5 3 300 300 (1350000)
I1206 23:48:18.971940 14420 net.cpp:157] Top shape: 5 3 300 300 (1350000)
I1206 23:48:18.971943 14420 net.cpp:157] Top shape: 5 3 300 300 (1350000)
I1206 23:48:18.971946 14420 net.cpp:165] Memory required for data: 43200032
I1206 23:48:18.971951 14420 layer_factory.hpp:77] Creating layer conv1_1
I1206 23:48:18.971961 14420 net.cpp:100] Creating Layer conv1_1
I1206 23:48:18.971966 14420 net.cpp:434] conv1_1 <- data_data_0_split_0
I1206 23:48:18.971971 14420 net.cpp:408] conv1_1 -> conv1_1
I1206 23:48:18.973805 14420 net.cpp:150] Setting up conv1_1
I1206 23:48:18.973827 14420 net.cpp:157] Top shape: 5 64 300 300 (28800000)
I1206 23:48:18.973850 14420 net.cpp:165] Memory required for data: 158400032
I1206 23:48:18.973862 14420 layer_factory.hpp:77] Creating layer relu1_1
I1206 23:48:18.973871 14420 net.cpp:100] Creating Layer relu1_1
I1206 23:48:18.973876 14420 net.cpp:434] relu1_1 <- conv1_1
I1206 23:48:18.973881 14420 net.cpp:395] relu1_1 -> conv1_1 (in-place)
I1206 23:48:18.974057 14420 net.cpp:150] Setting up relu1_1
I1206 23:48:18.974064 14420 net.cpp:157] Top shape: 5 64 300 300 (28800000)
I1206 23:48:18.974068 14420 net.cpp:165] Memory required for data: 273600032
I1206 23:48:18.974072 14420 layer_factory.hpp:77] Creating layer conv1_2
I1206 23:48:18.974086 14420 net.cpp:100] Creating Layer conv1_2
I1206 23:48:18.974088 14420 net.cpp:434] conv1_2 <- conv1_1
I1206 23:48:18.974094 14420 net.cpp:408] conv1_2 -> conv1_2
I1206 23:48:18.975543 14420 net.cpp:150] Setting up conv1_2
I1206 23:48:18.975570 14420 net.cpp:157] Top shape: 5 64 300 300 (28800000)
I1206 23:48:18.975574 14420 net.cpp:165] Memory required for data: 388800032
I1206 23:48:18.975587 14420 layer_factory.hpp:77] Creating layer relu1_2
I1206 23:48:18.975597 14420 net.cpp:100] Creating Layer relu1_2
I1206 23:48:18.975601 14420 net.cpp:434] relu1_2 <- conv1_2
I1206 23:48:18.975607 14420 net.cpp:395] relu1_2 -> conv1_2 (in-place)
I1206 23:48:18.975880 14420 net.cpp:150] Setting up relu1_2
I1206 23:48:18.975891 14420 net.cpp:157] Top shape: 5 64 300 300 (28800000)
I1206 23:48:18.975895 14420 net.cpp:165] Memory required for data: 504000032
I1206 23:48:18.975898 14420 layer_factory.hpp:77] Creating layer pool1
I1206 23:48:18.975908 14420 net.cpp:100] Creating Layer pool1
I1206 23:48:18.975913 14420 net.cpp:434] pool1 <- conv1_2
I1206 23:48:18.975919 14420 net.cpp:408] pool1 -> pool1
I1206 23:48:18.975980 14420 net.cpp:150] Setting up pool1
I1206 23:48:18.975986 14420 net.cpp:157] Top shape: 5 64 150 150 (7200000)
I1206 23:48:18.975988 14420 net.cpp:165] Memory required for data: 532800032
I1206 23:48:18.975992 14420 layer_factory.hpp:77] Creating layer conv2_1
I1206 23:48:18.976004 14420 net.cpp:100] Creating Layer conv2_1
I1206 23:48:18.976008 14420 net.cpp:434] conv2_1 <- pool1
I1206 23:48:18.976013 14420 net.cpp:408] conv2_1 -> conv2_1
I1206 23:48:18.977948 14420 net.cpp:150] Setting up conv2_1
I1206 23:48:18.977970 14420 net.cpp:157] Top shape: 5 128 150 150 (14400000)
I1206 23:48:18.977974 14420 net.cpp:165] Memory required for data: 590400032
I1206 23:48:18.977987 14420 layer_factory.hpp:77] Creating layer relu2_1
I1206 23:48:18.977996 14420 net.cpp:100] Creating Layer relu2_1
I1206 23:48:18.978001 14420 net.cpp:434] relu2_1 <- conv2_1
I1206 23:48:18.978008 14420 net.cpp:395] relu2_1 -> conv2_1 (in-place)
I1206 23:48:18.978291 14420 net.cpp:150] Setting up relu2_1
I1206 23:48:18.978301 14420 net.cpp:157] Top shape: 5 128 150 150 (14400000)
I1206 23:48:18.978304 14420 net.cpp:165] Memory required for data: 648000032
I1206 23:48:18.978307 14420 layer_factory.hpp:77] Creating layer conv2_2
I1206 23:48:18.978318 14420 net.cpp:100] Creating Layer conv2_2
I1206 23:48:18.978322 14420 net.cpp:434] conv2_2 <- conv2_1
I1206 23:48:18.978328 14420 net.cpp:408] conv2_2 -> conv2_2
I1206 23:48:18.981667 14420 net.cpp:150] Setting up conv2_2
I1206 23:48:18.981698 14420 net.cpp:157] Top shape: 5 128 150 150 (14400000)
I1206 23:48:18.981703 14420 net.cpp:165] Memory required for data: 705600032
I1206 23:48:18.981714 14420 layer_factory.hpp:77] Creating layer relu2_2
I1206 23:48:18.981725 14420 net.cpp:100] Creating Layer relu2_2
I1206 23:48:18.981731 14420 net.cpp:434] relu2_2 <- conv2_2
I1206 23:48:18.981739 14420 net.cpp:395] relu2_2 -> conv2_2 (in-place)
I1206 23:48:18.981986 14420 net.cpp:150] Setting up relu2_2
I1206 23:48:18.981995 14420 net.cpp:157] Top shape: 5 128 150 150 (14400000)
I1206 23:48:18.981999 14420 net.cpp:165] Memory required for data: 763200032
I1206 23:48:18.982004 14420 layer_factory.hpp:77] Creating layer pool2
I1206 23:48:18.982013 14420 net.cpp:100] Creating Layer pool2
I1206 23:48:18.982018 14420 net.cpp:434] pool2 <- conv2_2
I1206 23:48:18.982024 14420 net.cpp:408] pool2 -> pool2
I1206 23:48:18.982115 14420 net.cpp:150] Setting up pool2
I1206 23:48:18.982123 14420 net.cpp:157] Top shape: 5 128 75 75 (3600000)
I1206 23:48:18.982127 14420 net.cpp:165] Memory required for data: 777600032
I1206 23:48:18.982131 14420 layer_factory.hpp:77] Creating layer conv3_1
I1206 23:48:18.982143 14420 net.cpp:100] Creating Layer conv3_1
I1206 23:48:18.982147 14420 net.cpp:434] conv3_1 <- pool2
I1206 23:48:18.982154 14420 net.cpp:408] conv3_1 -> conv3_1
I1206 23:48:18.986256 14420 net.cpp:150] Setting up conv3_1
I1206 23:48:18.986286 14420 net.cpp:157] Top shape: 5 256 75 75 (7200000)
I1206 23:48:18.986291 14420 net.cpp:165] Memory required for data: 806400032
I1206 23:48:18.986305 14420 layer_factory.hpp:77] Creating layer relu3_1
I1206 23:48:18.986316 14420 net.cpp:100] Creating Layer relu3_1
I1206 23:48:18.986321 14420 net.cpp:434] relu3_1 <- conv3_1
I1206 23:48:18.986328 14420 net.cpp:395] relu3_1 -> conv3_1 (in-place)
I1206 23:48:18.986650 14420 net.cpp:150] Setting up relu3_1
I1206 23:48:18.986665 14420 net.cpp:157] Top shape: 5 256 75 75 (7200000)
I1206 23:48:18.986671 14420 net.cpp:165] Memory required for data: 835200032
I1206 23:48:18.986677 14420 layer_factory.hpp:77] Creating layer conv3_2
I1206 23:48:18.986695 14420 net.cpp:100] Creating Layer conv3_2
I1206 23:48:18.986701 14420 net.cpp:434] conv3_2 <- conv3_1
I1206 23:48:18.986711 14420 net.cpp:408] conv3_2 -> conv3_2
I1206 23:48:18.992331 14420 net.cpp:150] Setting up conv3_2
I1206 23:48:18.992354 14420 net.cpp:157] Top shape: 5 256 75 75 (7200000)
I1206 23:48:18.992358 14420 net.cpp:165] Memory required for data: 864000032
I1206 23:48:18.992365 14420 layer_factory.hpp:77] Creating layer relu3_2
I1206 23:48:18.992373 14420 net.cpp:100] Creating Layer relu3_2
I1206 23:48:18.992377 14420 net.cpp:434] relu3_2 <- conv3_2
I1206 23:48:18.992383 14420 net.cpp:395] relu3_2 -> conv3_2 (in-place)
I1206 23:48:18.992604 14420 net.cpp:150] Setting up relu3_2
I1206 23:48:18.992611 14420 net.cpp:157] Top shape: 5 256 75 75 (7200000)
I1206 23:48:18.992614 14420 net.cpp:165] Memory required for data: 892800032
I1206 23:48:18.992617 14420 layer_factory.hpp:77] Creating layer conv3_3
I1206 23:48:18.992627 14420 net.cpp:100] Creating Layer conv3_3
I1206 23:48:18.992630 14420 net.cpp:434] conv3_3 <- conv3_2
I1206 23:48:18.992635 14420 net.cpp:408] conv3_3 -> conv3_3
I1206 23:48:18.997308 14420 net.cpp:150] Setting up conv3_3
I1206 23:48:18.997318 14420 net.cpp:157] Top shape: 5 256 75 75 (7200000)
I1206 23:48:18.997321 14420 net.cpp:165] Memory required for data: 921600032
I1206 23:48:18.997326 14420 layer_factory.hpp:77] Creating layer relu3_3
I1206 23:48:18.997331 14420 net.cpp:100] Creating Layer relu3_3
I1206 23:48:18.997334 14420 net.cpp:434] relu3_3 <- conv3_3
I1206 23:48:18.997339 14420 net.cpp:395] relu3_3 -> conv3_3 (in-place)
I1206 23:48:18.997565 14420 net.cpp:150] Setting up relu3_3
I1206 23:48:18.997573 14420 net.cpp:157] Top shape: 5 256 75 75 (7200000)
I1206 23:48:18.997575 14420 net.cpp:165] Memory required for data: 950400032
I1206 23:48:18.997578 14420 layer_factory.hpp:77] Creating layer pool3
I1206 23:48:18.997584 14420 net.cpp:100] Creating Layer pool3
I1206 23:48:18.997587 14420 net.cpp:434] pool3 <- conv3_3
I1206 23:48:18.997591 14420 net.cpp:408] pool3 -> pool3
I1206 23:48:18.997634 14420 net.cpp:150] Setting up pool3
I1206 23:48:18.997638 14420 net.cpp:157] Top shape: 5 256 38 38 (1848320)
I1206 23:48:18.997642 14420 net.cpp:165] Memory required for data: 957793312
I1206 23:48:18.997643 14420 layer_factory.hpp:77] Creating layer conv4_1
I1206 23:48:18.997650 14420 net.cpp:100] Creating Layer conv4_1
I1206 23:48:18.997653 14420 net.cpp:434] conv4_1 <- pool3
I1206 23:48:18.997658 14420 net.cpp:408] conv4_1 -> conv4_1
I1206 23:48:19.005854 14420 net.cpp:150] Setting up conv4_1
I1206 23:48:19.005872 14420 net.cpp:157] Top shape: 5 512 38 38 (3696640)
I1206 23:48:19.005874 14420 net.cpp:165] Memory required for data: 972579872
I1206 23:48:19.005880 14420 layer_factory.hpp:77] Creating layer relu4_1
I1206 23:48:19.005885 14420 net.cpp:100] Creating Layer relu4_1
I1206 23:48:19.005904 14420 net.cpp:434] relu4_1 <- conv4_1
I1206 23:48:19.005909 14420 net.cpp:395] relu4_1 -> conv4_1 (in-place)
I1206 23:48:19.006142 14420 net.cpp:150] Setting up relu4_1
I1206 23:48:19.006150 14420 net.cpp:157] Top shape: 5 512 38 38 (3696640)
I1206 23:48:19.006153 14420 net.cpp:165] Memory required for data: 987366432
I1206 23:48:19.006156 14420 layer_factory.hpp:77] Creating layer conv4_2
I1206 23:48:19.006163 14420 net.cpp:100] Creating Layer conv4_2
I1206 23:48:19.006166 14420 net.cpp:434] conv4_2 <- conv4_1
I1206 23:48:19.006170 14420 net.cpp:408] conv4_2 -> conv4_2
I1206 23:48:19.021898 14420 net.cpp:150] Setting up conv4_2
I1206 23:48:19.021916 14420 net.cpp:157] Top shape: 5 512 38 38 (3696640)
I1206 23:48:19.021920 14420 net.cpp:165] Memory required for data: 1002152992
I1206 23:48:19.021929 14420 layer_factory.hpp:77] Creating layer relu4_2
I1206 23:48:19.021937 14420 net.cpp:100] Creating Layer relu4_2
I1206 23:48:19.021940 14420 net.cpp:434] relu4_2 <- conv4_2
I1206 23:48:19.021945 14420 net.cpp:395] relu4_2 -> conv4_2 (in-place)
I1206 23:48:19.022176 14420 net.cpp:150] Setting up relu4_2
I1206 23:48:19.022184 14420 net.cpp:157] Top shape: 5 512 38 38 (3696640)
I1206 23:48:19.022186 14420 net.cpp:165] Memory required for data: 1016939552
I1206 23:48:19.022189 14420 layer_factory.hpp:77] Creating layer conv4_3
I1206 23:48:19.022197 14420 net.cpp:100] Creating Layer conv4_3
I1206 23:48:19.022200 14420 net.cpp:434] conv4_3 <- conv4_2
I1206 23:48:19.022204 14420 net.cpp:408] conv4_3 -> conv4_3
I1206 23:48:19.037464 14420 net.cpp:150] Setting up conv4_3
I1206 23:48:19.037483 14420 net.cpp:157] Top shape: 5 512 38 38 (3696640)
I1206 23:48:19.037487 14420 net.cpp:165] Memory required for data: 1031726112
I1206 23:48:19.037493 14420 layer_factory.hpp:77] Creating layer relu4_3
I1206 23:48:19.037500 14420 net.cpp:100] Creating Layer relu4_3
I1206 23:48:19.037504 14420 net.cpp:434] relu4_3 <- conv4_3
I1206 23:48:19.037509 14420 net.cpp:395] relu4_3 -> conv4_3 (in-place)
I1206 23:48:19.037648 14420 net.cpp:150] Setting up relu4_3
I1206 23:48:19.037654 14420 net.cpp:157] Top shape: 5 512 38 38 (3696640)
I1206 23:48:19.037657 14420 net.cpp:165] Memory required for data: 1046512672
I1206 23:48:19.037659 14420 layer_factory.hpp:77] Creating layer conv4_3_relu4_3_0_split
I1206 23:48:19.037664 14420 net.cpp:100] Creating Layer conv4_3_relu4_3_0_split
I1206 23:48:19.037667 14420 net.cpp:434] conv4_3_relu4_3_0_split <- conv4_3
I1206 23:48:19.037670 14420 net.cpp:408] conv4_3_relu4_3_0_split -> conv4_3_relu4_3_0_split_0
I1206 23:48:19.037675 14420 net.cpp:408] conv4_3_relu4_3_0_split -> conv4_3_relu4_3_0_split_1
I1206 23:48:19.037715 14420 net.cpp:150] Setting up conv4_3_relu4_3_0_split
I1206 23:48:19.037719 14420 net.cpp:157] Top shape: 5 512 38 38 (3696640)
I1206 23:48:19.037724 14420 net.cpp:157] Top shape: 5 512 38 38 (3696640)
I1206 23:48:19.037725 14420 net.cpp:165] Memory required for data: 1076085792
I1206 23:48:19.037727 14420 layer_factory.hpp:77] Creating layer pool4
I1206 23:48:19.037732 14420 net.cpp:100] Creating Layer pool4
I1206 23:48:19.037734 14420 net.cpp:434] pool4 <- conv4_3_relu4_3_0_split_0
I1206 23:48:19.037739 14420 net.cpp:408] pool4 -> pool4
I1206 23:48:19.037775 14420 net.cpp:150] Setting up pool4
I1206 23:48:19.037780 14420 net.cpp:157] Top shape: 5 512 19 19 (924160)
I1206 23:48:19.037782 14420 net.cpp:165] Memory required for data: 1079782432
I1206 23:48:19.037784 14420 layer_factory.hpp:77] Creating layer conv5_1
I1206 23:48:19.037792 14420 net.cpp:100] Creating Layer conv5_1
I1206 23:48:19.037796 14420 net.cpp:434] conv5_1 <- pool4
I1206 23:48:19.037799 14420 net.cpp:408] conv5_1 -> conv5_1
I1206 23:48:19.053699 14420 net.cpp:150] Setting up conv5_1
I1206 23:48:19.053719 14420 net.cpp:157] Top shape: 5 512 19 19 (924160)
I1206 23:48:19.053724 14420 net.cpp:165] Memory required for data: 1083479072
I1206 23:48:19.053730 14420 layer_factory.hpp:77] Creating layer relu5_1
I1206 23:48:19.053736 14420 net.cpp:100] Creating Layer relu5_1
I1206 23:48:19.053756 14420 net.cpp:434] relu5_1 <- conv5_1
I1206 23:48:19.053761 14420 net.cpp:395] relu5_1 -> conv5_1 (in-place)
I1206 23:48:19.053987 14420 net.cpp:150] Setting up relu5_1
I1206 23:48:19.053995 14420 net.cpp:157] Top shape: 5 512 19 19 (924160)
I1206 23:48:19.053997 14420 net.cpp:165] Memory required for data: 1087175712
I1206 23:48:19.054000 14420 layer_factory.hpp:77] Creating layer conv5_2
I1206 23:48:19.054008 14420 net.cpp:100] Creating Layer conv5_2
I1206 23:48:19.054011 14420 net.cpp:434] conv5_2 <- conv5_1
I1206 23:48:19.054015 14420 net.cpp:408] conv5_2 -> conv5_2
I1206 23:48:19.069594 14420 net.cpp:150] Setting up conv5_2
I1206 23:48:19.069613 14420 net.cpp:157] Top shape: 5 512 19 19 (924160)
I1206 23:48:19.069617 14420 net.cpp:165] Memory required for data: 1090872352
I1206 23:48:19.069623 14420 layer_factory.hpp:77] Creating layer relu5_2
I1206 23:48:19.069630 14420 net.cpp:100] Creating Layer relu5_2
I1206 23:48:19.069634 14420 net.cpp:434] relu5_2 <- conv5_2
I1206 23:48:19.069639 14420 net.cpp:395] relu5_2 -> conv5_2 (in-place)
I1206 23:48:19.069880 14420 net.cpp:150] Setting up relu5_2
I1206 23:48:19.069887 14420 net.cpp:157] Top shape: 5 512 19 19 (924160)
I1206 23:48:19.069890 14420 net.cpp:165] Memory required for data: 1094568992
I1206 23:48:19.069892 14420 layer_factory.hpp:77] Creating layer conv5_3
I1206 23:48:19.069900 14420 net.cpp:100] Creating Layer conv5_3
I1206 23:48:19.069903 14420 net.cpp:434] conv5_3 <- conv5_2
I1206 23:48:19.069908 14420 net.cpp:408] conv5_3 -> conv5_3
I1206 23:48:19.085242 14420 net.cpp:150] Setting up conv5_3
I1206 23:48:19.085264 14420 net.cpp:157] Top shape: 5 512 19 19 (924160)
I1206 23:48:19.085269 14420 net.cpp:165] Memory required for data: 1098265632
I1206 23:48:19.085276 14420 layer_factory.hpp:77] Creating layer relu5_3
I1206 23:48:19.085288 14420 net.cpp:100] Creating Layer relu5_3
I1206 23:48:19.085291 14420 net.cpp:434] relu5_3 <- conv5_3
I1206 23:48:19.085296 14420 net.cpp:395] relu5_3 -> conv5_3 (in-place)
I1206 23:48:19.085436 14420 net.cpp:150] Setting up relu5_3
I1206 23:48:19.085443 14420 net.cpp:157] Top shape: 5 512 19 19 (924160)
I1206 23:48:19.085445 14420 net.cpp:165] Memory required for data: 1101962272
I1206 23:48:19.085448 14420 layer_factory.hpp:77] Creating layer pool5
I1206 23:48:19.085453 14420 net.cpp:100] Creating Layer pool5
I1206 23:48:19.085455 14420 net.cpp:434] pool5 <- conv5_3
I1206 23:48:19.085459 14420 net.cpp:408] pool5 -> pool5
I1206 23:48:19.085502 14420 net.cpp:150] Setting up pool5
I1206 23:48:19.085506 14420 net.cpp:157] Top shape: 5 512 19 19 (924160)
I1206 23:48:19.085508 14420 net.cpp:165] Memory required for data: 1105658912
I1206 23:48:19.085511 14420 layer_factory.hpp:77] Creating layer fc6
I1206 23:48:19.085518 14420 net.cpp:100] Creating Layer fc6
I1206 23:48:19.085521 14420 net.cpp:434] fc6 <- pool5
I1206 23:48:19.085525 14420 net.cpp:408] fc6 -> fc6
I1206 23:48:19.114902 14420 net.cpp:150] Setting up fc6
I1206 23:48:19.114924 14420 net.cpp:157] Top shape: 5 1024 19 19 (1848320)
I1206 23:48:19.114928 14420 net.cpp:165] Memory required for data: 1113052192
I1206 23:48:19.114953 14420 layer_factory.hpp:77] Creating layer relu6
I1206 23:48:19.114960 14420 net.cpp:100] Creating Layer relu6
I1206 23:48:19.114964 14420 net.cpp:434] relu6 <- fc6
I1206 23:48:19.114970 14420 net.cpp:395] relu6 -> fc6 (in-place)
I1206 23:48:19.115324 14420 net.cpp:150] Setting up relu6
I1206 23:48:19.115334 14420 net.cpp:157] Top shape: 5 1024 19 19 (1848320)
I1206 23:48:19.115336 14420 net.cpp:165] Memory required for data: 1120445472
I1206 23:48:19.115339 14420 layer_factory.hpp:77] Creating layer fc7
I1206 23:48:19.115366 14420 net.cpp:100] Creating Layer fc7
I1206 23:48:19.115370 14420 net.cpp:434] fc7 <- fc6
I1206 23:48:19.115373 14420 net.cpp:408] fc7 -> fc7
I1206 23:48:19.123551 14420 net.cpp:150] Setting up fc7
I1206 23:48:19.123572 14420 net.cpp:157] Top shape: 5 1024 19 19 (1848320)
I1206 23:48:19.123576 14420 net.cpp:165] Memory required for data: 1127838752
I1206 23:48:19.123601 14420 layer_factory.hpp:77] Creating layer relu7
I1206 23:48:19.123627 14420 net.cpp:100] Creating Layer relu7
I1206 23:48:19.123632 14420 net.cpp:434] relu7 <- fc7
I1206 23:48:19.123651 14420 net.cpp:395] relu7 -> fc7 (in-place)
I1206 23:48:19.123796 14420 net.cpp:150] Setting up relu7
I1206 23:48:19.123802 14420 net.cpp:157] Top shape: 5 1024 19 19 (1848320)
I1206 23:48:19.123805 14420 net.cpp:165] Memory required for data: 1135232032
I1206 23:48:19.123807 14420 layer_factory.hpp:77] Creating layer fc7_relu7_0_split
I1206 23:48:19.123811 14420 net.cpp:100] Creating Layer fc7_relu7_0_split
I1206 23:48:19.123814 14420 net.cpp:434] fc7_relu7_0_split <- fc7
I1206 23:48:19.123817 14420 net.cpp:408] fc7_relu7_0_split -> fc7_relu7_0_split_0
I1206 23:48:19.123822 14420 net.cpp:408] fc7_relu7_0_split -> fc7_relu7_0_split_1
I1206 23:48:19.123831 14420 net.cpp:408] fc7_relu7_0_split -> fc7_relu7_0_split_2
I1206 23:48:19.123836 14420 net.cpp:408] fc7_relu7_0_split -> fc7_relu7_0_split_3
I1206 23:48:19.123901 14420 net.cpp:150] Setting up fc7_relu7_0_split
I1206 23:48:19.123905 14420 net.cpp:157] Top shape: 5 1024 19 19 (1848320)
I1206 23:48:19.123909 14420 net.cpp:157] Top shape: 5 1024 19 19 (1848320)
I1206 23:48:19.123913 14420 net.cpp:157] Top shape: 5 1024 19 19 (1848320)
I1206 23:48:19.123914 14420 net.cpp:157] Top shape: 5 1024 19 19 (1848320)
I1206 23:48:19.123917 14420 net.cpp:165] Memory required for data: 1164805152
I1206 23:48:19.123919 14420 layer_factory.hpp:77] Creating layer conv6_1
I1206 23:48:19.123926 14420 net.cpp:100] Creating Layer conv6_1
I1206 23:48:19.123929 14420 net.cpp:434] conv6_1 <- fc7_relu7_0_split_0
I1206 23:48:19.123934 14420 net.cpp:408] conv6_1 -> conv6_1
I1206 23:48:19.126513 14420 net.cpp:150] Setting up conv6_1
I1206 23:48:19.126521 14420 net.cpp:157] Top shape: 5 256 19 19 (462080)
I1206 23:48:19.126524 14420 net.cpp:165] Memory required for data: 1166653472
I1206 23:48:19.126529 14420 layer_factory.hpp:77] Creating layer conv6_1_relu
I1206 23:48:19.126533 14420 net.cpp:100] Creating Layer conv6_1_relu
I1206 23:48:19.126538 14420 net.cpp:434] conv6_1_relu <- conv6_1
I1206 23:48:19.126541 14420 net.cpp:395] conv6_1_relu -> conv6_1 (in-place)
I1206 23:48:19.126760 14420 net.cpp:150] Setting up conv6_1_relu
I1206 23:48:19.126768 14420 net.cpp:157] Top shape: 5 256 19 19 (462080)
I1206 23:48:19.126770 14420 net.cpp:165] Memory required for data: 1168501792
I1206 23:48:19.126773 14420 layer_factory.hpp:77] Creating layer conv6_2
I1206 23:48:19.126780 14420 net.cpp:100] Creating Layer conv6_2
I1206 23:48:19.126782 14420 net.cpp:434] conv6_2 <- conv6_1
I1206 23:48:19.126786 14420 net.cpp:408] conv6_2 -> conv6_2
I1206 23:48:19.135607 14420 net.cpp:150] Setting up conv6_2
I1206 23:48:19.135628 14420 net.cpp:157] Top shape: 5 512 10 10 (256000)
I1206 23:48:19.135632 14420 net.cpp:165] Memory required for data: 1169525792
I1206 23:48:19.135661 14420 layer_factory.hpp:77] Creating layer conv6_2_relu
I1206 23:48:19.135669 14420 net.cpp:100] Creating Layer conv6_2_relu
I1206 23:48:19.135674 14420 net.cpp:434] conv6_2_relu <- conv6_2
I1206 23:48:19.135679 14420 net.cpp:395] conv6_2_relu -> conv6_2 (in-place)
I1206 23:48:19.135936 14420 net.cpp:150] Setting up conv6_2_relu
I1206 23:48:19.135946 14420 net.cpp:157] Top shape: 5 512 10 10 (256000)
I1206 23:48:19.135948 14420 net.cpp:165] Memory required for data: 1170549792
I1206 23:48:19.135951 14420 layer_factory.hpp:77] Creating layer conv6_2_conv6_2_relu_0_split
I1206 23:48:19.135974 14420 net.cpp:100] Creating Layer conv6_2_conv6_2_relu_0_split
I1206 23:48:19.135977 14420 net.cpp:434] conv6_2_conv6_2_relu_0_split <- conv6_2
I1206 23:48:19.135982 14420 net.cpp:408] conv6_2_conv6_2_relu_0_split -> conv6_2_conv6_2_relu_0_split_0
I1206 23:48:19.136000 14420 net.cpp:408] conv6_2_conv6_2_relu_0_split -> conv6_2_conv6_2_relu_0_split_1
I1206 23:48:19.136005 14420 net.cpp:408] conv6_2_conv6_2_relu_0_split -> conv6_2_conv6_2_relu_0_split_2
I1206 23:48:19.136009 14420 net.cpp:408] conv6_2_conv6_2_relu_0_split -> conv6_2_conv6_2_relu_0_split_3
I1206 23:48:19.136095 14420 net.cpp:150] Setting up conv6_2_conv6_2_relu_0_split
I1206 23:48:19.136109 14420 net.cpp:157] Top shape: 5 512 10 10 (256000)
I1206 23:48:19.136112 14420 net.cpp:157] Top shape: 5 512 10 10 (256000)
I1206 23:48:19.136116 14420 net.cpp:157] Top shape: 5 512 10 10 (256000)
I1206 23:48:19.136137 14420 net.cpp:157] Top shape: 5 512 10 10 (256000)
I1206 23:48:19.136139 14420 net.cpp:165] Memory required for data: 1174645792
I1206 23:48:19.136142 14420 layer_factory.hpp:77] Creating layer conv7_1
I1206 23:48:19.136149 14420 net.cpp:100] Creating Layer conv7_1
I1206 23:48:19.136152 14420 net.cpp:434] conv7_1 <- conv6_2_conv6_2_relu_0_split_0
I1206 23:48:19.136170 14420 net.cpp:408] conv7_1 -> conv7_1
I1206 23:48:19.137403 14420 net.cpp:150] Setting up conv7_1
I1206 23:48:19.137413 14420 net.cpp:157] Top shape: 5 128 10 10 (64000)
I1206 23:48:19.137416 14420 net.cpp:165] Memory required for data: 1174901792
I1206 23:48:19.137439 14420 layer_factory.hpp:77] Creating layer conv7_1_relu
I1206 23:48:19.137444 14420 net.cpp:100] Creating Layer conv7_1_relu
I1206 23:48:19.137447 14420 net.cpp:434] conv7_1_relu <- conv7_1
I1206 23:48:19.137465 14420 net.cpp:395] conv7_1_relu -> conv7_1 (in-place)
I1206 23:48:19.137612 14420 net.cpp:150] Setting up conv7_1_relu
I1206 23:48:19.137619 14420 net.cpp:157] Top shape: 5 128 10 10 (64000)
I1206 23:48:19.137621 14420 net.cpp:165] Memory required for data: 1175157792
I1206 23:48:19.137624 14420 layer_factory.hpp:77] Creating layer conv7_2
I1206 23:48:19.137647 14420 net.cpp:100] Creating Layer conv7_2
I1206 23:48:19.137651 14420 net.cpp:434] conv7_2 <- conv7_1
I1206 23:48:19.137655 14420 net.cpp:408] conv7_2 -> conv7_2
I1206 23:48:19.140336 14420 net.cpp:150] Setting up conv7_2
I1206 23:48:19.140346 14420 net.cpp:157] Top shape: 5 256 5 5 (32000)
I1206 23:48:19.140348 14420 net.cpp:165] Memory required for data: 1175285792
I1206 23:48:19.140372 14420 layer_factory.hpp:77] Creating layer conv7_2_relu
I1206 23:48:19.140375 14420 net.cpp:100] Creating Layer conv7_2_relu
I1206 23:48:19.140379 14420 net.cpp:434] conv7_2_relu <- conv7_2
I1206 23:48:19.140383 14420 net.cpp:395] conv7_2_relu -> conv7_2 (in-place)
I1206 23:48:19.140625 14420 net.cpp:150] Setting up conv7_2_relu
I1206 23:48:19.140633 14420 net.cpp:157] Top shape: 5 256 5 5 (32000)
I1206 23:48:19.140636 14420 net.cpp:165] Memory required for data: 1175413792
I1206 23:48:19.140638 14420 layer_factory.hpp:77] Creating layer conv7_2_conv7_2_relu_0_split
I1206 23:48:19.140643 14420 net.cpp:100] Creating Layer conv7_2_conv7_2_relu_0_split
I1206 23:48:19.140664 14420 net.cpp:434] conv7_2_conv7_2_relu_0_split <- conv7_2
I1206 23:48:19.140668 14420 net.cpp:408] conv7_2_conv7_2_relu_0_split -> conv7_2_conv7_2_relu_0_split_0
I1206 23:48:19.140673 14420 net.cpp:408] conv7_2_conv7_2_relu_0_split -> conv7_2_conv7_2_relu_0_split_1
I1206 23:48:19.140678 14420 net.cpp:408] conv7_2_conv7_2_relu_0_split -> conv7_2_conv7_2_relu_0_split_2
I1206 23:48:19.140682 14420 net.cpp:408] conv7_2_conv7_2_relu_0_split -> conv7_2_conv7_2_relu_0_split_3
I1206 23:48:19.140779 14420 net.cpp:150] Setting up conv7_2_conv7_2_relu_0_split
I1206 23:48:19.140784 14420 net.cpp:157] Top shape: 5 256 5 5 (32000)
I1206 23:48:19.140787 14420 net.cpp:157] Top shape: 5 256 5 5 (32000)
I1206 23:48:19.140790 14420 net.cpp:157] Top shape: 5 256 5 5 (32000)
I1206 23:48:19.140812 14420 net.cpp:157] Top shape: 5 256 5 5 (32000)
I1206 23:48:19.140815 14420 net.cpp:165] Memory required for data: 1175925792
I1206 23:48:19.140817 14420 layer_factory.hpp:77] Creating layer conv8_1
I1206 23:48:19.140823 14420 net.cpp:100] Creating Layer conv8_1
I1206 23:48:19.140826 14420 net.cpp:434] conv8_1 <- conv7_2_conv7_2_relu_0_split_0
I1206 23:48:19.140831 14420 net.cpp:408] conv8_1 -> conv8_1
I1206 23:48:19.141798 14420 net.cpp:150] Setting up conv8_1
I1206 23:48:19.141808 14420 net.cpp:157] Top shape: 5 128 5 5 (16000)
I1206 23:48:19.141811 14420 net.cpp:165] Memory required for data: 1175989792
I1206 23:48:19.141834 14420 layer_factory.hpp:77] Creating layer conv8_1_relu
I1206 23:48:19.141839 14420 net.cpp:100] Creating Layer conv8_1_relu
I1206 23:48:19.141849 14420 net.cpp:434] conv8_1_relu <- conv8_1
I1206 23:48:19.141855 14420 net.cpp:395] conv8_1_relu -> conv8_1 (in-place)
I1206 23:48:19.142107 14420 net.cpp:150] Setting up conv8_1_relu
I1206 23:48:19.142115 14420 net.cpp:157] Top shape: 5 128 5 5 (16000)
I1206 23:48:19.142118 14420 net.cpp:165] Memory required for data: 1176053792
I1206 23:48:19.142122 14420 layer_factory.hpp:77] Creating layer conv8_2
I1206 23:48:19.142146 14420 net.cpp:100] Creating Layer conv8_2
I1206 23:48:19.142149 14420 net.cpp:434] conv8_2 <- conv8_1
I1206 23:48:19.142154 14420 net.cpp:408] conv8_2 -> conv8_2
I1206 23:48:19.144834 14420 net.cpp:150] Setting up conv8_2
I1206 23:48:19.144848 14420 net.cpp:157] Top shape: 5 256 3 3 (11520)
I1206 23:48:19.144851 14420 net.cpp:165] Memory required for data: 1176099872
I1206 23:48:19.144875 14420 layer_factory.hpp:77] Creating layer conv8_2_relu
I1206 23:48:19.144879 14420 net.cpp:100] Creating Layer conv8_2_relu
I1206 23:48:19.144882 14420 net.cpp:434] conv8_2_relu <- conv8_2
I1206 23:48:19.144887 14420 net.cpp:395] conv8_2_relu -> conv8_2 (in-place)
I1206 23:48:19.145050 14420 net.cpp:150] Setting up conv8_2_relu
I1206 23:48:19.145056 14420 net.cpp:157] Top shape: 5 256 3 3 (11520)
I1206 23:48:19.145059 14420 net.cpp:165] Memory required for data: 1176145952
I1206 23:48:19.145061 14420 layer_factory.hpp:77] Creating layer conv8_2_conv8_2_relu_0_split
I1206 23:48:19.145083 14420 net.cpp:100] Creating Layer conv8_2_conv8_2_relu_0_split
I1206 23:48:19.145087 14420 net.cpp:434] conv8_2_conv8_2_relu_0_split <- conv8_2
I1206 23:48:19.145090 14420 net.cpp:408] conv8_2_conv8_2_relu_0_split -> conv8_2_conv8_2_relu_0_split_0
I1206 23:48:19.145095 14420 net.cpp:408] conv8_2_conv8_2_relu_0_split -> conv8_2_conv8_2_relu_0_split_1
I1206 23:48:19.145100 14420 net.cpp:408] conv8_2_conv8_2_relu_0_split -> conv8_2_conv8_2_relu_0_split_2
I1206 23:48:19.145105 14420 net.cpp:408] conv8_2_conv8_2_relu_0_split -> conv8_2_conv8_2_relu_0_split_3
I1206 23:48:19.145202 14420 net.cpp:150] Setting up conv8_2_conv8_2_relu_0_split
I1206 23:48:19.145207 14420 net.cpp:157] Top shape: 5 256 3 3 (11520)
I1206 23:48:19.145210 14420 net.cpp:157] Top shape: 5 256 3 3 (11520)
I1206 23:48:19.145213 14420 net.cpp:157] Top shape: 5 256 3 3 (11520)
I1206 23:48:19.145215 14420 net.cpp:157] Top shape: 5 256 3 3 (11520)
I1206 23:48:19.145236 14420 net.cpp:165] Memory required for data: 1176330272
I1206 23:48:19.145238 14420 layer_factory.hpp:77] Creating layer conv9_1
I1206 23:48:19.145244 14420 net.cpp:100] Creating Layer conv9_1
I1206 23:48:19.145247 14420 net.cpp:434] conv9_1 <- conv8_2_conv8_2_relu_0_split_0
I1206 23:48:19.145252 14420 net.cpp:408] conv9_1 -> conv9_1
I1206 23:48:19.146306 14420 net.cpp:150] Setting up conv9_1
I1206 23:48:19.146317 14420 net.cpp:157] Top shape: 5 128 3 3 (5760)
I1206 23:48:19.146319 14420 net.cpp:165] Memory required for data: 1176353312
I1206 23:48:19.146342 14420 layer_factory.hpp:77] Creating layer conv9_1_relu
I1206 23:48:19.146347 14420 net.cpp:100] Creating Layer conv9_1_relu
I1206 23:48:19.146350 14420 net.cpp:434] conv9_1_relu <- conv9_1
I1206 23:48:19.146354 14420 net.cpp:395] conv9_1_relu -> conv9_1 (in-place)
I1206 23:48:19.146610 14420 net.cpp:150] Setting up conv9_1_relu
I1206 23:48:19.146617 14420 net.cpp:157] Top shape: 5 128 3 3 (5760)
I1206 23:48:19.146620 14420 net.cpp:165] Memory required for data: 1176376352
I1206 23:48:19.146623 14420 layer_factory.hpp:77] Creating layer conv9_2
I1206 23:48:19.146648 14420 net.cpp:100] Creating Layer conv9_2
I1206 23:48:19.146651 14420 net.cpp:434] conv9_2 <- conv9_1
I1206 23:48:19.146670 14420 net.cpp:408] conv9_2 -> conv9_2
I1206 23:48:19.149330 14420 net.cpp:150] Setting up conv9_2
I1206 23:48:19.149340 14420 net.cpp:157] Top shape: 5 256 1 1 (1280)
I1206 23:48:19.149344 14420 net.cpp:165] Memory required for data: 1176381472
I1206 23:48:19.149348 14420 layer_factory.hpp:77] Creating layer conv9_2_relu
I1206 23:48:19.149371 14420 net.cpp:100] Creating Layer conv9_2_relu
I1206 23:48:19.149374 14420 net.cpp:434] conv9_2_relu <- conv9_2
I1206 23:48:19.149387 14420 net.cpp:395] conv9_2_relu -> conv9_2 (in-place)
I1206 23:48:19.149633 14420 net.cpp:150] Setting up conv9_2_relu
I1206 23:48:19.149641 14420 net.cpp:157] Top shape: 5 256 1 1 (1280)
I1206 23:48:19.149643 14420 net.cpp:165] Memory required for data: 1176386592
I1206 23:48:19.149646 14420 layer_factory.hpp:77] Creating layer conv9_2_conv9_2_relu_0_split
I1206 23:48:19.149651 14420 net.cpp:100] Creating Layer conv9_2_conv9_2_relu_0_split
I1206 23:48:19.149653 14420 net.cpp:434] conv9_2_conv9_2_relu_0_split <- conv9_2
I1206 23:48:19.149657 14420 net.cpp:408] conv9_2_conv9_2_relu_0_split -> conv9_2_conv9_2_relu_0_split_0
I1206 23:48:19.149662 14420 net.cpp:408] conv9_2_conv9_2_relu_0_split -> conv9_2_conv9_2_relu_0_split_1
I1206 23:48:19.149667 14420 net.cpp:408] conv9_2_conv9_2_relu_0_split -> conv9_2_conv9_2_relu_0_split_2
I1206 23:48:19.149724 14420 net.cpp:150] Setting up conv9_2_conv9_2_relu_0_split
I1206 23:48:19.149727 14420 net.cpp:157] Top shape: 5 256 1 1 (1280)
I1206 23:48:19.149730 14420 net.cpp:157] Top shape: 5 256 1 1 (1280)
I1206 23:48:19.149734 14420 net.cpp:157] Top shape: 5 256 1 1 (1280)
I1206 23:48:19.149735 14420 net.cpp:165] Memory required for data: 1176401952
I1206 23:48:19.149737 14420 layer_factory.hpp:77] Creating layer conv4_3_norm
I1206 23:48:19.149742 14420 net.cpp:100] Creating Layer conv4_3_norm
I1206 23:48:19.149745 14420 net.cpp:434] conv4_3_norm <- conv4_3_relu4_3_0_split_1
I1206 23:48:19.149749 14420 net.cpp:408] conv4_3_norm -> conv4_3_norm
I1206 23:48:19.149914 14420 net.cpp:150] Setting up conv4_3_norm
I1206 23:48:19.149919 14420 net.cpp:157] Top shape: 5 512 38 38 (3696640)
I1206 23:48:19.149920 14420 net.cpp:165] Memory required for data: 1191188512
I1206 23:48:19.149924 14420 layer_factory.hpp:77] Creating layer conv4_3_norm_conv4_3_norm_0_split
I1206 23:48:19.149927 14420 net.cpp:100] Creating Layer conv4_3_norm_conv4_3_norm_0_split
I1206 23:48:19.149930 14420 net.cpp:434] conv4_3_norm_conv4_3_norm_0_split <- conv4_3_norm
I1206 23:48:19.149933 14420 net.cpp:408] conv4_3_norm_conv4_3_norm_0_split -> conv4_3_norm_conv4_3_norm_0_split_0
I1206 23:48:19.149938 14420 net.cpp:408] conv4_3_norm_conv4_3_norm_0_split -> conv4_3_norm_conv4_3_norm_0_split_1
I1206 23:48:19.149942 14420 net.cpp:408] conv4_3_norm_conv4_3_norm_0_split -> conv4_3_norm_conv4_3_norm_0_split_2
I1206 23:48:19.149991 14420 net.cpp:150] Setting up conv4_3_norm_conv4_3_norm_0_split
I1206 23:48:19.149996 14420 net.cpp:157] Top shape: 5 512 38 38 (3696640)
I1206 23:48:19.149998 14420 net.cpp:157] Top shape: 5 512 38 38 (3696640)
I1206 23:48:19.150002 14420 net.cpp:157] Top shape: 5 512 38 38 (3696640)
I1206 23:48:19.150003 14420 net.cpp:165] Memory required for data: 1235548192
I1206 23:48:19.150007 14420 layer_factory.hpp:77] Creating layer conv4_3_norm_mbox_loc
I1206 23:48:19.150012 14420 net.cpp:100] Creating Layer conv4_3_norm_mbox_loc
I1206 23:48:19.150014 14420 net.cpp:434] conv4_3_norm_mbox_loc <- conv4_3_norm_conv4_3_norm_0_split_0
I1206 23:48:19.150018 14420 net.cpp:408] conv4_3_norm_mbox_loc -> conv4_3_norm_mbox_loc
I1206 23:48:19.151343 14420 net.cpp:150] Setting up conv4_3_norm_mbox_loc
I1206 23:48:19.151351 14420 net.cpp:157] Top shape: 5 12 38 38 (86640)
I1206 23:48:19.151355 14420 net.cpp:165] Memory required for data: 1235894752
I1206 23:48:19.151360 14420 layer_factory.hpp:77] Creating layer conv4_3_norm_mbox_loc_perm
I1206 23:48:19.151365 14420 net.cpp:100] Creating Layer conv4_3_norm_mbox_loc_perm
I1206 23:48:19.151368 14420 net.cpp:434] conv4_3_norm_mbox_loc_perm <- conv4_3_norm_mbox_loc
I1206 23:48:19.151372 14420 net.cpp:408] conv4_3_norm_mbox_loc_perm -> conv4_3_norm_mbox_loc_perm
I1206 23:48:19.151485 14420 net.cpp:150] Setting up conv4_3_norm_mbox_loc_perm
I1206 23:48:19.151490 14420 net.cpp:157] Top shape: 5 38 38 12 (86640)
I1206 23:48:19.151492 14420 net.cpp:165] Memory required for data: 1236241312
I1206 23:48:19.151495 14420 layer_factory.hpp:77] Creating layer conv4_3_norm_mbox_loc_flat
I1206 23:48:19.151499 14420 net.cpp:100] Creating Layer conv4_3_norm_mbox_loc_flat
I1206 23:48:19.151510 14420 net.cpp:434] conv4_3_norm_mbox_loc_flat <- conv4_3_norm_mbox_loc_perm
I1206 23:48:19.151515 14420 net.cpp:408] conv4_3_norm_mbox_loc_flat -> conv4_3_norm_mbox_loc_flat
I1206 23:48:19.151542 14420 net.cpp:150] Setting up conv4_3_norm_mbox_loc_flat
I1206 23:48:19.151546 14420 net.cpp:157] Top shape: 5 17328 (86640)
I1206 23:48:19.151549 14420 net.cpp:165] Memory required for data: 1236587872
I1206 23:48:19.151551 14420 layer_factory.hpp:77] Creating layer conv4_3_norm_mbox_conf
I1206 23:48:19.151561 14420 net.cpp:100] Creating Layer conv4_3_norm_mbox_conf
I1206 23:48:19.151564 14420 net.cpp:434] conv4_3_norm_mbox_conf <- conv4_3_norm_conv4_3_norm_0_split_1
I1206 23:48:19.151569 14420 net.cpp:408] conv4_3_norm_mbox_conf -> conv4_3_norm_mbox_conf
I1206 23:48:19.152601 14420 net.cpp:150] Setting up conv4_3_norm_mbox_conf
I1206 23:48:19.152608 14420 net.cpp:157] Top shape: 5 6 38 38 (43320)
I1206 23:48:19.152611 14420 net.cpp:165] Memory required for data: 1236761152
I1206 23:48:19.152616 14420 layer_factory.hpp:77] Creating layer conv4_3_norm_mbox_conf_perm
I1206 23:48:19.152621 14420 net.cpp:100] Creating Layer conv4_3_norm_mbox_conf_perm
I1206 23:48:19.152624 14420 net.cpp:434] conv4_3_norm_mbox_conf_perm <- conv4_3_norm_mbox_conf
I1206 23:48:19.152628 14420 net.cpp:408] conv4_3_norm_mbox_conf_perm -> conv4_3_norm_mbox_conf_perm
I1206 23:48:19.152740 14420 net.cpp:150] Setting up conv4_3_norm_mbox_conf_perm
I1206 23:48:19.152745 14420 net.cpp:157] Top shape: 5 38 38 6 (43320)
I1206 23:48:19.152747 14420 net.cpp:165] Memory required for data: 1236934432
I1206 23:48:19.152750 14420 layer_factory.hpp:77] Creating layer conv4_3_norm_mbox_conf_flat
I1206 23:48:19.152755 14420 net.cpp:100] Creating Layer conv4_3_norm_mbox_conf_flat
I1206 23:48:19.152757 14420 net.cpp:434] conv4_3_norm_mbox_conf_flat <- conv4_3_norm_mbox_conf_perm
I1206 23:48:19.152760 14420 net.cpp:408] conv4_3_norm_mbox_conf_flat -> conv4_3_norm_mbox_conf_flat
I1206 23:48:19.152783 14420 net.cpp:150] Setting up conv4_3_norm_mbox_conf_flat
I1206 23:48:19.152787 14420 net.cpp:157] Top shape: 5 8664 (43320)
I1206 23:48:19.152789 14420 net.cpp:165] Memory required for data: 1237107712
I1206 23:48:19.152792 14420 layer_factory.hpp:77] Creating layer conv4_3_norm_mbox_priorbox
I1206 23:48:19.152796 14420 net.cpp:100] Creating Layer conv4_3_norm_mbox_priorbox
I1206 23:48:19.152799 14420 net.cpp:434] conv4_3_norm_mbox_priorbox <- conv4_3_norm_conv4_3_norm_0_split_2
I1206 23:48:19.152803 14420 net.cpp:434] conv4_3_norm_mbox_priorbox <- data_data_0_split_1
I1206 23:48:19.152807 14420 net.cpp:408] conv4_3_norm_mbox_priorbox -> conv4_3_norm_mbox_priorbox
I1206 23:48:19.152832 14420 net.cpp:150] Setting up conv4_3_norm_mbox_priorbox
I1206 23:48:19.152835 14420 net.cpp:157] Top shape: 1 2 17328 (34656)
I1206 23:48:19.152837 14420 net.cpp:165] Memory required for data: 1237246336
I1206 23:48:19.152840 14420 layer_factory.hpp:77] Creating layer fc7_mbox_loc
I1206 23:48:19.152850 14420 net.cpp:100] Creating Layer fc7_mbox_loc
I1206 23:48:19.152853 14420 net.cpp:434] fc7_mbox_loc <- fc7_relu7_0_split_1
I1206 23:48:19.152858 14420 net.cpp:408] fc7_mbox_loc -> fc7_mbox_loc
I1206 23:48:19.154848 14420 net.cpp:150] Setting up fc7_mbox_loc
I1206 23:48:19.154857 14420 net.cpp:157] Top shape: 5 16 19 19 (28880)
I1206 23:48:19.154860 14420 net.cpp:165] Memory required for data: 1237361856
I1206 23:48:19.154865 14420 layer_factory.hpp:77] Creating layer fc7_mbox_loc_perm
I1206 23:48:19.154870 14420 net.cpp:100] Creating Layer fc7_mbox_loc_perm
I1206 23:48:19.154872 14420 net.cpp:434] fc7_mbox_loc_perm <- fc7_mbox_loc
I1206 23:48:19.154877 14420 net.cpp:408] fc7_mbox_loc_perm -> fc7_mbox_loc_perm
I1206 23:48:19.154989 14420 net.cpp:150] Setting up fc7_mbox_loc_perm
I1206 23:48:19.154994 14420 net.cpp:157] Top shape: 5 19 19 16 (28880)
I1206 23:48:19.154996 14420 net.cpp:165] Memory required for data: 1237477376
I1206 23:48:19.154999 14420 layer_factory.hpp:77] Creating layer fc7_mbox_loc_flat
I1206 23:48:19.155004 14420 net.cpp:100] Creating Layer fc7_mbox_loc_flat
I1206 23:48:19.155014 14420 net.cpp:434] fc7_mbox_loc_flat <- fc7_mbox_loc_perm
I1206 23:48:19.155017 14420 net.cpp:408] fc7_mbox_loc_flat -> fc7_mbox_loc_flat
I1206 23:48:19.155040 14420 net.cpp:150] Setting up fc7_mbox_loc_flat
I1206 23:48:19.155045 14420 net.cpp:157] Top shape: 5 5776 (28880)
I1206 23:48:19.155046 14420 net.cpp:165] Memory required for data: 1237592896
I1206 23:48:19.155048 14420 layer_factory.hpp:77] Creating layer fc7_mbox_conf
I1206 23:48:19.155055 14420 net.cpp:100] Creating Layer fc7_mbox_conf
I1206 23:48:19.155057 14420 net.cpp:434] fc7_mbox_conf <- fc7_relu7_0_split_2
I1206 23:48:19.155062 14420 net.cpp:408] fc7_mbox_conf -> fc7_mbox_conf
I1206 23:48:19.156419 14420 net.cpp:150] Setting up fc7_mbox_conf
I1206 23:48:19.156426 14420 net.cpp:157] Top shape: 5 8 19 19 (14440)
I1206 23:48:19.156430 14420 net.cpp:165] Memory required for data: 1237650656
I1206 23:48:19.156435 14420 layer_factory.hpp:77] Creating layer fc7_mbox_conf_perm
I1206 23:48:19.156440 14420 net.cpp:100] Creating Layer fc7_mbox_conf_perm
I1206 23:48:19.156442 14420 net.cpp:434] fc7_mbox_conf_perm <- fc7_mbox_conf
I1206 23:48:19.156446 14420 net.cpp:408] fc7_mbox_conf_perm -> fc7_mbox_conf_perm
I1206 23:48:19.156563 14420 net.cpp:150] Setting up fc7_mbox_conf_perm
I1206 23:48:19.156566 14420 net.cpp:157] Top shape: 5 19 19 8 (14440)
I1206 23:48:19.156569 14420 net.cpp:165] Memory required for data: 1237708416
I1206 23:48:19.156571 14420 layer_factory.hpp:77] Creating layer fc7_mbox_conf_flat
I1206 23:48:19.156575 14420 net.cpp:100] Creating Layer fc7_mbox_conf_flat
I1206 23:48:19.156579 14420 net.cpp:434] fc7_mbox_conf_flat <- fc7_mbox_conf_perm
I1206 23:48:19.156582 14420 net.cpp:408] fc7_mbox_conf_flat -> fc7_mbox_conf_flat
I1206 23:48:19.156605 14420 net.cpp:150] Setting up fc7_mbox_conf_flat
I1206 23:48:19.156608 14420 net.cpp:157] Top shape: 5 2888 (14440)
I1206 23:48:19.156611 14420 net.cpp:165] Memory required for data: 1237766176
I1206 23:48:19.156613 14420 layer_factory.hpp:77] Creating layer fc7_mbox_priorbox
I1206 23:48:19.156617 14420 net.cpp:100] Creating Layer fc7_mbox_priorbox
I1206 23:48:19.156639 14420 net.cpp:434] fc7_mbox_priorbox <- fc7_relu7_0_split_3
I1206 23:48:19.156643 14420 net.cpp:434] fc7_mbox_priorbox <- data_data_0_split_2
I1206 23:48:19.156647 14420 net.cpp:408] fc7_mbox_priorbox -> fc7_mbox_priorbox
I1206 23:48:19.156687 14420 net.cpp:150] Setting up fc7_mbox_priorbox
I1206 23:48:19.156692 14420 net.cpp:157] Top shape: 1 2 5776 (11552)
I1206 23:48:19.156694 14420 net.cpp:165] Memory required for data: 1237812384
I1206 23:48:19.156697 14420 layer_factory.hpp:77] Creating layer conv6_2_mbox_loc
I1206 23:48:19.156702 14420 net.cpp:100] Creating Layer conv6_2_mbox_loc
I1206 23:48:19.156705 14420 net.cpp:434] conv6_2_mbox_loc <- conv6_2_conv6_2_relu_0_split_1
I1206 23:48:19.156710 14420 net.cpp:408] conv6_2_mbox_loc -> conv6_2_mbox_loc
I1206 23:48:19.158095 14420 net.cpp:150] Setting up conv6_2_mbox_loc
I1206 23:48:19.158104 14420 net.cpp:157] Top shape: 5 16 10 10 (8000)
I1206 23:48:19.158107 14420 net.cpp:165] Memory required for data: 1237844384
I1206 23:48:19.158113 14420 layer_factory.hpp:77] Creating layer conv6_2_mbox_loc_perm
I1206 23:48:19.158118 14420 net.cpp:100] Creating Layer conv6_2_mbox_loc_perm
I1206 23:48:19.158120 14420 net.cpp:434] conv6_2_mbox_loc_perm <- conv6_2_mbox_loc
I1206 23:48:19.158124 14420 net.cpp:408] conv6_2_mbox_loc_perm -> conv6_2_mbox_loc_perm
I1206 23:48:19.158241 14420 net.cpp:150] Setting up conv6_2_mbox_loc_perm
I1206 23:48:19.158246 14420 net.cpp:157] Top shape: 5 10 10 16 (8000)
I1206 23:48:19.158247 14420 net.cpp:165] Memory required for data: 1237876384
I1206 23:48:19.158251 14420 layer_factory.hpp:77] Creating layer conv6_2_mbox_loc_flat
I1206 23:48:19.158254 14420 net.cpp:100] Creating Layer conv6_2_mbox_loc_flat
I1206 23:48:19.158257 14420 net.cpp:434] conv6_2_mbox_loc_flat <- conv6_2_mbox_loc_perm
I1206 23:48:19.158262 14420 net.cpp:408] conv6_2_mbox_loc_flat -> conv6_2_mbox_loc_flat
I1206 23:48:19.158283 14420 net.cpp:150] Setting up conv6_2_mbox_loc_flat
I1206 23:48:19.158295 14420 net.cpp:157] Top shape: 5 1600 (8000)
I1206 23:48:19.158298 14420 net.cpp:165] Memory required for data: 1237908384
I1206 23:48:19.158300 14420 layer_factory.hpp:77] Creating layer conv6_2_mbox_conf
I1206 23:48:19.158306 14420 net.cpp:100] Creating Layer conv6_2_mbox_conf
I1206 23:48:19.158309 14420 net.cpp:434] conv6_2_mbox_conf <- conv6_2_conv6_2_relu_0_split_2
I1206 23:48:19.158313 14420 net.cpp:408] conv6_2_mbox_conf -> conv6_2_mbox_conf
I1206 23:48:19.159857 14420 net.cpp:150] Setting up conv6_2_mbox_conf
I1206 23:48:19.159867 14420 net.cpp:157] Top shape: 5 8 10 10 (4000)
I1206 23:48:19.159869 14420 net.cpp:165] Memory required for data: 1237924384
I1206 23:48:19.159874 14420 layer_factory.hpp:77] Creating layer conv6_2_mbox_conf_perm
I1206 23:48:19.159880 14420 net.cpp:100] Creating Layer conv6_2_mbox_conf_perm
I1206 23:48:19.159883 14420 net.cpp:434] conv6_2_mbox_conf_perm <- conv6_2_mbox_conf
I1206 23:48:19.159888 14420 net.cpp:408] conv6_2_mbox_conf_perm -> conv6_2_mbox_conf_perm
I1206 23:48:19.160010 14420 net.cpp:150] Setting up conv6_2_mbox_conf_perm
I1206 23:48:19.160015 14420 net.cpp:157] Top shape: 5 10 10 8 (4000)
I1206 23:48:19.160017 14420 net.cpp:165] Memory required for data: 1237940384
I1206 23:48:19.160020 14420 layer_factory.hpp:77] Creating layer conv6_2_mbox_conf_flat
I1206 23:48:19.160024 14420 net.cpp:100] Creating Layer conv6_2_mbox_conf_flat
I1206 23:48:19.160027 14420 net.cpp:434] conv6_2_mbox_conf_flat <- conv6_2_mbox_conf_perm
I1206 23:48:19.160032 14420 net.cpp:408] conv6_2_mbox_conf_flat -> conv6_2_mbox_conf_flat
I1206 23:48:19.160054 14420 net.cpp:150] Setting up conv6_2_mbox_conf_flat
I1206 23:48:19.160059 14420 net.cpp:157] Top shape: 5 800 (4000)
I1206 23:48:19.160061 14420 net.cpp:165] Memory required for data: 1237956384
I1206 23:48:19.160064 14420 layer_factory.hpp:77] Creating layer conv6_2_mbox_priorbox
I1206 23:48:19.160068 14420 net.cpp:100] Creating Layer conv6_2_mbox_priorbox
I1206 23:48:19.160071 14420 net.cpp:434] conv6_2_mbox_priorbox <- conv6_2_conv6_2_relu_0_split_3
I1206 23:48:19.160075 14420 net.cpp:434] conv6_2_mbox_priorbox <- data_data_0_split_3
I1206 23:48:19.160079 14420 net.cpp:408] conv6_2_mbox_priorbox -> conv6_2_mbox_priorbox
I1206 23:48:19.160104 14420 net.cpp:150] Setting up conv6_2_mbox_priorbox
I1206 23:48:19.160109 14420 net.cpp:157] Top shape: 1 2 1600 (3200)
I1206 23:48:19.160111 14420 net.cpp:165] Memory required for data: 1237969184
I1206 23:48:19.160114 14420 layer_factory.hpp:77] Creating layer conv7_2_mbox_loc
I1206 23:48:19.160120 14420 net.cpp:100] Creating Layer conv7_2_mbox_loc
I1206 23:48:19.160123 14420 net.cpp:434] conv7_2_mbox_loc <- conv7_2_conv7_2_relu_0_split_1
I1206 23:48:19.160127 14420 net.cpp:408] conv7_2_mbox_loc -> conv7_2_mbox_loc
I1206 23:48:19.161537 14420 net.cpp:150] Setting up conv7_2_mbox_loc
I1206 23:48:19.161563 14420 net.cpp:157] Top shape: 5 16 5 5 (2000)
I1206 23:48:19.161568 14420 net.cpp:165] Memory required for data: 1237977184
I1206 23:48:19.161576 14420 layer_factory.hpp:77] Creating layer conv7_2_mbox_loc_perm
I1206 23:48:19.161582 14420 net.cpp:100] Creating Layer conv7_2_mbox_loc_perm
I1206 23:48:19.161605 14420 net.cpp:434] conv7_2_mbox_loc_perm <- conv7_2_mbox_loc
I1206 23:48:19.161613 14420 net.cpp:408] conv7_2_mbox_loc_perm -> conv7_2_mbox_loc_perm
I1206 23:48:19.161854 14420 net.cpp:150] Setting up conv7_2_mbox_loc_perm
I1206 23:48:19.161859 14420 net.cpp:157] Top shape: 5 5 5 16 (2000)
I1206 23:48:19.161864 14420 net.cpp:165] Memory required for data: 1237985184
I1206 23:48:19.161867 14420 layer_factory.hpp:77] Creating layer conv7_2_mbox_loc_flat
I1206 23:48:19.161872 14420 net.cpp:100] Creating Layer conv7_2_mbox_loc_flat
I1206 23:48:19.161876 14420 net.cpp:434] conv7_2_mbox_loc_flat <- conv7_2_mbox_loc_perm
I1206 23:48:19.161881 14420 net.cpp:408] conv7_2_mbox_loc_flat -> conv7_2_mbox_loc_flat
I1206 23:48:19.161911 14420 net.cpp:150] Setting up conv7_2_mbox_loc_flat
I1206 23:48:19.161917 14420 net.cpp:157] Top shape: 5 400 (2000)
I1206 23:48:19.161921 14420 net.cpp:165] Memory required for data: 1237993184
I1206 23:48:19.161934 14420 layer_factory.hpp:77] Creating layer conv7_2_mbox_conf
I1206 23:48:19.161944 14420 net.cpp:100] Creating Layer conv7_2_mbox_conf
I1206 23:48:19.161968 14420 net.cpp:434] conv7_2_mbox_conf <- conv7_2_conv7_2_relu_0_split_2
I1206 23:48:19.161975 14420 net.cpp:408] conv7_2_mbox_conf -> conv7_2_mbox_conf
I1206 23:48:19.163159 14420 net.cpp:150] Setting up conv7_2_mbox_conf
I1206 23:48:19.163169 14420 net.cpp:157] Top shape: 5 8 5 5 (1000)
I1206 23:48:19.163174 14420 net.cpp:165] Memory required for data: 1237997184
I1206 23:48:19.163184 14420 layer_factory.hpp:77] Creating layer conv7_2_mbox_conf_perm
I1206 23:48:19.163219 14420 net.cpp:100] Creating Layer conv7_2_mbox_conf_perm
I1206 23:48:19.163225 14420 net.cpp:434] conv7_2_mbox_conf_perm <- conv7_2_mbox_conf
I1206 23:48:19.163231 14420 net.cpp:408] conv7_2_mbox_conf_perm -> conv7_2_mbox_conf_perm
I1206 23:48:19.163362 14420 net.cpp:150] Setting up conv7_2_mbox_conf_perm
I1206 23:48:19.163368 14420 net.cpp:157] Top shape: 5 5 5 8 (1000)
I1206 23:48:19.163372 14420 net.cpp:165] Memory required for data: 1238001184
I1206 23:48:19.163373 14420 layer_factory.hpp:77] Creating layer conv7_2_mbox_conf_flat
I1206 23:48:19.163378 14420 net.cpp:100] Creating Layer conv7_2_mbox_conf_flat
I1206 23:48:19.163381 14420 net.cpp:434] conv7_2_mbox_conf_flat <- conv7_2_mbox_conf_perm
I1206 23:48:19.163384 14420 net.cpp:408] conv7_2_mbox_conf_flat -> conv7_2_mbox_conf_flat
I1206 23:48:19.163408 14420 net.cpp:150] Setting up conv7_2_mbox_conf_flat
I1206 23:48:19.163413 14420 net.cpp:157] Top shape: 5 200 (1000)
I1206 23:48:19.163415 14420 net.cpp:165] Memory required for data: 1238005184
I1206 23:48:19.163417 14420 layer_factory.hpp:77] Creating layer conv7_2_mbox_priorbox
I1206 23:48:19.163421 14420 net.cpp:100] Creating Layer conv7_2_mbox_priorbox
I1206 23:48:19.163424 14420 net.cpp:434] conv7_2_mbox_priorbox <- conv7_2_conv7_2_relu_0_split_3
I1206 23:48:19.163429 14420 net.cpp:434] conv7_2_mbox_priorbox <- data_data_0_split_4
I1206 23:48:19.163432 14420 net.cpp:408] conv7_2_mbox_priorbox -> conv7_2_mbox_priorbox
I1206 23:48:19.163457 14420 net.cpp:150] Setting up conv7_2_mbox_priorbox
I1206 23:48:19.163461 14420 net.cpp:157] Top shape: 1 2 400 (800)
I1206 23:48:19.163465 14420 net.cpp:165] Memory required for data: 1238008384
I1206 23:48:19.163466 14420 layer_factory.hpp:77] Creating layer conv8_2_mbox_loc
I1206 23:48:19.163472 14420 net.cpp:100] Creating Layer conv8_2_mbox_loc
I1206 23:48:19.163475 14420 net.cpp:434] conv8_2_mbox_loc <- conv8_2_conv8_2_relu_0_split_1
I1206 23:48:19.163480 14420 net.cpp:408] conv8_2_mbox_loc -> conv8_2_mbox_loc
I1206 23:48:19.164908 14420 net.cpp:150] Setting up conv8_2_mbox_loc
I1206 23:48:19.164917 14420 net.cpp:157] Top shape: 5 12 3 3 (540)
I1206 23:48:19.164921 14420 net.cpp:165] Memory required for data: 1238010544
I1206 23:48:19.164932 14420 layer_factory.hpp:77] Creating layer conv8_2_mbox_loc_perm
I1206 23:48:19.164937 14420 net.cpp:100] Creating Layer conv8_2_mbox_loc_perm
I1206 23:48:19.164940 14420 net.cpp:434] conv8_2_mbox_loc_perm <- conv8_2_mbox_loc
I1206 23:48:19.164945 14420 net.cpp:408] conv8_2_mbox_loc_perm -> conv8_2_mbox_loc_perm
I1206 23:48:19.165068 14420 net.cpp:150] Setting up conv8_2_mbox_loc_perm
I1206 23:48:19.165073 14420 net.cpp:157] Top shape: 5 3 3 12 (540)
I1206 23:48:19.165076 14420 net.cpp:165] Memory required for data: 1238012704
I1206 23:48:19.165078 14420 layer_factory.hpp:77] Creating layer conv8_2_mbox_loc_flat
I1206 23:48:19.165082 14420 net.cpp:100] Creating Layer conv8_2_mbox_loc_flat
I1206 23:48:19.165086 14420 net.cpp:434] conv8_2_mbox_loc_flat <- conv8_2_mbox_loc_perm
I1206 23:48:19.165088 14420 net.cpp:408] conv8_2_mbox_loc_flat -> conv8_2_mbox_loc_flat
I1206 23:48:19.165112 14420 net.cpp:150] Setting up conv8_2_mbox_loc_flat
I1206 23:48:19.165117 14420 net.cpp:157] Top shape: 5 108 (540)
I1206 23:48:19.165118 14420 net.cpp:165] Memory required for data: 1238014864
I1206 23:48:19.165120 14420 layer_factory.hpp:77] Creating layer conv8_2_mbox_conf
I1206 23:48:19.165136 14420 net.cpp:100] Creating Layer conv8_2_mbox_conf
I1206 23:48:19.165139 14420 net.cpp:434] conv8_2_mbox_conf <- conv8_2_conv8_2_relu_0_split_2
I1206 23:48:19.165144 14420 net.cpp:408] conv8_2_mbox_conf -> conv8_2_mbox_conf
I1206 23:48:19.166316 14420 net.cpp:150] Setting up conv8_2_mbox_conf
I1206 23:48:19.166326 14420 net.cpp:157] Top shape: 5 6 3 3 (270)
I1206 23:48:19.166328 14420 net.cpp:165] Memory required for data: 1238015944
I1206 23:48:19.166333 14420 layer_factory.hpp:77] Creating layer conv8_2_mbox_conf_perm
I1206 23:48:19.166339 14420 net.cpp:100] Creating Layer conv8_2_mbox_conf_perm
I1206 23:48:19.166342 14420 net.cpp:434] conv8_2_mbox_conf_perm <- conv8_2_mbox_conf
I1206 23:48:19.166347 14420 net.cpp:408] conv8_2_mbox_conf_perm -> conv8_2_mbox_conf_perm
I1206 23:48:19.166471 14420 net.cpp:150] Setting up conv8_2_mbox_conf_perm
I1206 23:48:19.166476 14420 net.cpp:157] Top shape: 5 3 3 6 (270)
I1206 23:48:19.166478 14420 net.cpp:165] Memory required for data: 1238017024
I1206 23:48:19.166481 14420 layer_factory.hpp:77] Creating layer conv8_2_mbox_conf_flat
I1206 23:48:19.166486 14420 net.cpp:100] Creating Layer conv8_2_mbox_conf_flat
I1206 23:48:19.166488 14420 net.cpp:434] conv8_2_mbox_conf_flat <- conv8_2_mbox_conf_perm
I1206 23:48:19.166491 14420 net.cpp:408] conv8_2_mbox_conf_flat -> conv8_2_mbox_conf_flat
I1206 23:48:19.166515 14420 net.cpp:150] Setting up conv8_2_mbox_conf_flat
I1206 23:48:19.166520 14420 net.cpp:157] Top shape: 5 54 (270)
I1206 23:48:19.166522 14420 net.cpp:165] Memory required for data: 1238018104
I1206 23:48:19.166524 14420 layer_factory.hpp:77] Creating layer conv8_2_mbox_priorbox
I1206 23:48:19.166529 14420 net.cpp:100] Creating Layer conv8_2_mbox_priorbox
I1206 23:48:19.166532 14420 net.cpp:434] conv8_2_mbox_priorbox <- conv8_2_conv8_2_relu_0_split_3
I1206 23:48:19.166537 14420 net.cpp:434] conv8_2_mbox_priorbox <- data_data_0_split_5
I1206 23:48:19.166540 14420 net.cpp:408] conv8_2_mbox_priorbox -> conv8_2_mbox_priorbox
I1206 23:48:19.166566 14420 net.cpp:150] Setting up conv8_2_mbox_priorbox
I1206 23:48:19.166570 14420 net.cpp:157] Top shape: 1 2 108 (216)
I1206 23:48:19.166574 14420 net.cpp:165] Memory required for data: 1238018968
I1206 23:48:19.166575 14420 layer_factory.hpp:77] Creating layer conv9_2_mbox_loc
I1206 23:48:19.166581 14420 net.cpp:100] Creating Layer conv9_2_mbox_loc
I1206 23:48:19.166584 14420 net.cpp:434] conv9_2_mbox_loc <- conv9_2_conv9_2_relu_0_split_0
I1206 23:48:19.166589 14420 net.cpp:408] conv9_2_mbox_loc -> conv9_2_mbox_loc
I1206 23:48:19.167894 14420 net.cpp:150] Setting up conv9_2_mbox_loc
I1206 23:48:19.167902 14420 net.cpp:157] Top shape: 5 12 1 1 (60)
I1206 23:48:19.167906 14420 net.cpp:165] Memory required for data: 1238019208
I1206 23:48:19.167910 14420 layer_factory.hpp:77] Creating layer conv9_2_mbox_loc_perm
I1206 23:48:19.167915 14420 net.cpp:100] Creating Layer conv9_2_mbox_loc_perm
I1206 23:48:19.167918 14420 net.cpp:434] conv9_2_mbox_loc_perm <- conv9_2_mbox_loc
I1206 23:48:19.167922 14420 net.cpp:408] conv9_2_mbox_loc_perm -> conv9_2_mbox_loc_perm
I1206 23:48:19.168042 14420 net.cpp:150] Setting up conv9_2_mbox_loc_perm
I1206 23:48:19.168046 14420 net.cpp:157] Top shape: 5 1 1 12 (60)
I1206 23:48:19.168050 14420 net.cpp:165] Memory required for data: 1238019448
I1206 23:48:19.168051 14420 layer_factory.hpp:77] Creating layer conv9_2_mbox_loc_flat
I1206 23:48:19.168056 14420 net.cpp:100] Creating Layer conv9_2_mbox_loc_flat
I1206 23:48:19.168058 14420 net.cpp:434] conv9_2_mbox_loc_flat <- conv9_2_mbox_loc_perm
I1206 23:48:19.168061 14420 net.cpp:408] conv9_2_mbox_loc_flat -> conv9_2_mbox_loc_flat
I1206 23:48:19.168084 14420 net.cpp:150] Setting up conv9_2_mbox_loc_flat
I1206 23:48:19.168088 14420 net.cpp:157] Top shape: 5 12 (60)
I1206 23:48:19.168090 14420 net.cpp:165] Memory required for data: 1238019688
I1206 23:48:19.168093 14420 layer_factory.hpp:77] Creating layer conv9_2_mbox_conf
I1206 23:48:19.168099 14420 net.cpp:100] Creating Layer conv9_2_mbox_conf
I1206 23:48:19.168102 14420 net.cpp:434] conv9_2_mbox_conf <- conv9_2_conv9_2_relu_0_split_1
I1206 23:48:19.168115 14420 net.cpp:408] conv9_2_mbox_conf -> conv9_2_mbox_conf
I1206 23:48:19.169220 14420 net.cpp:150] Setting up conv9_2_mbox_conf
I1206 23:48:19.169229 14420 net.cpp:157] Top shape: 5 6 1 1 (30)
I1206 23:48:19.169232 14420 net.cpp:165] Memory required for data: 1238019808
I1206 23:48:19.169237 14420 layer_factory.hpp:77] Creating layer conv9_2_mbox_conf_perm
I1206 23:48:19.169242 14420 net.cpp:100] Creating Layer conv9_2_mbox_conf_perm
I1206 23:48:19.169245 14420 net.cpp:434] conv9_2_mbox_conf_perm <- conv9_2_mbox_conf
I1206 23:48:19.169250 14420 net.cpp:408] conv9_2_mbox_conf_perm -> conv9_2_mbox_conf_perm
I1206 23:48:19.169370 14420 net.cpp:150] Setting up conv9_2_mbox_conf_perm
I1206 23:48:19.169374 14420 net.cpp:157] Top shape: 5 1 1 6 (30)
I1206 23:48:19.169378 14420 net.cpp:165] Memory required for data: 1238019928
I1206 23:48:19.169379 14420 layer_factory.hpp:77] Creating layer conv9_2_mbox_conf_flat
I1206 23:48:19.169384 14420 net.cpp:100] Creating Layer conv9_2_mbox_conf_flat
I1206 23:48:19.169386 14420 net.cpp:434] conv9_2_mbox_conf_flat <- conv9_2_mbox_conf_perm
I1206 23:48:19.169390 14420 net.cpp:408] conv9_2_mbox_conf_flat -> conv9_2_mbox_conf_flat
I1206 23:48:19.169414 14420 net.cpp:150] Setting up conv9_2_mbox_conf_flat
I1206 23:48:19.169419 14420 net.cpp:157] Top shape: 5 6 (30)
I1206 23:48:19.169420 14420 net.cpp:165] Memory required for data: 1238020048
I1206 23:48:19.169423 14420 layer_factory.hpp:77] Creating layer conv9_2_mbox_priorbox
I1206 23:48:19.169427 14420 net.cpp:100] Creating Layer conv9_2_mbox_priorbox
I1206 23:48:19.169430 14420 net.cpp:434] conv9_2_mbox_priorbox <- conv9_2_conv9_2_relu_0_split_2
I1206 23:48:19.169433 14420 net.cpp:434] conv9_2_mbox_priorbox <- data_data_0_split_6
I1206 23:48:19.169437 14420 net.cpp:408] conv9_2_mbox_priorbox -> conv9_2_mbox_priorbox
I1206 23:48:19.169461 14420 net.cpp:150] Setting up conv9_2_mbox_priorbox
I1206 23:48:19.169466 14420 net.cpp:157] Top shape: 1 2 12 (24)
I1206 23:48:19.169468 14420 net.cpp:165] Memory required for data: 1238020144
I1206 23:48:19.169471 14420 layer_factory.hpp:77] Creating layer mbox_loc
I1206 23:48:19.169476 14420 net.cpp:100] Creating Layer mbox_loc
I1206 23:48:19.169478 14420 net.cpp:434] mbox_loc <- conv4_3_norm_mbox_loc_flat
I1206 23:48:19.169482 14420 net.cpp:434] mbox_loc <- fc7_mbox_loc_flat
I1206 23:48:19.169486 14420 net.cpp:434] mbox_loc <- conv6_2_mbox_loc_flat
I1206 23:48:19.169490 14420 net.cpp:434] mbox_loc <- conv7_2_mbox_loc_flat
I1206 23:48:19.169493 14420 net.cpp:434] mbox_loc <- conv8_2_mbox_loc_flat
I1206 23:48:19.169497 14420 net.cpp:434] mbox_loc <- conv9_2_mbox_loc_flat
I1206 23:48:19.169500 14420 net.cpp:408] mbox_loc -> mbox_loc
I1206 23:48:19.169525 14420 net.cpp:150] Setting up mbox_loc
I1206 23:48:19.169529 14420 net.cpp:157] Top shape: 5 25224 (126120)
I1206 23:48:19.169531 14420 net.cpp:165] Memory required for data: 1238524624
I1206 23:48:19.169533 14420 layer_factory.hpp:77] Creating layer mbox_conf
I1206 23:48:19.169538 14420 net.cpp:100] Creating Layer mbox_conf
I1206 23:48:19.169541 14420 net.cpp:434] mbox_conf <- conv4_3_norm_mbox_conf_flat
I1206 23:48:19.169544 14420 net.cpp:434] mbox_conf <- fc7_mbox_conf_flat
I1206 23:48:19.169548 14420 net.cpp:434] mbox_conf <- conv6_2_mbox_conf_flat
I1206 23:48:19.169551 14420 net.cpp:434] mbox_conf <- conv7_2_mbox_conf_flat
I1206 23:48:19.169554 14420 net.cpp:434] mbox_conf <- conv8_2_mbox_conf_flat
I1206 23:48:19.169558 14420 net.cpp:434] mbox_conf <- conv9_2_mbox_conf_flat
I1206 23:48:19.169560 14420 net.cpp:408] mbox_conf -> mbox_conf
I1206 23:48:19.169584 14420 net.cpp:150] Setting up mbox_conf
I1206 23:48:19.169589 14420 net.cpp:157] Top shape: 5 12612 (63060)
I1206 23:48:19.169591 14420 net.cpp:165] Memory required for data: 1238776864
I1206 23:48:19.169594 14420 layer_factory.hpp:77] Creating layer mbox_priorbox
I1206 23:48:19.169597 14420 net.cpp:100] Creating Layer mbox_priorbox
I1206 23:48:19.169600 14420 net.cpp:434] mbox_priorbox <- conv4_3_norm_mbox_priorbox
I1206 23:48:19.169611 14420 net.cpp:434] mbox_priorbox <- fc7_mbox_priorbox
I1206 23:48:19.169615 14420 net.cpp:434] mbox_priorbox <- conv6_2_mbox_priorbox
I1206 23:48:19.169617 14420 net.cpp:434] mbox_priorbox <- conv7_2_mbox_priorbox
I1206 23:48:19.169620 14420 net.cpp:434] mbox_priorbox <- conv8_2_mbox_priorbox
I1206 23:48:19.169623 14420 net.cpp:434] mbox_priorbox <- conv9_2_mbox_priorbox
I1206 23:48:19.169626 14420 net.cpp:408] mbox_priorbox -> mbox_priorbox
I1206 23:48:19.169651 14420 net.cpp:150] Setting up mbox_priorbox
I1206 23:48:19.169654 14420 net.cpp:157] Top shape: 1 2 25224 (50448)
I1206 23:48:19.169657 14420 net.cpp:165] Memory required for data: 1238978656
I1206 23:48:19.169659 14420 layer_factory.hpp:77] Creating layer mbox_conf_reshape
I1206 23:48:19.169664 14420 net.cpp:100] Creating Layer mbox_conf_reshape
I1206 23:48:19.169667 14420 net.cpp:434] mbox_conf_reshape <- mbox_conf
I1206 23:48:19.169670 14420 net.cpp:408] mbox_conf_reshape -> mbox_conf_reshape
I1206 23:48:19.169706 14420 net.cpp:150] Setting up mbox_conf_reshape
I1206 23:48:19.169711 14420 net.cpp:157] Top shape: 5 6306 2 (63060)
I1206 23:48:19.169713 14420 net.cpp:165] Memory required for data: 1239230896
I1206 23:48:19.169715 14420 layer_factory.hpp:77] Creating layer mbox_conf_softmax
I1206 23:48:19.169719 14420 net.cpp:100] Creating Layer mbox_conf_softmax
I1206 23:48:19.169723 14420 net.cpp:434] mbox_conf_softmax <- mbox_conf_reshape
I1206 23:48:19.169725 14420 net.cpp:408] mbox_conf_softmax -> mbox_conf_softmax
I1206 23:48:19.170032 14420 net.cpp:150] Setting up mbox_conf_softmax
I1206 23:48:19.170039 14420 net.cpp:157] Top shape: 5 6306 2 (63060)
I1206 23:48:19.170042 14420 net.cpp:165] Memory required for data: 1239483136
I1206 23:48:19.170044 14420 layer_factory.hpp:77] Creating layer mbox_conf_flatten
I1206 23:48:19.170048 14420 net.cpp:100] Creating Layer mbox_conf_flatten
I1206 23:48:19.170052 14420 net.cpp:434] mbox_conf_flatten <- mbox_conf_softmax
I1206 23:48:19.170055 14420 net.cpp:408] mbox_conf_flatten -> mbox_conf_flatten
I1206 23:48:19.170079 14420 net.cpp:150] Setting up mbox_conf_flatten
I1206 23:48:19.170083 14420 net.cpp:157] Top shape: 5 12612 (63060)
I1206 23:48:19.170086 14420 net.cpp:165] Memory required for data: 1239735376
I1206 23:48:19.170089 14420 layer_factory.hpp:77] Creating layer detection_out
I1206 23:48:19.170099 14420 net.cpp:100] Creating Layer detection_out
I1206 23:48:19.170102 14420 net.cpp:434] detection_out <- mbox_loc
I1206 23:48:19.170105 14420 net.cpp:434] detection_out <- mbox_conf_flatten
I1206 23:48:19.170109 14420 net.cpp:434] detection_out <- mbox_priorbox
I1206 23:48:19.170112 14420 net.cpp:408] detection_out -> detection_out
I1206 23:48:19.170599 14420 net.cpp:150] Setting up detection_out
I1206 23:48:19.170608 14420 net.cpp:157] Top shape: 1 1 1 7 (7)
I1206 23:48:19.170611 14420 net.cpp:165] Memory required for data: 1239735404
I1206 23:48:19.170614 14420 layer_factory.hpp:77] Creating layer detection_eval
I1206 23:48:19.170619 14420 net.cpp:100] Creating Layer detection_eval
I1206 23:48:19.170622 14420 net.cpp:434] detection_eval <- detection_out
I1206 23:48:19.170625 14420 net.cpp:434] detection_eval <- label
I1206 23:48:19.170629 14420 net.cpp:408] detection_eval -> detection_eval
I1206 23:48:19.170719 14420 net.cpp:150] Setting up detection_eval
I1206 23:48:19.170725 14420 net.cpp:157] Top shape: 1 1 2 5 (10)
I1206 23:48:19.170727 14420 net.cpp:165] Memory required for data: 1239735444
I1206 23:48:19.170730 14420 net.cpp:228] detection_eval does not need backward computation.
I1206 23:48:19.170733 14420 net.cpp:228] detection_out does not need backward computation.
I1206 23:48:19.170737 14420 net.cpp:228] mbox_conf_flatten does not need backward computation.
I1206 23:48:19.170738 14420 net.cpp:228] mbox_conf_softmax does not need backward computation.
…
